Project/models/checkpoint.pth (torch, 116695 bytes, 6 tensors)

conv1.0.weight f4 [16, 1, 3, 3]
000000 c2 37 c1 3d 85 c4 c8 bc 20 15 2a be 0e 43 77 bc
       0.09434463 -0.02450777 -0.16609621 -0.015091671
000010 78 85 49 3e 10 e6 d5 3e 33 82 2d bd 15 67 29 3e
       0.1967982 0.41777086 -0.042360496 0.16543229
000020 c4 07 08 bf b1 0a c3 bf 93 dc 43 3e cb 8a 08 3d
       -0.5313685 -1.5237638 0.19127111 0.03333549
000030 42 49 89 3d f1 3b 86 3f e9 0b 94 be 9b ee a6 3e
       0.06703426 1.0487043 -0.28915337 0.32603917
000040 72 e3 ce bd 9a b2 a9 bf 81 ff 97 be 53 e9 94 be
       -0.101019755 -1.325763 -0.29687122 -0.29084262
000050 d4 f7 3b bb 09 6c a4 be a2 d2 9d 3d 44 24 b3 bd
       -0.0028681653 -0.32113674 0.07706191 -0.087471515
000060 ba 02 87 3c de 90 7e be 69 08 64 be b5 10 0e 3f
       0.016480792 -0.2485995 -0.22268833 0.5549424
000070 50 ed e4 3e bb 98 b9 3c a6 a8 e0 bb 90 df b4 3e
       0.44712305 0.022655835 -0.006856042 0.35326815
000080 42 d5 5f bf be 48 97 bf 46 b8 5b bf 2e 1c a4 bf
       -0.8743478 -1.1819074 -0.85828054 -1.28211
000090 44 39 a5 bf 7a 24 21 bf 1a a2 17 3f 8b 96 d1 be
       -1.2908101 -0.62946284 0.5923172 -0.40935168
0000a0 35 d1 a1 3d 13 57 0d 3f 28 4b 92 bf 4b f9 dd be
       0.07901231 0.5521099 -1.1429186 -0.43354258
0000b0 62 41 87 3e f0 46 97 3e 50 e6 7d 3e c0 4b f5 be
       0.2641707 0.2954631 0.24794888 -0.47909355
0000c0 5a 9d 16 bf 05 d1 56 bf 15 b2 ea bf c8 71 21 3f
       -0.5883385 -0.8391269 -1.8335596 0.6306424
0000d0 73 34 45 3e f4 78 c1 3e 25 8f 17 3f c4 c1 c0 3e
       0.19258289 0.37787592 0.59202796 0.3764783
0000e0 a3 e3 89 be 2b a5 d7 3e 75 c4 71 be 48 82 58 bf
       -0.26931486 0.421182 -0.23610099 -0.84573793
0000f0 8e 6e 1a 3f 13 09 14 be 9f bb 27 bf 27 7a 44 bf
       0.60324943 -0.14456587 -0.6552066 -0.7674889
000100 e4 d3 be bc 77 77 6d 3e ba 8b 17 bf 53 c7 af 3e
       -0.023294397 0.23190103 -0.5919758 0.3433176
000110 9f a0 6e 3d 00 d4 06 3f ba f3 79 be 3e f9 8c be
       0.05825865 0.52667236 -0.2440938 -0.27533907
000120 87 4f fe 3e cb 40 21 3f 13 f6 26 bf e9 fd cc be
       0.4967005 0.6298949 -0.6521923 -0.40037468
000130 e4 b4 02 3f 8f 82 39 3f 95 20 66 bf 47 5c fd be
       0.5105727 0.7246484 -0.89893466 -0.49484465
000140 b7 65 61 bc 8f dc 74 3e 85 27 78 bf ff 34 f6 3d
       -0.013757161 0.23912261 -0.969353 0.12021827
000150 be 49 ce 3e a0 67 9c bf f2 bf 49 3d f4 00 36 3f
       0.40290636 -1.2219124 0.04925532 0.71095204
000160 f7 c8 c9 3c 24 de 47 be 7b 3a 3d 3e ac 62 15 bf
       0.02463196 -0.19518334 0.1847934 -0.58353686
000170 54 82 53 bf 64 9d 43 3f 99 23 9c 3e 33 bf e2 3e
       -0.8262074 0.76412034 0.3049591 0.44286498
000180 3d 63 c9 bd e3 0b b0 3e bd f1 1f 3e c7 35 c0 bc
       -0.09833381 0.3438407 0.1561956 -0.023463143
000190 26 e9 54 bf f7 11 bc bd dc b8 03 bf 65 f9 8b 3c
       -0.83168256 -0.09183114 -0.5145395 0.017086694
0001a0 67 37 90 3e da 7d ec 3e 3f 6d ca 3e 8e f3 83 3e
       0.2816727 0.46189767 0.39536473 0.25771755
0001b0 64 16 8a 3b 08 db 4f be ad fd d0 bd 6a a7 35 3e
       0.004214095 -0.20298398 -0.10204635 0.17739645
0001c0 e1 52 86 be f6 dd e7 3d 46 bb ac 3c 1b 17 dc be
       -0.26235107 0.113216326 0.021085393 -0.42986378
0001d0 06 d0 95 bd d4 96 81 bf ac 90 c9 be ed 76 10 bf
       -0.07315068 -1.0124154 -0.39368188 -0.56431466
0001e0 78 48 7a be 25 e8 35 3f c5 5c 55 bf 67 12 a1 bf
       -0.24441707 0.7105735 -0.8334468 -1.2583741
0001f0 a2 de b9 bd 2d c0 07 3f e5 53 7c bf cd f5 19 3f
       -0.09075667 0.5302761 -0.9856551 0.6014069
000200 5f 7a 0e be b8 00 13 bd af 88 01 3f 69 74 0f bf
       -0.13913868 -0.035889357 0.5059919 -0.56037
000210 c0 3b 89 bf bb 83 04 be ef 5b 63 3e aa 93 86 be
       -1.0721359 -0.12940876 0.22203039 -0.26284534
000220 64 c0 9b 3e 60 47 62 3f a0 47 85 bc 47 2e cb be
       0.3042022 0.8839016 -0.016269505 -0.39683744
000230 14 92 61 be 00 15 d4 bf 48 e0 d0 be c4 05 97 be
       -0.2202838 -1.6568909 -0.40796113 -0.29496586

conv1.0.bias f4 [16]
000000 28 a7 1c bf b8 5e fd be a1 0c a4 bd 2d bb 62 bd
       -0.6119256 -0.49486327 -0.08010221 -0.055354286
000010 37 6f be be 99 1c f0 be 73 14 30 bf 3a 75 53 bf
       -0.37194225 -0.46896818 -0.68781203 -0.8260075
000020 39 77 48 bf f0 a2 06 bf 58 1c 49 bf 2b bc b4 bd
       -0.7830692 -0.5259237 -0.78558874 -0.08824953
000030 22 c1 bc be b7 5a 30 bd 62 85 20 bf d4 db b0 bd
       -0.368661 -0.043055262 -0.62703526 -0.08635679

conv2.0.weight f4 [32, 16, 5, 5]
000000 b8 bf ca bd 15 15 ce bd ea ad b8 bd 5e 54 6b bd
       -0.09899849 -0.10062615 -0.090175465 -0.057453506
000010 19 b2 08 be db ae e6 bd 72 a2 a2 bd 3d ca 5a bd
       -0.13349189 -0.1126382 -0.0794114 -0.053415526
000020 db ae d5 bd 63 aa e7 bc 9d 0e 31 bd e9 a6 c4 bd
       -0.10433742 -0.028279489 -0.043226827 -0.09602148
000030 a8 a5 92 bd 88 c9 a9 bd 22 19 37 bd b8 7b d8 bd
       -0.07160503 -0.08290392 -0.044701703 -0.105704725
000040 c4 e9 99 bd f9 c3 ea bd fa 13 b2 bd 07 f2 17 bd
       -0.075152904 -0.1146316 -0.086952165 -0.03709605
000050 96 d8 84 bc b8 27 f6 bd a6 60 a6 bd a9 c9 b3 bd
       -0.016216557 -0.120192945 -0.08123903 -0.08778698
000060 00 c3 d4 bd 86 02 be bd 47 b4 5e bd bc e5 0d 3b
       -0.10388756 -0.09277825 -0.054371145 0.0021651825
000070 2a 90 18 bd 19 fb 9e bd c6 10 49 bd 7c c8 6a bd
       -0.03724686 -0.07762737 -0.049088262 -0.057320103
000080 72 3b 9c bb e0 2e 86 bd 4a 7d 03 bc 6a 6c a9 bd
       -0.0047678286 -0.065519094 -0.008025477 -0.082726315
000090 90 cc d4 bd dc d7 84 bd c2 d6 ac bc ea 56 50 bc
       -0.1039058 -0.064864844 -0.021098498 -0.012716034
0000a0 12 8e c5 bd ce 09 97 bd 01 c6 9a bd 72 00 c2 bc
       -0.096462384 -0.07374917 -0.075572975 -0.023681853
0000b0 ee cf 07 bc 97 a9 30 bc f3 8c 0b bd cf 0d 1a bd
       -0.00828932 -0.010782621 -0.034069967 -0.037610825
0000c0 97 86 86 bc 72 0f 72 bc 68 da 27 bd 1d f6 e5 bd
       -0.0164216 -0.01477419 -0.040979773 -0.11228583
0000d0 83 17 94 3d d2 86 b7 3d f0 30 a9 bd b0 bb 9d bd
       0.07231047 0.08961262 -0.08261287 -0.07701814
0000e0 b6 ff 1b bd d5 6c 87 bd f0 7f 69 3d 2d ca a5 bd
       -0.03808566 -0.06612555 0.057006776 -0.080952026
0000f0 75 36 e0 bd d1 08 c2 3c 5d dd c3 bd a9 94 4d bd
       -0.10947887 0.023685845 -0.09563706 -0.0501906
000100 e9 c6 7e bd bc 75 d7 3c 92 f3 00 bd 83 23 44 3b
       -0.062201414 0.026301257 -0.031482287 0.0029928393
000110 6e 0b c7 bd 63 ae 0b bd 2c 1e 05 3d fd 96 cc bc
       -0.09718977 -0.034101855 0.032499477 -0.02497434
000120 04 d9 56 bd 93 d3 45 3d 78 e3 e1 bd ab 96 20 bd
       -0.052453056 0.048297476 -0.11029714 -0.03920619
000130 10 09 54 bd 30 cd 5f bc b7 30 ad bd fc 18 e3 bd
       -0.051766455 -0.01365976 -0.08456557 -0.1108875
000140 57 2a 1d be d7 7d dc bd fe 63 01 be e9 a5 88 bd
       -0.15348183 -0.107661895 -0.126358 -0.0667227
000150 40 cb af bd 49 b9 63 bd 49 bb b7 bd 9c 81 da bd
       -0.08583689 -0.055596624 -0.08971269 -0.10669252
000160 45 39 52 bd 03 9b 50 bd c1 d2 98 bd 78 c8 fa bd
       -0.051324148 -0.05092908 -0.07462073 -0.12245268
000170 17 3f 16 bd f5 03 c9 bd 39 43 90 bd 1e 7d c4 bd
       -0.03668126 -0.09815208 -0.07044072 -0.09594177
000180 e6 91 41 bd cb 63 7b bd 96 36 a5 bd 17 b1 a9 bd
       -0.04725828 -0.061374467 -0.08067052 -0.0828573
000190 3d 36 d8 bc a3 6e c2 bd b3 e7 01 bd 08 55 e4 bd
       -0.02639305 -0.094937585 -0.031715106 -0.11149031
0001a0 44 22 18 3c b0 a8 93 bd e2 7a c0 bc 27 d0 f4 bd
       0.009285513 -0.07209909 -0.023496095 -0.119537644
0001b0 f9 75 ae bd 8f d4 3b bd 65 cb 0d bd 8e 5a ec bd
       -0.08518595 -0.04585701 -0.0346178 -0.115407094
0001c0 f2 62 e4 bd 04 85 d0 bc be 52 5a bd 5f 01 02 be
       -0.11151685 -0.025454052 -0.053301565 -0.12695836
0001d0 b0 fc d3 bd 53 9c e2 bd 45 23 e2 bc a5 d3 7b bd
       -0.10350931 -0.11064973 -0.027604708 -0.061481137
0001e0 39 8f ae bd 55 9b 04 be b0 39 3a bd 98 2d a6 bd
       -0.08523411 -0.1294988 -0.04546517 -0.08114165
0001f0 33 e8 8a bd e0 03 15 bd 33 9d 0c bd 6d 1c b7 bd
       -0.0678257 -0.03638065 -0.034329604 -0.08940969
000200 6f c2 f6 bc 40 8e b4 bd fd 6a 0d bd 1c 70 93 bd
       -0.03012201 -0.088161945 -0.03452586 -0.071991175
000210 a1 dd 88 bd ec 89 a1 bc 8f 63 b6 bd b1 54 0e bd
       -0.06682897 -0.019719087 -0.08905708 -0.034748737
000220 ad 45 f8 bc 79 81 25 bd f5 d4 83 bd 51 7b b1 bd
       -0.030306662 -0.040406678 -0.06437103 -0.08666099
000230 76 b8 b2 bd 78 86 e5 bd 26 e7 c7 bc ff 21 af bd
       -0.087265894 -0.112072885 -0.024402212 -0.08551406
000240 9f eb c0 bd 77 25 b7 bc 04 60 35 bd eb 16 af bd
       -0.09419941 -0.022356732 -0.04428102 -0.08549293
000250 2b a7 9c bd b9 9c aa bd b5 20 cf bd 84 15 81 bd
       -0.07649072 -0.08330674 -0.1011366 -0.06302932
000260 0c d7 0d 3d 21 ae 53 bd ea ab 8f bd 9f 11 b4 bd
       0.034628913 -0.051679734 -0.07015212 -0.087924235
000270 1c 17 52 bd 63 cd da 3d 17 d4 a0 bd 2b bd 1f bd
       -0.05129157 0.10683706 -0.07852953 -0.038998764
000280 08 6b d5 bd 4b 2e 36 bd 40 76 b7 bd 16 19 d9 3c
       -0.10420805 -0.044477742 -0.08958101 0.02650122
000290 09 61 9d bd 9b 1e f3 3b 70 71 9c bd c6 ff f7 bd
       -0.076845236 0.00741942 -0.07638824 -0.12109332
0002a0 51 dd 86 bd 1c ab 8a bd 6b e2 50 bd cc 92 3b 3c
       -0.065851815 -0.06770918 -0.05099718 0.011448573
0002b0 30 d0 09 bd ce ff 2f bd ba cb de bd b9 1e cc bd
       -0.03364581 -0.042968564 -0.108787015 -0.099667974
0002c0 8c cc 1b 3c aa e2 ee bd b8 a5 89 bd 99 4b 8c bc
       0.009509217 -0.116643265 -0.067210615 -0.017125892
0002d0 06 8b 31 bd c2 48 34 bd 9c bd 92 bc c2 7a 63 bd
       -0.043345474 -0.0440147 -0.017912678 -0.055536993
0002e0 49 12 6d bd b4 2c a9 bd cb c1 d7 bd bb 84 dd bd
       -0.057878766 -0.082604796 -0.1053501 -0.10816332
0002f0 fc e6 d8 bd 59 7f af bd ed 32 ec bd 45 a4 ea bd
       -0.10590932 -0.085692115 -0.11533151 -0.11457113
000300 a6 11 9b bd 00 f1 ba bd d9 3b ce bb b0 4b 3c b9
       -0.075717255 -0.09127998 -0.0062937555 -0.00017957273
000310 a0 b4 b4 bd 77 97 be bd 72 ab b5 bd 61 b7 b6 bd
       -0.08823514 -0.093062334 -0.08870591 -0.089216955
000320 64 6a 68 bd 76 21 51 bd a4 b6 45 bd bf e0 e8 bd
       -0.056742087 -0.0510573 -0.048269883 -0.11370992
000330 1a 9b b7 bc 30 88 88 bd 84 f0 40 3d 6a 29 31 bd
       -0.022412825 -0.06666601 0.047104374 -0.043252386
000340 f2 9d 4f bd fd c5 5e bd 05 81 66 3c 80 06 8c bd
       -0.050687738 -0.054388035 0.014068847 -0.06837177
000350 59 2f 81 bd 19 86 27 bd 4f bd 35 3c 13 08 6c bd
       -0.06307859 -0.04089937 0.011092498 -0.057624888
000360 92 19 28 3c 8b 52 fe bc 4b 65 00 be 00 48 cb bd
       0.010260003 -0.031045219 -0.1253864 -0.09925842
000370 6d 6d 7d bd 62 f6 d4 bc ad c5 23 bd 56 ae 76 bd
       -0.061871935 -0.02599639 -0.03998344 -0.060224853
000380 2a ed 3f bd ec 36 d1 bd 6d e7 22 bd 5d 9d ac bd
       -0.046857037 -0.10215554 -0.039771486 -0.08428452
000390 c1 62 a5 bd 3e d2 06 bd 93 a4 05 be f5 a9 04 be
       -0.080754764 -0.032915346 -0.13051061 -0.12955458
0003a0 6d f7 b4 bd 9f 0b 8a bd a9 d6 9e bd ec 4a be bd
       -0.08836255 -0.06740498 -0.07755787 -0.09291634
0003b0 74 77 98 bd 7b b5 6d bd b0 26 f2 bd 1b b1 86 bd
       -0.07444659 -0.0580344 -0.11823785 -0.06576749
0003c0 74 fb fc bc 0f 27 8b bd c0 44 c4 bd 87 04 9a bd
       -0.030881621 -0.06794559 -0.095834255 -0.07520395
0003d0 9d 89 6b bd a6 6c 76 3b be f8 c0 bb 07 1f 21 bd
       -0.057504285 0.003760138 -0.0058890274 -0.03933623
0003e0 73 29 dc bd 72 45 0f bd f0 b9 3e bd 45 0a 28 3d
       -0.10750093 -0.034978338 -0.046564043 0.04102542
0003f0 57 e7 32 bc f4 98 02 be 35 c1 1c bd 94 e9 19 bd
       -0.0109194135 -0.1275366 -0.038270194 -0.037576273

conv2.0.bias f4 [32]
000000 52 ab 06 bd 56 46 1d be 8d 32 0b bd 29 12 10 bd
       -0.032878228 -0.15358862 -0.033983756 -0.03517357
000010 b7 8e a4 be 32 06 6d bd 89 95 ab bd 0a 28 19 be
       -0.32140133 -0.057867236 -0.08378131 -0.1495668
000020 5a 80 79 be 42 4e 42 bf 99 d2 5f be 86 5b 96 bc
       -0.24365368 -0.7590066 -0.2185768 -0.018354189
000030 14 a3 0f be 94 33 a7 bd bb 94 a6 bd ac a6 96 bd
       -0.14027053 -0.081641346 -0.08133837 -0.07356009
000040 bf 81 db bc 1f 89 a1 be c4 27 4a bd 15 e8 c6 be
       -0.026795266 -0.31549928 -0.04935433 -0.3884894
000050 45 00 95 bd 6d ea d0 bb 40 0b 38 bd ec 23 bc bd
       -0.07275442 -0.006375602 -0.044932604 -0.09186539
000060 16 08 a4 be 52 cf 2a be 9b a0 0b be 40 4c e1 bd
       -0.3203742 -0.16680649 -0.13635485 -0.11000872
000070 18 50 d3 bd 6f 4c 16 be dc 17 d7 bd 10 1b 13 bd
       -0.10318011 -0.14677595 -0.10502598 -0.03591448

linear.weight f4 [10, 1568]
000000 32 33 a9 bc d3 04 44 bd 3b fa 70 bd 6c 72 48 bd
       -0.020654295 -0.047856163 -0.05883239 -0.048937246
000010 73 cc bd bb c9 5a 88 3d 7e 65 80 3d 1b f5 48 bd
       -0.0057921945 0.06657941 0.06269358 -0.049061876
000020 b0 91 52 bd af ab de 3d d7 62 45 bb fd bd 3d bd
       -0.05140847 0.1087259 -0.0030118728 -0.046323765
000030 a2 ca 8e bd 03 97 ce 3d 87 cd a4 bd 2e 14 4a 3d
       -0.06972243 0.10087397 -0.08047014 0.04933565
000040 89 17 94 3d 95 ce 42 bd 98 2f bf bd c2 db c2 bd
       0.072310515 -0.047560293 -0.0933525 -0.09514572
000050 74 54 24 bd a9 80 a3 bd df 63 59 3d 68 7b d5 bd
       -0.040119603 -0.07983524 0.05307376 -0.104239285
000060 d4 fb 8f bd 31 8f 5c 3d 1d 5b a7 bd db cd 98 bd
       -0.07030454 0.053847495 -0.08171675 -0.07461139
000070 99 a6 94 3d d7 19 ba bd ec 8a ce bd 7c ab 8d 3d
       0.072583385 -0.0908696 -0.10085091 0.06917474
000080 3e 87 62 3d 2a 28 00 bc 1b 86 51 bd 6d 0c 9f 3d
       0.05530476 -0.007822076 -0.051153284 0.07766042
000090 6d a7 78 bd e3 25 b2 bd 12 fa ce 3c fc 5d 89 3d
       -0.060706545 -0.086986326 0.025265727 0.06707379
0000a0 b6 38 d2 bd 53 ec 0a bd 54 92 eb 3d 95 fb 45 bd
       -0.10264723 -0.033916783 0.11502519 -0.04833563
0000b0 8b 5a 2d bd e6 e5 85 bd 31 a6 9b bd 2e 5e 76 bd
       -0.042322677 -0.0653799 -0.07600058 -0.06014841
0000c0 ae ec 65 bc bd a9 a4 3d dd a2 3a bd 0a 2b a7 3d
       -0.01403348 0.080401875 -0.045565475 0.08162506
0000d0 1a c3 b9 3d e6 f1 3b 3d 74 75 24 3d ff fe 3b 3d
       0.09070416 0.04588499 0.040151075 0.04589748
0000e0 34 de 7d bd 6e de a1 bc 94 66 40 3d a9 1a 8f 3d
       -0.061979488 -0.019759383 0.046972826 0.06987507
0000f0 3d cc 8e 3d e8 aa 1d 3d 86 2c 69 bd 56 95 09 3d
       0.06972549 0.038493067 -0.056927226 0.033589683
000100 8a 8e 97 bc c5 74 6b 3d 87 f3 15 3d 82 64 ac bd
       -0.018500585 0.057484407 0.0366092 -0.08417608
000110 4a 88 a7 bd 55 b7 36 3d fa 48 3d 3b b4 08 7a 3d
       -0.08180292 0.044608433 0.0028882609 0.061043456
000120 9b 12 35 3d dc 98 98 bd 97 d8 76 bd 78 47 90 3d
       0.044207197 -0.074510306 -0.06026515 0.070448816
000130 43 bc 47 bd 01 82 93 bc a0 bf 5c 3d 8e 40 39 3d
       -0.048763525 -0.018006327 0.053893685 0.04522758
000140 d0 48 96 bd 76 8c 56 3d 8e d7 8c 3d ad 8d 1c 3d
       -0.07338107 0.052380048 0.06877051 0.03822105
000150 c7 b3 0a bd 88 dd a0 3d a9 5b 82 3d a8 57 9a bd
       -0.033862855 0.07854754 0.06365139 -0.0753625
000160 2d 84 44 3d bc 6b 72 3d 64 03 64 3d c9 6a a5 bd
       0.047977615 0.059184775 0.055667296 -0.08077008
000170 74 d4 70 3d 50 dc 0e bc 00 a4 75 bd c2 fa 46 bd
       0.05879636 -0.008719519 -0.059970856 -0.048578985
000180 91 a5 6e bd 33 d6 a2 bd 51 81 9e bd 2d c2 85 bd
       -0.058263365 -0.079510115 -0.07739509 -0.06531177
000190 c6 36 94 3c da 7d eb 3c cc 6b bb bd 5c f7 b1 bd
       0.018092524 0.028746534 -0.0915142 -0.08689758
0001a0 0b 70 ac bd 65 56 92 bd da 7c 24 bd 22 89 d8 bd
       -0.08419808 -0.07145385 -0.04015813 -0.10573031
0001b0 44 0f 9c bd 80 27 95 bd 98 33 92 bd ab 0e c5 bd
       -0.07620099 -0.07282925 -0.07138747 -0.09621938
0001c0 19 82 9f 3a a5 67 c3 bd a2 19 8d bd 2c 2a 5c bd
       0.001216951 -0.09541253 -0.06889655 -0.053751156
0001d0 59 ff bd 3d 67 19 02 3d 31 f7 c6 bd 6a 36 82 3d
       0.09277219 0.031762507 -0.09715117 0.06358035
0001e0 3c 27 0a bd 94 6a bd bd 13 93 c2 bd 6a 7a 21 3c
       -0.033728823 -0.09248844 -0.095007084 0.009855846
0001f0 9a a7 67 bd 3a 0f 4c bd 08 2e 23 3d 97 2a 42 3d
       -0.05655632 -0.04981921 0.03983882 0.047403898
000200 31 9b 8d bd dd 98 ab bd d0 50 e5 bd 21 32 f7 bd
       -0.06914366 -0.08378766 -0.111970544 -0.12070108
000210 cd 1f b4 3d 3b 28 b8 bd f0 5a 2c 3d 81 ba 89 3d
       0.08795128 -0.08992048 0.042078912 0.06725026
000220 2d 3b 06 bd f6 98 5c bd de 34 b8 3c 99 e7 6b 3d
       -0.03277128 -0.053856812 0.022486147 0.057593916
000230 61 54 8b bd f7 ea a5 3d 4e a2 c1 3d 12 d6 95 3d
       -0.068032034 0.081014566 0.09454785 0.07316221
000240 14 f8 e9 3c a2 5a 57 3a 86 aa bd bc 53 1d ab bd
       0.028560676 0.00082151045 -0.023152601 -0.083552025
000250 59 c6 31 bd b9 1a ce 3b 9c d3 ba 3d 0c f6 84 3d
       -0.04340205 0.0062898067 0.091223925 0.06492242
000260 c9 ee 86 3d 69 6b 84 bd bc 6f 8b bd 40 c1 1e bd
       0.065885134 -0.06465799 -0.06808421 -0.038758516
000270 df 62 7f 3c d0 c1 59 bc d3 cc aa 3c c8 b4 8f 3d
       0.015587538 -0.013290837 0.02084962 0.07016903
000280 46 59 75 bc 3a 01 9f 3d 59 fb 50 3d fb 13 65 3c
       -0.014974898 0.07763906 0.051020954 0.0139818145
000290 ad 8c ad 3d 82 06 7b bd 42 b4 33 3d 52 aa 8a 3d
       0.084740974 -0.061285503 0.04387308 0.06770767
0002a0 a2 8d d9 3d da ed ca 3d cc 8a e5 3d c9 35 88 bd
       0.106227174 0.09908648 0.11208114 -0.06650884
0002b0 4b 5c 1f bd f6 3b b8 3d d7 20 32 3d 21 06 aa 3d
       -0.038906377 0.08995812 0.04348835 0.0830195
0002c0 c1 a2 9e 3d e5 0f b9 3d 71 8d bf bd cd 78 53 3d
       0.077458866 0.09036235 -0.0935315 0.051628876
0002d0 0d 97 bf 3d bd 31 6c 3d 8c 2b 83 3d e0 94 e7 3d
       0.093549825 0.05766462 0.0640479 0.113076925
0002e0 f1 5e f4 bd ed ad ea bd ac 59 f2 3d 69 cc b1 3d
       -0.11932171 -0.11458955 0.1183351 0.08681566
0002f0 e8 e9 16 bd f0 ff b3 3d 32 45 d1 3d 09 ca 9a bd
       -0.036844164 0.087890506 0.10218276 -0.075580664
000300 0c 0a d4 bd 0e be aa 3c 5d 84 9b bc aa 86 7a bd
       -0.10353479 0.020842578 -0.018984014 -0.061163582
000310 7b 21 d9 bd de a0 90 bd 73 b9 c8 3b f7 f4 68 be
       -0.10602089 -0.07061933 0.006125623 -0.22749697
000320 17 9e d8 3e 1f 68 51 3e 6c 61 ca be c7 bf b4 bd
       0.42308113 0.20449875 -0.39527452 -0.08825641
000330 a5 7a b0 bd 4f 8a fb bd e8 d0 61 3e 76 0b 5b 3e
       -0.086171426 -0.1228224 0.22052348 0.21391091
000340 46 32 7e 3e 6d ae 9e be 97 24 10 bd 92 2d 1e 3e
       0.24823865 -0.3099245 -0.035191145 0.15447071
000350 04 73 b0 bc 4c be c1 be 18 9d 19 3d 69 16 8d be
       -0.021539219 -0.37840497 0.037503332 -0.2755616
000360 56 55 1c be d1 38 97 bd 47 95 24 3e 06 81 c6 3e
       -0.15266928 -0.07383884 0.1607257 0.38770312
000370 7f c5 15 be bc fe 48 be 99 c9 40 be 36 9e c5 bd
       -0.1462612 -0.19628423 -0.18826903 -0.09649317
000380 aa 72 d4 bd 32 7e af 3c d9 27 a3 3e 86 f5 66 3c
       -0.10373433 0.02142248 0.3186634 0.014096623
000390 18 af 63 be d7 f0 12 be 74 44 10 bd be e4 c0 bd
       -0.22234762 -0.14349686 -0.035221532 -0.09418629
0003a0 3c b2 bd bd 7c a3 8b be ce 3a f3 bd 31 43 cf bd
       -0.09262511 -0.27273166 -0.118764505 -0.101202376
0003b0 c6 24 25 bd 94 1e 94 3e c7 de 90 bd bf 87 c0 3d
       -0.040318273 0.2892958 -0.070737414 0.094008915
0003c0 cb 3c 0a be 8f c9 30 be d2 2a 90 3d 4c be 83 3e
       -0.13499753 -0.17264389 0.07039417 0.25731122
0003d0 88 7c 27 3c fe 02 75 bd 77 bb 8c bd c1 de 1e 3d
       0.010222562 -0.059817307 -0.068716936 0.038786653
0003e0 cb 68 7b 3d ef 72 63 3d 37 c7 03 bd ed 17 f7 bc
       0.061379235 0.05552953 -0.032172408 -0.030162776
0003f0 53 e0 cf bd e2 da 3f bd d9 b0 05 bc 0f af 23 3d
       -0.10150208 -0.046839602 -0.00815984 0.03996187

linear.bias f4 [10]
000000 ef 45 ba 3e 57 14 67 3f dc 74 8d be 8c b5 ed be
       0.3638148 0.9026541 -0.2762822 -0.46427572
000010 de bc 98 be a3 c5 1b bf 11 21 51 3e a9 78 b1 be
       -0.29831594 -0.60848445 0.2042277 -0.3466237
000020 43 f9 ca 3e 26 db 8a 3e
       0.39643297 0.27120322
