Project/models/checkpoint.pth (torch, 973263 bytes, 8 tensors)

fc1.weight f4 [256, 784]
000000 f3 92 93 bc 4e 63 ad 3c 6e 69 19 bc 0a ea aa 3c
       -0.018014407 0.021165516 -0.009363515 0.020863552
000010 f8 14 b9 3b 84 ea 45 3c a9 07 0a 3d 68 b9 ee 3b
       0.0056482516 0.012079839 0.03369871 0.0072852857
000020 18 4f 48 3d 8a e1 e7 bc f0 39 b4 bb 31 19 a1 3d
       0.048903555 -0.028305788 -0.0055000708 0.07866133
000030 92 5b f5 3d ac ae e5 bc c6 25 25 bc 2c 6c 92 3c
       0.11980356 -0.028037392 -0.010079807 0.017873846
000040 cb 95 c1 3d ef b1 12 3e 15 9e 0b 3e 2a ed 2b 3e
       0.09452399 0.14325689 0.13634522 0.1678969
000050 5d 55 23 3d 7e 93 8e 3c e7 b3 1f 3d fa a6 d2 3c
       0.03987633 0.017404314 0.038989928 0.025714386
000060 5c a3 4f 3c 9a 56 f9 bc aa a2 dd 3c f2 9e 61 bc
       0.012673225 -0.030436803 0.027055103 -0.013770806
000070 c2 e9 86 3c 70 be dc bb dc b0 0b bd 7e c7 fa bc
       0.016468886 -0.006736569 -0.034104213 -0.030612703
000080 93 35 0c bd 31 96 01 3d 4f bd 0e 3e 91 49 2b 3e
       -0.03423078 0.031637374 0.13939403 0.16727282
000090 94 d7 5b 3e 96 5c 89 3d 82 e2 29 3e 36 fa 0f 3d
       0.21468955 0.067071125 0.16590312 0.03515073
0000a0 34 04 08 3d 83 ca d1 3d cd 73 58 3e aa 60 19 3e
       0.033207133 0.10243704 0.21137924 0.1497828
0000b0 e7 90 cc 3e 50 ff da 3e 3e b7 79 3e 70 a0 07 3e
       0.39954302 0.42772913 0.24386308 0.13244796
0000c0 c4 10 2d 3e 44 10 5c 3e e0 55 8c 3e 92 b7 56 3e
       0.16900927 0.2149058 0.27409267 0.20968464
0000d0 60 d5 d8 3b 00 e8 ed b9 b4 ee 52 3c 80 31 b8 bc
       0.006617233 -0.00045377016 0.012874294 -0.022484541
0000e0 c8 6c 86 3b 18 dd 00 bd 80 52 ac b9 9a 94 cf 3c
       0.004102323 -0.03146085 -0.00032867864 0.025339413
0000f0 9f 63 b0 3d 16 7d 05 3e a1 49 08 3e ac f6 99 3e
       0.08612751 0.13035998 0.13309337 0.30071008
000100 76 8e ad 3e 30 6d d0 3d f2 0e 84 3d 25 ba 96 bd
       0.33897752 0.10177076 0.06448163 -0.07359723
000110 e2 92 82 3d 76 c1 00 3e 1a d0 12 3e 49 3c a7 3d
       0.06375672 0.125738 0.14337197 0.08165795
000120 51 58 99 3d 20 43 82 3d 72 81 6f bc e3 02 62 bd
       0.07487548 0.06360459 -0.0146182645 -0.055178534
000130 4f 86 08 3d 33 a3 4c bc b4 b7 e7 bd a2 c4 01 be
       0.03333121 -0.012490082 -0.113143355 -0.12672666
000140 77 bb 7f 3d 67 0f 2c 3d 73 2b bf bc 0c c2 d9 3c
       0.06243464 0.042006876 -0.023336148 0.026581787
000150 22 53 80 3c d8 dd 83 3b c8 ef a8 bc e6 b2 37 bc
       0.01566464 0.0040242486 -0.02062215 -0.011212086
000160 21 0f 84 3d 00 a4 39 3e f8 a4 73 3d 56 96 25 3d
       0.06448198 0.18128967 0.0594835 0.040426575
000170 b0 22 81 bc 4d 16 82 bc 3e 3b d0 bd 54 59 fc bd
       -0.01576361 -0.015879774 -0.101675496 -0.123217255
000180 80 5d 3f bd 73 79 6c 3c 85 80 42 3d c3 93 06 3b
       -0.046720028 0.014433253 0.047485847 0.002053485
000190 02 6a 7a bc 58 10 4a 3e c9 fd 22 3d b3 95 ec 3d
       -0.015284063 0.19732797 0.03979281 0.1155199
0001a0 a4 2e ba bc 03 b2 13 3e a7 5b 03 be 6c 15 ba bd
       -0.022727318 0.14423375 -0.12827931 -0.09086117
0001b0 7f 25 79 3e 5b 03 dd 3d f7 2a a4 bc f8 d9 58 3c
       0.2433071 0.10791656 -0.020040018 0.013235562
0001c0 35 b1 8a bc a4 a1 79 3c ae 2f 84 3e a3 f1 28 3d
       -0.016930202 0.015236292 0.25817627 0.041246068
0001d0 4f 25 63 3d 66 be 39 3d 33 10 97 bd 2e 33 70 3d
       0.055455502 0.045347594 -0.07376137 0.05864256
0001e0 cd 86 dc 3d 9d 14 83 bd a4 cc cf bd 48 a8 38 be
       0.10767899 -0.06400416 -0.10146454 -0.18032944
0001f0 fd 26 04 be ae fb e1 bd 9f e5 f2 bd f3 23 17 bc
       -0.12905498 -0.11034332 -0.11860203 -0.00922488
000200 90 7e c3 bc 4a 86 ac 3d b7 67 f0 3d 22 7b 38 3e
       -0.02386406 0.08424051 0.11738532 0.18015721
000210 a7 2b 7e 3e da 59 82 3e 72 37 57 3c 44 91 ea 3d
       0.2482134 0.25459176 0.013135778 0.114534885
000220 e4 17 ff 3d cd 23 e6 3d a6 1c 3b 3d 98 3d 13 bc
       0.12455729 0.11237297 0.04568162 -0.008986853
000230 f0 5e c3 bc 78 ac 94 bb fb 45 89 3e f4 2e 2c 3e
       -0.02384898 -0.0045371614 0.26811203 0.16814786
000240 71 2c 1e bd 5e 4c 85 bd 6d 69 ae bd 25 d1 a4 3d
       -0.0386166 -0.065087065 -0.08516202 0.08047704
000250 68 49 cd 3d 5f 8f 1f bc a9 2d e7 bd 42 c5 06 be
       0.10023767 -0.009738772 -0.11288006 -0.13161185
000260 b9 e8 44 be f3 05 f5 bd da 8a ff bd d7 ae 7a bd
       -0.19229402 -0.11964025 -0.12477656 -0.061201897
000270 c9 ae 69 ba 97 71 8f 3d 2d cb 59 3d 3c c9 f5 3d
       -0.00089142896 0.070040874 0.05317228 0.12001273
000280 40 31 77 3e e2 8a 52 3e 95 bb 46 3e e4 9f 32 3e
       0.24139881 0.20560792 0.19407494 0.17443806
000290 bb ea 4e 3c 43 3b 84 3d 28 f3 c2 3d 25 18 b4 bc
       0.012629206 0.06456616 0.095190346 -0.02198417
0002a0 40 50 2f bc 32 1b cb 3c 2e f7 1d 3c 49 62 1e 3b
       -0.010700285 0.024793241 0.009641452 0.002416747
0002b0 50 0d 24 3d 75 27 f1 bd 43 45 3e 3d 9e 00 87 3d
       0.04005176 -0.11775104 0.046452772 0.065919146
0002c0 7a 21 24 3d cc 26 89 bd 80 df be bd 5b 37 12 be
       0.04007099 -0.06696853 -0.09319973 -0.14278929
0002d0 77 22 17 be 81 c7 2a be 29 c9 b5 bd 64 1b 1b bd
       -0.14759241 -0.16677667 -0.08876259 -0.03786792
0002e0 19 50 62 3d d3 20 fe 3d 52 f7 d3 3d e3 51 19 3e
       0.05525217 0.124086045 0.10349907 0.14972644
0002f0 f5 b8 40 3e ce 70 59 3e 0a 46 ed 3d ae 0d 19 3d
       0.18820556 0.21234438 0.115856245 0.03736656
000300 58 24 2f be 86 29 26 be a7 f8 86 3e d4 dc 73 3e
       -0.17103708 -0.16226777 0.26361582 0.23814708
000310 e0 5d 40 3b 14 ab c8 bb f7 bb b1 3d 46 58 fc 3d
       0.002935283 -0.0061239097 0.086784296 0.12321524
000320 55 29 b5 3b 4e d2 be bd 96 40 2b bd e1 10 7b 3d
       0.005528609 -0.09317456 -0.04180964 0.061295394
000330 31 b9 ad bc 4f d3 eb bd 34 81 06 be 31 b2 32 be
       -0.02120647 -0.11514913 -0.13135225 -0.17450787
000340 b3 a3 16 be 4c 58 5e be 87 de 51 be d5 09 79 bd
       -0.14710884 -0.2171337 -0.20495044 -0.060800392
000350 52 99 29 3e 3e 99 d5 3d 70 65 b7 3d 3d 92 7a bb
       0.16562393 0.10429619 0.089548945 -0.0038234137
000360 7e a6 96 bd 48 ab 05 3e 52 df 33 bd d4 dc 8e bd
       -0.073559746 0.1305362 -0.043914147 -0.06975713
000370 fd 9d 5a bd 46 21 5b 3d c3 32 f5 3d 9e 2e 18 3e
       -0.053373326 0.05349853 0.11972573 0.14861533
000380 74 8c 35 3c 83 ab d6 3d c6 a7 79 3d 4c 6a 18 3e
       0.01108085 0.10481932 0.060951017 0.14884299
000390 47 64 54 bd bd 7c 87 bd 4a 99 eb bd b8 97 d1 bd
       -0.051853444 -0.06615589 -0.11503847 -0.10234016
0003a0 0e 18 4b bd 85 7a 0d be 80 83 29 be 8f 40 f7 bd
       -0.049583487 -0.13816269 -0.1655407 -0.120728604
0003b0 85 1a 69 bd 6c bf ed bd 26 86 6a bd b2 31 e9 3d
       -0.056910057 -0.116087765 -0.05725684 0.11386432
0003c0 5a 55 73 3e f6 72 aa bc f8 58 33 be 0a 46 a6 be
       0.23763028 -0.02080677 -0.17514408 -0.3247531
0003d0 7d 70 7f be bd 53 a7 bd 37 02 a5 bd 36 e4 a7 bd
       -0.24945255 -0.08170269 -0.08057063 -0.08197825
0003e0 5e 06 e8 3b 7e 52 0e 3e ef 0d 70 3d 27 26 36 3d
       0.007080837 0.13898656 0.058607038 0.04446998
0003f0 78 f2 cb 3c 7c 68 e9 bc 8a b8 a9 3d e4 34 2c 3e
       0.024895892 -0.028492205 0.08287151 0.16817051

fc1.bias f4 [256]
000000 ca c8 df bc 2e 9b 19 bd 0e 7b 44 be 63 b7 12 3d
       -0.027317423 -0.037501507 -0.19187567 0.035819422
000010 3b 61 5e bd 47 d4 d9 3d df b1 a1 bd 80 54 a5 bd
       -0.054291945 0.10636192 -0.07895254 -0.08072758
000020 39 cb 3f 3d c9 06 ee 3b 2c d6 2e bd 7e 03 00 bd
       0.046824668 0.0072639924 -0.04268472 -0.03125333
000030 17 a3 ae 3d 16 1c 40 be 63 f7 40 bd 49 49 59 3d
       0.08527201 -0.18760714 -0.047110926 0.053048406
000040 2c 90 52 3d 7f 3c dc 3c 69 12 ae bd 4e 51 80 bd
       0.051407024 0.026884316 -0.08499605 -0.06265508
000050 71 aa a2 bd 51 76 03 bd 94 0a fc bb d0 b4 4b bd
       -0.07942665 -0.032095257 -0.0076916907 -0.049732983
000060 42 c7 93 bd b8 08 a7 bd 0a ed 16 be 4b 1a 56 bc
       -0.0721574 -0.0815596 -0.1473886 -0.013067792
000070 32 d3 33 3e 14 c3 27 bd 12 61 6a 3b 62 c3 79 3c
       0.17561033 -0.040957525 0.0035763425 0.015244337
000080 e7 66 02 bb ee 28 dd bc 1b 7f d2 bd c0 e1 0f 3d
       -0.001989776 -0.026997056 -0.1027815 0.0351274
000090 1a 33 2b 3d 01 f0 04 3d d3 da 90 bd bd b9 ea 3c
       0.04179678 0.032455448 -0.070729874 0.02865302
0000a0 71 16 24 be b4 da 60 bd 99 b0 ad 3d f4 77 a0 bd
       -0.16024186 -0.05489607 0.08480949 -0.07835379
0000b0 55 91 86 bd 3a a4 69 bd c3 46 6f bd 35 95 4b bd
       -0.06570689 -0.057041384 -0.058417093 -0.04970284
0000c0 d1 89 c6 bc b1 26 68 3d 68 2f 99 bd fd 5e 81 bc
       -0.024235638 0.056677524 -0.07479745 -0.015792364
0000d0 d4 99 74 bd ba 4c 7b bc 80 9b 93 bd ea 11 08 bd
       -0.059717014 -0.015338117 -0.07207394 -0.03322021
0000e0 05 da 93 bd 23 85 b4 bb 05 b9 1b bd 09 40 3b bd
       -0.07219318 -0.005509035 -0.038018245 -0.045715366
0000f0 3d 7b 45 3d 01 55 19 3d 9f 21 fe bc b5 01 dd bd
       0.048213232 0.03743458 -0.031021891 -0.10791341
000100 b0 ff 50 b9 ff a7 d9 bc f6 d5 0f be e9 38 ed 3d
       -0.00019931677 -0.026569365 -0.14046463 0.115831204
000110 9d 2c 94 bd 96 0d cd 3b d3 06 4e 3d 4b 55 45 3c
       -0.07235072 0.006257723 0.050299477 0.012044261
000120 14 17 cf 3c d4 f5 d7 3c a0 0a ae bd 2f d9 a1 bd
       0.02527956 0.026362337 -0.0849812 -0.079027526
000130 29 3a b2 bd 1c ee 54 bd c4 76 98 bd 21 4e a8 bd
       -0.087024994 -0.05198489 -0.07444528 -0.08218027
000140 45 9e b8 3d 0a 39 ee bc bb 55 fb 3b 96 b4 34 bd
       0.090145625 -0.029079933 0.007670132 -0.044117533
000150 35 03 d9 3d 9c 33 9a bd 3e d1 82 bd 12 21 e6 bc
       0.10596315 -0.07529375 -0.06387566 -0.028091941
000160 0f 2a ab bd f4 6c 55 bd ab 31 db bd 7f a9 c1 bd
       -0.083576314 -0.05210586 -0.10702833 -0.09456157
000170 c4 5d 14 bd a3 b2 0c be 14 3c 87 3d 00 fe 3b bd
       -0.036222234 -0.1374002 0.06603256 -0.04589653
000180 64 e6 a1 bd 07 e0 6a bc c3 1c 61 3d 08 90 25 bd
       -0.07905272 -0.014335639 0.05495907 -0.040420562
000190 20 e0 bb bd 34 cc 9c bd 15 99 7f bc 01 b2 10 3d
       -0.09173608 -0.07656136 -0.015600462 0.035326008
0001a0 2e 39 65 bd 66 7d d0 bb 3c be a4 3a fe 09 80 3b
       -0.055962734 -0.006362605 0.0012568901 0.003907441
0001b0 0d 54 10 bd 75 9f b3 bd 95 58 9d bc e7 96 a5 bd
       -0.035236407 -0.087706484 -0.019207278 -0.08085423
0001c0 e2 f5 24 3d a7 eb 36 3d 7d 8f 92 bd 64 36 aa bd
       0.040273555 0.04465833 -0.071562745 -0.083111554
0001d0 c5 20 94 3d bd d4 e2 bb c0 1d 9a bd fd a7 41 bd
       0.07232813 -0.006922333 -0.075252056 -0.047279347
0001e0 aa 23 d7 bc 7a 59 a5 3d 3d d9 85 3d 89 f6 4c 3d
       -0.026262123 0.08073707 0.065355755 0.0500398
0001f0 e9 48 60 bd ad 15 ba bb 4a 53 13 bd 7c bf 94 bc
       -0.054757033 -0.0056788535 -0.035968103 -0.018157713
000200 6d ec b6 3c 2d 05 10 bd 64 20 c2 3d 9b b3 0c 3e
       0.022329533 -0.035161186 0.09478834 0.13740389
000210 4a c8 b4 bd fa d4 05 be cb 22 a3 bd e2 d3 0c 3e
       -0.088272646 -0.13069525 -0.079656206 0.13752702
000220 e1 ff 84 bd 99 2c 59 3c 80 75 03 bd 8d a1 71 be
       -0.064941175 0.013255262 -0.03209448 -0.23596783
000230 68 f4 67 bd 5a b4 8d 3c 15 e7 c1 bd 62 4e b1 bd
       -0.05662957 0.017297912 -0.094679035 -0.086575285
000240 16 f3 19 3e db ed f1 bd 1d 3a a3 3c 32 5d 28 3d
       0.15034136 -0.118129455 0.019925172 0.041104503
000250 63 5b 20 be 42 28 0e bd a5 37 b8 3c 35 06 3f bd
       -0.15659861 -0.03470636 0.02248747 -0.04663678
000260 40 08 80 bc 53 d2 9c bd 1e 4f 95 3d 45 f4 83 bd
       -0.015628934 -0.07657304 0.07290481 -0.06443075
000270 40 04 4f bd 05 69 c1 3d 09 76 42 bd 35 62 21 be
       -0.050541162 0.09443859 -0.04747585 -0.1576012
000280 7b b3 e3 bc 39 68 56 3d e2 26 c8 bd 8f cb ac bd
       -0.027795544 0.05234549 -0.09773041 -0.08437263
000290 fa 85 37 3c b8 8a 16 3c 11 67 b9 bd ba 07 d6 bd
       0.011201376 0.009188347 -0.090528615 -0.104506925
0002a0 56 0b 89 3c 27 4d ac bd 40 90 e2 39 b1 0f b8 bd
       0.016729038 -0.08413153 0.00043213554 -0.08987368
0002b0 b2 95 f5 3c 6a 71 93 bd 5d b8 80 bd 08 78 02 be
       0.029978607 -0.071993664 -0.062851645 -0.12741101
0002c0 36 9d cb 3c c6 42 00 bd b8 9f c2 bd 61 bc 9e 3d
       0.024855237 -0.03131368 -0.0950312 0.07750774
0002d0 a6 15 c5 bd 73 31 44 3c 15 dc 30 bd 3b 6c 99 bc
       -0.0962327 0.01197468 -0.043178637 -0.018728366
0002e0 16 7d 0c bd e2 bc 87 bd 71 85 e3 3c ac 02 c0 3c
       -0.03429898 -0.066278234 0.02777359 0.023438774
0002f0 3e 2f e0 bd 2c 95 83 3d 93 c4 96 bd 73 d5 f3 bb
       -0.10946511 0.06424937 -0.07361712 -0.0074412166
000300 3b ab a9 3d a7 62 f8 3b 4a af 60 bd 2b 85 01 be
       0.08284613 0.0075801197 -0.05485467 -0.12648456
000310 22 06 93 bd 21 06 84 bd 7c 2e 8e 3d fc 22 84 3d
       -0.07178904 -0.064464815 0.0694246 0.06451985
000320 11 3b bd bd 1a b0 b4 bd b7 ee c7 bd 68 b2 60 bd
       -0.09239782 -0.08822651 -0.09762328 -0.05485764
000330 39 3c b9 3d 8e 31 df 3c c9 75 d5 bc 0a 65 fe 3c
       0.0904469 0.02724531 -0.02605714 0.031054039
000340 7c b1 9c bd 46 dd 20 bd ef fb a9 bd cd ad a9 3d
       -0.0765104 -0.039273523 -0.08300006 0.08285103
000350 d2 de c4 3c 82 6f ea 3c 35 0f 05 3d 35 7c 4f 3d
       0.02403203 0.028617624 0.032485206 0.050655562
000360 45 ff 89 3d d9 20 c3 bd 34 32 8c 3c 05 87 a5 3b
       0.06738142 -0.095277496 0.017113782 0.005051496
000370 47 b0 be bd 1e 46 69 bd b6 b9 c4 3d c3 57 75 3d
       -0.09310966 -0.056951635 0.09605734 0.05989815
000380 57 56 57 3b f5 6f 54 bc 8f be 0e bd 83 82 43 be
       0.003285786 -0.012966146 -0.0348497 -0.19092755
000390 53 1a be bd 67 cf 17 bd 0a 80 09 be 77 e8 d0 3c
       -0.09282365 -0.03706303 -0.1342775 0.025501473
0003a0 de 0c 83 3d 4a 50 65 bc 09 f8 36 bd b0 db 70 bc
       0.063989386 -0.013996193 -0.04467014 -0.014700815
0003b0 b6 c7 6e bc da fe fe 3d fe e9 91 bd 7f 7a 1a bd
       -0.014573982 0.12450953 -0.071247086 -0.037714478
0003c0 c4 f0 d7 3b 71 20 57 be 35 fd 06 bd 75 6d 78 3d
       0.006589981 -0.21008469 -0.03295632 0.06065126
0003d0 95 df b7 bd ca 0a 7d bd 63 5d 08 be f8 19 39 bd
       -0.08978192 -0.061777867 -0.13316874 -0.04519078
0003e0 a1 2a 9d bd b2 29 63 bd cb cf ea bc cd db 8d bd
       -0.076741464 -0.055459686 -0.028663537 -0.06926689
0003f0 8b a3 1d 3d 94 f3 eb 3c a6 e2 02 be 3e 74 fb bd
       0.038486045 0.02880267 -0.12781772 -0.12278031

fc2.weight f4 [128, 256]
000000 c3 84 e3 bd c0 a0 a5 3b 88 a9 53 bd ce 0c 2d be
       -0.11109307 0.0050545633 -0.05167535 -0.16899416
000010 90 56 c4 3b 53 53 e3 bd a4 4b 08 bd b4 6a 24 bd
       0.0059917644 -0.11099877 -0.03327526 -0.040140823
000020 de 91 b9 bd c1 a6 e7 bb d6 62 0d bd c3 62 9f bd
       -0.09061025 -0.007069439 -0.034518085 -0.07782509
000030 0d 40 20 3b 08 42 14 3d 92 ff 1d bd 6a 76 d9 bb
       0.002445224 0.036195785 -0.03857381 -0.0066364305
000040 14 7f 6e 3b 46 34 d6 bd b5 ef 5b bd 2c f8 94 bd
       0.0036391662 -0.10459189 -0.0536954 -0.072738975
000050 59 f1 da bd ec 6b e2 bc fa 54 2e bd 40 a1 7f 3b
       -0.10690565 -0.027639352 -0.04256151 0.0039006025
000060 40 c6 1c 3c 60 78 7d 3b 97 ee b1 3a dd aa 8a bc
       0.009568751 0.0038676485 0.0013575134 -0.016927177
000070 43 b3 83 bc 68 1b 14 bd fb 7c b8 bd ee 50 e2 bd
       -0.01607669 -0.03615895 -0.09008213 -0.11050592
000080 25 24 ec bd a4 b6 00 3b b8 d5 b5 bc aa 57 66 bc
       -0.115303315 0.0019640112 -0.022196636 -0.014058987
000090 45 ec 0a bc 07 39 9f bb de 6f 86 3d 41 00 27 be
       -0.008479183 -0.004859093 0.06564306 -0.1630869
0000a0 81 e4 4e be b0 3d 28 bc ee c2 3a bd 46 85 25 bd
       -0.20204355 -0.010268614 -0.045596056 -0.040410303
0000b0 b8 37 26 bd 59 b9 8f bb 34 65 f8 bc cf 08 7c bd
       -0.04058048 -0.004386109 -0.030321695 -0.061531838
0000c0 48 12 04 bd 58 11 fa bc 84 42 6e bd fa fb 18 3d
       -0.032243997 -0.030525848 -0.058168903 0.03734968
0000d0 16 6b 65 bd c1 d7 85 bd 80 54 80 3d 50 3b 57 bd
       -0.05601033 -0.065352924 0.06266117 -0.0525468
0000e0 24 62 ab bd 17 7d e7 bd af 3f 5d bc a8 77 16 3d
       -0.08368328 -0.11303156 -0.013503953 0.036735207
0000f0 9e a3 70 3c 2a 55 8c bd 78 eb bb bc cc a2 fd 3c
       0.014687447 -0.06852181 -0.022939429 0.030961417
000100 ca fd 4f bd f0 99 15 bd 46 28 7c bd 10 70 6e bd
       -0.05077914 -0.03652376 -0.061561845 -0.05821234
000110 3f 8c d1 bd 92 f6 17 be f8 89 a0 bd 16 88 e3 bd
       -0.10231828 -0.14840153 -0.078388155 -0.11109941
000120 12 b9 86 bd f4 f3 88 bd 2d ae ed bd fa e4 08 bd
       -0.06578268 -0.06687155 -0.11605487 -0.033421494
000130 44 5a 7c bd 30 05 0c 3d 7d f5 e2 bc 44 43 1c 3d
       -0.06160952 0.034184635 -0.027704949 0.038150087
000140 b5 fb f2 bc 20 61 77 3d 5a 65 a8 bd be 88 4b bd
       -0.029661039 0.06039536 -0.08222456 -0.049690954
000150 16 4a 9e bd 84 01 1b 3d a2 f1 3e 3d 9f 22 55 bd
       -0.077289745 0.037843242 0.046617158 -0.05203497
000160 10 03 52 bd d3 ed 79 bd ae 0e 18 be c6 4e 0b bd
       -0.051272452 -0.061017822 -0.1484935 -0.03401067
000170 3c ad 82 3c 8a 00 1b bd 01 16 88 bd 68 d9 c3 bc
       0.015951745 -0.03784231 -0.06644822 -0.023907378
000180 c4 7b 7f 3d a9 74 9e bd 0b 94 a0 bd 16 1d 36 3d
       0.06237389 -0.07737095 -0.07840737 0.044461332
000190 00 a4 77 b9 3e 0c ac bd 92 e3 12 bd d8 96 06 bc
       -0.0002361685 -0.084007725 -0.03586156 -0.008214675
0001a0 31 d6 57 3d 4e 18 8e bb 54 9e a6 3c 86 26 d4 bd
       0.052694503 -0.0043363934 0.020339169 -0.1035891
0001b0 fb 40 42 bc e0 4c 6c bb ad 7d 34 3c 09 a9 40 bd
       -0.011856313 -0.0036056563 0.011016292 -0.047036204
0001c0 cc 4b 37 bd 53 5a 2b bd a2 25 2c 3d 30 b3 d5 bd
       -0.04475002 -0.041834187 0.042028077 -0.10434568
0001d0 57 0a 80 3c 11 73 1e be 64 54 5b 3d 00 6a 39 b9
       0.01562993 -0.15473582 0.053547278 -0.00017682463
0001e0 9e 3f d1 bc 3e 7d df bd 4f f4 85 bd 25 1d d6 bd
       -0.02554303 -0.1091256 -0.06540739 -0.10454778
0001f0 75 10 14 3c b7 eb 9b bd 33 0c b5 bc cf ce 04 bd
       0.009037127 -0.076133184 -0.022100544 -0.03242379
000200 d8 04 1d bd c4 ec c5 bc 3c 8a e6 bb 84 c9 ab bd
       -0.038334697 -0.02416075 -0.007035522 -0.083880454
000210 70 34 9f bd 00 e8 e6 3a cd 15 6f 3d dd 62 8f bb
       -0.077736735 0.0017616749 0.0583704 -0.004375799
000220 5e 19 6a 3d 0a c5 26 3d b2 7f 5b 3d 89 5c a8 bd
       0.0571531 0.040715255 0.053588577 -0.08220775
000230 48 f3 5a bc 35 b3 4c bd a0 59 8d bb 9e 3b 52 bd
       -0.013363667 -0.049975593 -0.0043136626 -0.051326387
000240 82 b2 90 bd 86 e3 66 bd f4 e5 62 3c 42 ea de 3c
       -0.07065298 -0.056369327 0.01384877 0.027211312
000250 7c 63 08 bd 2f 86 4f be ca aa 3f 3b 43 2b 06 bd
       -0.033298 -0.2026603 0.0029246085 -0.0327561
000260 af 7f c5 3a 02 a9 a7 3d 11 da e0 bd a4 28 56 3d
       0.001506796 0.081865326 -0.10979093 0.05228485
000270 70 5b 61 3d 04 26 a2 bd 92 9d 93 bd 2a 8b d0 bd
       0.055018842 -0.07917407 -0.072077885 -0.101827934
000280 20 6e 27 bc 0d 1f 37 bd f8 2e c5 bd e8 74 3c bd
       -0.010219127 -0.044707347 -0.09628099 -0.046009928
000290 5e 50 04 bd 0d d0 35 bc b0 31 3e bc d8 90 d0 bd
       -0.032303207 -0.011096966 -0.011608526 -0.10183877
0002a0 e5 92 96 bd a4 77 a9 bd 49 8f e9 bb 1a 09 1b be
       -0.07352237 -0.08274773 -0.0071276766 -0.1514019
0002b0 bc 5f 09 bd 86 a2 4d bd b8 c4 a1 bc 80 29 78 3b
       -0.033538565 -0.050203823 -0.019747123 0.0037866533
0002c0 5a 69 12 bd ae 48 5b bd f8 fa 26 bc d8 81 80 bd
       -0.035745002 -0.05353611 -0.010191672 -0.06274766
0002d0 4f 32 2e bc 73 7f 69 bd d2 63 3c bd 49 16 ee bd
       -0.010632112 -0.05700631 -0.045993634 -0.11625344
0002e0 52 e3 03 3d 67 4b fa bd d1 dc 3e bd b0 38 3e bd
       0.03219921 -0.12221413 -0.046597306 -0.04644078
0002f0 b0 98 72 bd 4b 76 a0 bd 28 00 02 bd 74 cb 3b 3d
       -0.059227645 -0.078350626 -0.03173843 0.045848325
000300 2a 7a 1b be 49 21 4e 3d f2 48 7a 3d f0 4e b7 bc
       -0.1518332 0.050324712 0.061104722 -0.022376508
000310 18 6c d2 bd 6c 13 20 3c b3 46 d2 3c ba 8b 54 bc
       -0.102745235 0.009770256 0.025668478 -0.0129727665
000320 0a a2 44 bd 3c e7 05 bd 80 1e a1 ba 7d 9e ab bd
       -0.048006095 -0.032691225 -0.0012292415 -0.083798386
000330 4a 93 08 be a1 bc ba bc ac bf 04 3d 8b 60 b2 bd
       -0.13337436 -0.022795023 0.032409355 -0.0870982
000340 fc a3 c7 3c a8 b7 8a bd 76 bf da bd 27 35 d3 bd
       0.024370186 -0.06773311 -0.106810495 -0.103128724
000350 35 c6 c9 bd bb fe ec bd e6 4b 6a 3d ce 63 b0 bc
       -0.09852258 -0.115720235 0.05720129 -0.021531966
000360 f8 64 82 bc d9 78 ba bc ec fe cd bd 88 3a dd 3c
       -0.015917286 -0.022762703 -0.10058388 0.027005449
000370 6f 51 18 bc 75 d8 f1 bd 76 17 76 3b e0 fa 87 bd
       -0.009296759 -0.11808864 0.0037550605 -0.066396475
000380 08 fd ee bd c8 cb 8b 3b 6c 0f af bc 8c f5 35 bd
       -0.11669356 0.004266236 -0.021369658 -0.044423625
000390 7e b8 77 bd dc 31 03 3d 34 b4 18 bb 60 ef 66 bd
       -0.06047868 0.03202997 -0.0023300769 -0.05638063
0003a0 47 3b f1 bd f0 92 ab bd 80 52 2c ba 42 87 9f bd
       -0.117788844 -0.083776355 -0.0006573573 -0.0778947
0003b0 32 91 5f bd 6f b0 9d bd 38 b4 5b bc 6f 28 77 bd
       -0.05458183 -0.07699668 -0.013409667 -0.060341295
0003c0 ae 20 95 3d 43 54 11 be e4 d3 59 bd ef f5 77 bd
       0.07281624 -0.141923 -0.05318059 -0.060537275
0003d0 72 9d fb 3c 50 a0 21 bc df 05 e0 bc c4 fc 3e 3d
       0.030714724 -0.009864882 -0.02734655 0.046627775
0003e0 6a b5 55 3d b2 59 d1 3d d0 9d f7 bc 60 91 35 3d
       0.052174963 0.10222186 -0.030226618 0.044328094
0003f0 42 a3 59 bd d4 76 a5 bd 32 c8 45 bc 68 a0 fc 3c
       -0.05313421 -0.08079305 -0.012071656 0.030838206

fc2.bias f4 [128]
000000 2e 4d f4 bd 31 98 cb 3d 6b 97 7d bd f0 20 cd bd
       -0.11928783 0.099411376 -0.06191198 -0.10016048
000010 68 75 30 bd 0d 0e 48 bd b4 c0 a8 bc d4 41 5f bd
       -0.043080717 -0.048841525 -0.0205997 -0.054506138
000020 3e db 59 bd 8a 13 1b 3c 03 ed 2f 3a 94 4a 84 3d
       -0.0531876 0.009465108 0.0006711038 0.06459537
000030 94 f1 0e be 49 dd d5 bd c1 42 47 3e 69 36 d5 bd
       -0.13959342 -0.104425974 0.19459058 -0.104107685
000040 63 ba a4 3c 83 c9 81 be c6 6a ce bd 72 8e 23 bd
       0.020108407 -0.25349054 -0.10078959 -0.03993077
000050 2a e7 cd bd 7a ce 52 bd dd d0 2e 3e cc 2a 2d 3d
       -0.10053857 -0.051466443 0.17071863 0.042277142
000060 38 7b 05 be c0 15 85 3d 8e 81 a4 3d 45 77 05 bd
       -0.13035285 0.06498289 0.08032523 -0.032584447
000070 f5 e4 ed 3d b6 58 6f bd 1c 41 f1 bc df f7 ac 3d
       0.11615936 -0.05843421 -0.029449992 0.08445715
000080 53 82 6c 3d a9 fc cb bd a7 a6 d4 bd 84 9a 06 3d
       0.057741474 -0.099603005 -0.10383349 0.0328622
000090 2a 0c 66 3d 5c 6e 96 bd e1 20 c2 bd 83 ad dd bd
       0.056163944 -0.07345268 -0.094789274 -0.1082411
0000a0 43 c6 14 3e d3 25 65 bd 40 75 34 bd 69 ce 24 bd
       0.14528756 -0.055944275 -0.04405713 -0.04023591
0000b0 74 8d 09 3e 7e db 25 3e c7 04 6a 3d 52 ac e5 3d
       0.13432866 0.16197011 0.057133462 0.11214508
0000c0 69 00 32 3c 28 43 0a be 3c e7 55 bd dc dd 48 bc
       0.010864356 -0.1350218 -0.052222475 -0.012259927
0000d0 17 56 38 3e f6 b5 ca be 7d 2d 0b be ae 95 30 3e
       0.1800159 -0.3959195 -0.13591571 0.17244598
0000e0 9c 62 e5 bd 97 be 04 be 9e c8 e1 bc 59 1a 99 bd
       -0.11200449 -0.1296333 -0.027561482 -0.074757285
0000f0 2b 1b 86 bd 23 48 2b bc b0 c8 c6 3c 2e 0f 2e bd
       -0.06548151 -0.01045421 0.024265617 -0.042494945
000100 1f b7 97 bd 22 96 57 3b 7c 91 9e 3c d3 6b ad 3d
       -0.074079745 0.0032895883 0.019356482 0.084678315
000110 39 01 4d 3c e2 22 f7 bb 28 e3 1e 3e a1 23 16 3d
       0.012512499 -0.007542 0.1551634 0.036655072
000120 ba 31 c1 bd 2a 25 7d bd ab dd 8a bc 4d bf a0 bd
       -0.09433313 -0.06180302 -0.016951403 -0.07848988
000130 c5 9b 79 3d f9 02 55 bc d5 39 f6 3c 58 58 f8 bc
       0.06093957 -0.013001197 0.030056873 -0.030315563
000140 91 50 34 bd a9 ba a2 be 42 33 c3 bd d4 52 47 bd
       -0.044022147 -0.31783035 -0.09531261 -0.048662975
000150 f0 b6 8a 3c 5a 6f 02 3d a5 c9 bf 3c c9 69 f3 3d
       0.016932935 0.031844474 0.023411581 0.11885411
000160 17 7b f6 3d dd 26 c1 3b 56 70 2a bd f4 e8 f2 bd
       0.12035196 0.0058945254 -0.04161104 -0.118608385
000170 9d ba b6 bd 6d ec 96 bd 53 fe 59 3e c8 fc cd bd
       -0.089223124 -0.073693134 0.21288423 -0.1005798
000180 1f 09 37 3e 59 c8 85 bc da f6 0a 3e 90 f6 13 be
       0.17874573 -0.016330885 0.13570729 -0.14449525
000190 66 ce 47 3e e9 0f 44 bd 1d 71 d5 3d df ee 24 bd
       0.19512329 -0.047866736 0.10421965 -0.040266868
0001a0 6a 34 43 bb b4 12 bf bd 1e b4 a6 bd 22 1c c8 bc
       -0.002978588 -0.09329739 -0.081398234 -0.024427477
0001b0 28 7c 3f be fd 36 5c 3d ac cb 75 bd 8f ef a1 bd
       -0.18699706 0.05376338 -0.06000869 -0.0790702
0001c0 29 50 0c 3e f8 21 2a bd 18 a3 4b bd fd b5 f1 3d
       0.13702454 -0.0415363 -0.049716085 0.1180229
0001d0 36 de ff bb 87 9d 42 bd 4a 4d 23 3d 5f 4e 13 be
       -0.007808472 -0.04751351 0.03986863 -0.14385365
0001e0 cc f3 d9 3a e6 8e e7 bc 27 52 11 3d 7e 76 de 3d
       0.0016628443 -0.028266381 0.035478737 0.10862444
0001f0 83 e7 13 3e d2 f4 24 bd 17 8a 82 be db d2 2f bd
       0.14443783 -0.04027254 -0.2549598 -0.042925697

fc3.weight f4 [64, 128]
000000 60 a5 ab bb fb ae f1 bd fe 4a ff 3b d9 fb 01 be
       -0.00523822 -0.11800953 0.007790922 -0.12693729
000010 f2 82 e5 3d 8a f9 f3 bd fc fa 4b bc 50 7b 88 bc
       0.112066165 -0.1191283 -0.012449976 -0.016660362
000020 8c 3d a2 3c 5e ad 4d bd 5d 17 39 3c 7f 2b 80 bc
       0.019804738 -0.050214164 0.011297074 -0.01564574
000030 46 be d4 bd c8 e3 e1 3b be 01 c8 3c 63 e6 a6 bc
       -0.10387854 0.0068936087 0.024414893 -0.020373529
000040 e2 93 c3 39 e2 f2 b7 bd 4f d6 30 3c a8 05 00 3e
       0.0003730348 -0.08981873 0.010793283 0.12502158
000050 a4 a5 dc bd 23 01 82 bd 29 dd 80 bc 66 f6 f0 bc
       -0.10773781 -0.06347873 -0.015730457 -0.029414367
000060 fc 01 ed bd 3d 36 dd bc a3 5e 14 be 03 db be bb
       -0.11572644 -0.027003402 -0.14489226 -0.005824448
000070 bd 8d 08 be 2c d1 54 bc 73 ed cf 3c c5 e3 5e b9
       -0.13335319 -0.012989324 0.02538178 -0.0002125642
000080 23 f1 44 3c da 97 1d bc be 99 a8 3d b6 2f 62 3c
       0.012020382 -0.009618724 0.08232449 0.0138053205
000090 d3 2f 17 bd 06 26 07 bd 09 d2 55 b9 34 eb e3 bd
       -0.036910843 -0.032995246 -0.00020391507 -0.11128846
0000a0 c8 a3 6a bd 3c d5 e2 bb 1a 35 9c bd a3 9e f8 3a
       -0.0572851 -0.006922392 -0.07627316 0.0018968176
0000b0 72 68 1a be a2 e5 4b 3c 3a e8 68 bd e0 c5 15 3d
       -0.15078905 0.012444885 -0.056862094 0.03656566
0000c0 16 cf c7 bd ba b0 23 3d 4f 8b 15 3e 4b 62 2d bd
       -0.097562954 0.03996346 0.14603923 -0.042330068
0000d0 ba 8a c9 bc 60 a5 79 bc 16 f8 e4 bd 2d 56 7e 3c
       -0.024602283 -0.015237182 -0.11180131 0.015523476
0000e0 a6 07 d0 bd b3 e5 a8 3d 02 e8 7b bc 5e bd 67 3d
       -0.10157709 0.08246937 -0.015375139 0.05657708
0000f0 5e 1b a5 bd 2b bd 06 be 55 5e 17 3d 05 62 02 3c
       -0.080618605 -0.131581 0.036955196 0.00795794
000100 29 b1 22 bd 2f 31 a0 bd 60 48 ba 3c af 6c 10 be
       -0.039719734 -0.07821881 0.02273959 -0.1410396
000110 94 5c ef bd 5a d0 4a bd 1c 14 fa bd 53 9d 8c bd
       -0.1168758 -0.049515106 -0.12210867 -0.06865945
000120 01 99 ab 3b 54 59 ca bd 59 a7 07 be 2f f0 04 bd
       0.0052367453 -0.09880319 -0.13247432 -0.03245562
000130 c4 83 e0 bb 58 b6 0d be 1c 12 55 3d 74 d6 1f be
       -0.006851645 -0.1383909 0.052019224 -0.15609151
000140 9a 23 20 bc ff 99 0d bd b8 9d 07 bd 3e 57 16 be
       -0.009774113 -0.03457069 -0.033109397 -0.14681718
000150 68 af a8 bd 1d 4c 43 ba e6 14 f6 3c 9a c9 19 be
       -0.08236581 -0.00074500014 0.030039262 -0.15018311
000160 c6 19 f9 bd f8 b0 8d bd ff f8 a7 bd f7 d1 0d be
       -0.12163119 -0.0691852 -0.08201789 -0.13849626
000170 ac 51 a9 bd b0 45 b9 3c 67 63 08 bd f9 00 6c bd
       -0.08267531 0.022616237 -0.033297922 -0.057618115
000180 36 b3 2c bd a8 09 7d bc 47 2f ee 3b 83 56 81 3d
       -0.042163096 -0.015444197 0.0072688195 0.06315329
000190 b4 83 90 bd 52 97 ae bd c7 96 8a 3d 82 fb c0 bd
       -0.070563704 -0.08524956 0.0676704 -0.09422971
0001a0 dc 21 94 bd a3 b3 97 3d e2 3e 61 3c c0 d9 e1 bd
       -0.07233021 0.0740731 0.013747903 -0.11027861
0001b0 a2 fa 67 3c 49 f1 e9 ba 46 94 31 3c ae d5 28 bd
       0.014158877 -0.0017848398 0.010838574 -0.041219406
0001c0 40 77 38 bb 46 1e cc bd cc 57 3d bb e4 1b 8c bd
       -0.002814725 -0.09966712 -0.0028891442 -0.06841257
0001d0 93 49 0c be 04 7a eb bd c0 a9 f3 bd 83 5b 57 bd
       -0.13699941 -0.11497882 -0.118976116 -0.052577507
0001e0 62 3e 00 bc 51 33 0b be 8a ac 8d bd 93 58 df bc
       -0.007827373 -0.13593794 -0.06917675 -0.027263915
0001f0 78 bb 2a bb f5 33 f9 bd 27 d5 94 3d 0b 4f ef bd
       -0.0026051681 -0.12168113 0.07267218 -0.11684998
000200 72 60 6c 3d 17 7a 06 be 59 e2 59 3c 01 64 9a be
       0.057709165 -0.13132511 0.013298594 -0.30154422
000210 ee b2 b6 bd 4b 93 f5 3d 2b bc d9 bc 4f af 8c 3d
       -0.08920847 0.119909845 -0.026578983 0.06869375
000220 a7 f4 d2 3d b1 bc ef bd 83 b5 dc bd 5d f3 b0 3d
       0.1030057 -0.11705912 -0.10776808 0.08640168
000230 2d 6a 65 3e 84 44 44 be 54 2b e2 3d f8 3b c9 bc
       0.22403784 -0.19166762 0.110434204 -0.024564728
000240 b1 98 29 ba 0f b2 51 3d 77 4b f3 bd 36 36 ee bd
       -0.0006469591 0.0511952 -0.11879628 -0.11631434
000250 c6 c0 c7 bd 4e 9b 7d bd 31 dc 61 3d 0a 16 18 be
       -0.097535655 -0.06191569 0.05514163 -0.14852157
000260 25 2b 62 bc d4 33 21 3e 2e ef 2a 3e 35 c8 55 3c
       -0.013804232 0.15742427 0.16692802 0.013048221
000270 22 d3 d2 bd 62 6f 84 bd 4d 8e 41 bd 43 8f 6f be
       -0.10294177 -0.06466557 -0.04725485 -0.23394494
000280 96 c3 2e 3d 68 cc 27 be 0f 08 4c bd 27 bc b1 3d
       0.042666994 -0.16386569 -0.049812373 0.08678465
000290 46 5f 18 3e 90 e8 d7 3d ea bf 99 bd bf 8d 9c 3d
       0.14880094 0.10542405 -0.07507308 0.076442234
0002a0 8d ee c7 bd 05 2d 08 be d6 7c 42 bd ce d9 27 be
       -0.09762297 -0.13298424 -0.047482334 -0.1639168
0002b0 5f da 3b bc d7 8f 8c bc 65 8d fa bd a5 3c 1f be
       -0.011465638 -0.017158432 -0.12234 -0.15550478
0002c0 36 17 04 bd d6 bc e3 bd 81 7a 3e bd c8 8b 58 3b
       -0.0322487 -0.11120002 -0.046503548 0.00330423
0002d0 dd 51 be bd 63 f7 fa bd eb ec 38 be 4d 42 23 be
       -0.09292958 -0.122542165 -0.18059127 -0.1594326
0002e0 b5 20 92 bc 4c 0a 32 be 2f f0 d1 bc 52 c1 ff 37
       -0.017837862 -0.1738674 -0.025627224 3.048839e-05
0002f0 eb db d5 bc a6 40 4b be 2a 7b 8d bd 05 c2 48 3e
       -0.026105842 -0.1984888 -0.06908257 0.19605263
000300 10 79 37 ba b2 3c 11 bd 14 a2 47 be ba 3c 28 be
       -0.0006998936 -0.035458274 -0.19495422 -0.16429415
000310 43 91 fc bb 26 ac b4 bb d3 6f 6d 3d 9e 54 ee bd
       -0.0077077462 -0.0055136858 0.057967972 -0.11637233
000320 11 53 26 3e a2 d8 19 3c de 45 86 3c 91 bd 11 be
       0.16242625 0.009390028 0.016390737 -0.1423247
000330 d8 39 9c be 62 67 11 3e 6a ac c3 bd 87 2e df bd
       -0.3051288 0.14199594 -0.0955437 -0.10897546
000340 c7 e6 17 3d be d7 da 3d ee b0 78 bd 62 c6 e5 bd
       0.03708532 0.10685681 -0.06071561 -0.11219479
000350 8b a2 26 3c 3c a8 03 bd 97 cf ae 3d 8b 6f ca 3d
       0.010170589 -0.032142863 0.08535688 0.098845564
000360 fc 8f 17 be 84 0d 92 be 44 06 d5 3d 17 d0 e7 bd
       -0.1480102 -0.28525937 0.10401586 -0.11318987
000370 c1 87 02 3d 8b a4 8c bd 9c ca bd bd d7 30 38 bc
       0.031867746 -0.068673216 -0.0926716 -0.011242113
000380 52 ce 14 3e a3 61 5f bd cc 78 4f 3d 12 96 25 3d
       0.1453183 -0.054536473 0.05065231 0.04042632
000390 91 d4 d7 bd 0d 58 6c be 28 34 a3 3d 9a 12 01 3b
       -0.10538591 -0.23080464 0.079689324 0.0019694925
0003a0 df b9 98 3d 52 e8 93 3d 45 e7 c5 3d f3 d2 05 bd
       0.07457327 0.07222046 0.09663252 -0.03267188
0003b0 c6 df d5 bd 2a 0f ab bd 99 c7 c3 bc ab dd bb 3d
       -0.10443072 -0.08352502 -0.023898887 0.09173139
0003c0 d8 99 85 be a7 7b 92 be 90 2c 18 ba d0 52 87 bb
       -0.26093936 -0.28609964 -0.000580498 -0.004129745
0003d0 9c 6b e9 bd b8 af 02 be f5 a4 4e be 00 66 28 3e
       -0.11397478 -0.12762344 -0.20180114 0.1644516
0003e0 68 f0 c1 bd eb b3 18 be 96 f7 a1 bd 22 3a 4d 3d
       -0.09469682 -0.14912383 -0.079085514 0.050104268
0003f0 de 0b 88 3d 14 f7 23 be 6e dc 95 bd c8 e2 e2 bd
       0.066428885 -0.16012222 -0.07317434 -0.11078411

fc3.bias f4 [64]
000000 c3 f2 02 be e8 3a 49 3e ac eb 96 3d e0 c3 94 3d
       -0.12787919 0.19651377 0.073691696 0.07263923
000010 38 cb 2f bd 71 77 f4 3c c5 93 cc bd 1d 67 af 3d
       -0.042918414 0.02984211 -0.09989122 0.08564589
000020 72 f1 b4 3c 41 db 26 3d 4e 25 2c 3d 85 0f 92 bd
       0.022087786 0.04073644 0.042027764 -0.07131866
000030 52 73 e7 bd e1 c3 50 3e 60 94 38 3c 66 f4 ab bd
       -0.113012925 0.20387222 0.011265844 -0.08396225
000040 47 e6 1c bd 06 0a b4 bd 31 82 a6 bd ad 4c fb 3d
       -0.038305547 -0.08790974 -0.08130301 0.12270484
000050 a0 db 79 3c 99 aa df bd 8a db fc bd a2 c0 f7 3d
       0.015250117 -0.10921211 -0.12346561 0.12097289
000060 3e 5c 50 be 02 59 a6 bc 4d 1d 97 3d 2f b2 3e bd
       -0.20347688 -0.020306114 0.073786356 -0.046556648
000070 bc ac 85 bd 8a ce 41 3e 04 2c c3 bd a0 5c ef bc
       -0.06527087 0.18926445 -0.0952988 -0.029218972
000080 12 4a 97 3d 6d 63 9f 3e db 95 c2 bd 02 bf 1b be
       0.07387175 0.31130543 -0.09501239 -0.15209582
000090 69 19 b0 bd 4b 82 86 bd 7f 61 b6 bd d8 6f b2 bd
       -0.085985966 -0.0656782 -0.08905315 -0.08712739
0000a0 9e df d9 bc a6 c1 90 bd 54 b5 d8 3d 38 e2 9c 3c
       -0.026595887 -0.070681855 0.105814606 0.019150838
0000b0 8a a7 a6 3c f5 ff 5e bd 07 9f 93 ba fc f5 0b 3e
       0.02034356 -0.05444332 -0.0011262604 0.13668054
0000c0 ce 03 db 3b 9c da f7 bb 5e 89 42 3e 89 00 fa bd
       0.006683803 -0.007563902 0.18997714 -0.12207133
0000d0 d7 6d ca bd 30 40 77 3d 11 b6 b1 bc 49 8f 33 3e
       -0.098842315 0.06036395 -0.021693261 0.17535128
0000e0 cb eb 12 3e 0b ac 0b be 57 8e 01 be 99 e9 c1 bd
       0.1434776 -0.13639848 -0.12651955 -0.09468383
0000f0 95 94 13 bd 45 e0 33 3d 15 f4 82 3e aa 65 23 3e
       -0.03603037 0.043915052 0.25576845 0.1595675

fc4.weight f4 [10, 64]
000000 69 f3 ff bd b3 e1 37 bd f7 ad 88 be e0 c2 10 be
       -0.12497599 -0.044892978 -0.26695225 -0.14136839
000010 33 a3 1e bd 4c 5b 10 3d 7b 81 1a bb ff dd 28 3e
       -0.038729858 0.035243317 -0.0023575712 0.16490935
000020 e3 e7 06 3e 23 f8 eb 3d 8f a0 0d be e5 90 a7 3d
       0.13174395 0.11521938 -0.1383078 0.08181933
000030 b2 5e 2c 3c dd 59 08 be 59 34 e7 3d d3 b6 bf bd
       0.010520624 -0.1331553 0.112892814 -0.09361043
000040 08 35 8e 3c bc 12 3b bd 38 53 f4 bb 8b 4f 44 3a
       0.017359272 -0.045672163 -0.0074562095 0.00074886595
000050 69 50 14 bd 65 ab a6 bd 78 77 fc bd ee 99 25 bc
       -0.036209498 -0.0813816 -0.12327474 -0.0101075005
000060 95 67 ab 3d 21 95 f9 3d e9 1b 1d 3b b5 b4 68 3d
       0.08369366 0.12186647 0.0023972935 0.05681296
000070 2b 27 5f be 9b a5 f9 bd 8d ba 5d 3c 1d 4e 1a 3e
       -0.21792285 -0.1218979 0.013533247 0.1506886
000080 46 99 fe bd e5 e3 87 bc cb f1 7a 3d bf 78 a4 bc
       -0.12431578 -0.01658816 0.061265748 -0.020077107
000090 97 ed 36 be 33 0b 04 3c f6 bf 0f 3d 7d b2 e0 bc
       -0.17864071 0.008059311 0.035095178 -0.02742886
0000a0 ea 1a 58 3d 6e 8d 86 3c 59 dc 31 be 51 50 13 bd
       0.052760042 0.01642486 -0.17369212 -0.035965268
0000b0 84 53 2e 3d af e4 10 be f4 7f 17 3d 07 b9 b3 bd
       0.042560115 -0.14149736 0.03698726 -0.087755255
0000c0 98 f9 aa 3d c1 7b 6a be 3b 38 a7 bd 09 2b aa bd
       0.083483875 -0.22898771 -0.08165022 -0.083089896
0000d0 66 81 00 be 13 94 46 be d9 5a 44 be 5e 2d 8a be
       -0.12549362 -0.19392423 -0.1917528 -0.26987737
0000e0 1e 7e 32 3e 57 35 98 be 4d d4 20 be b0 bf 3d bc
       0.17430922 -0.29728195 -0.15705986 -0.011581346
0000f0 c5 ee 56 3c e5 0f b7 bd a5 a4 60 3d c8 93 30 be
       0.0131184505 -0.089385785 0.054844517 -0.17243874
000100 56 4b 37 be 02 60 0b be 33 aa 61 3d c0 de 41 3e
       -0.17899832 -0.13610843 0.055093955 0.18932629
000110 50 a4 55 ba 30 2e 04 bd a8 dd 04 be 2a 89 9e be
       -0.00081497896 -0.03227061 -0.1297518 -0.30964023
000120 ab d8 bb bd 5e 7c 8f be 31 0a ba 3c d0 46 cc 3d
       -0.091721855 -0.28024572 0.022709938 0.09974444
000130 e5 4e 18 3d 56 4d 09 be 63 ad 6f be 85 9e 2b bd
       0.037184615 -0.13408408 -0.23405986 -0.041899223
000140 b5 81 60 bd 56 0a 24 bd 1e 69 82 bd 70 66 ef bd
       -0.0548112 -0.04004892 -0.06367706 -0.1168946
000150 9e 8c 48 3d cb f7 56 3d 17 de 4d be 75 30 10 be
       0.048962228 0.052482408 -0.20104252 -0.14080985
000160 52 82 99 bd 01 41 84 be aa 82 eb 3d dd f4 4a 3e
       -0.0749556 -0.25830844 0.114995316 0.1981997
000170 10 82 3c 3d 42 1f 53 be 72 97 df bb 35 e7 10 3e
       0.046022475 -0.20617393 -0.0068234736 0.14150698
000180 5b 5b 1e 3e 40 41 2a 3d 9b 28 0f bd 5c 43 26 bd
       0.15464537 0.041566133 -0.034950834 -0.040591583
000190 ea c3 0f 3d f4 a4 37 3e 72 41 dc bd 49 fa 15 3d
       0.035098948 0.17934018 -0.1075467 0.036615644
0001a0 b9 58 ad be 89 d2 40 be fb db 9c 3d 64 bb 97 3d
       -0.33856753 -0.18830313 0.076591454 0.07408789
0001b0 86 92 62 bc e3 d9 a4 bc fe ae cb 3d f4 cc 34 3e
       -0.013828879 -0.020123428 0.099454865 0.17656308
0001c0 e3 39 0f be f4 2b 1c 3e 86 a2 40 3d 13 a4 1a 3d
       -0.13986926 0.15251142 0.047029994 0.03775413
0001d0 65 86 51 3c cb 79 c1 3d e5 42 aa 3d 99 45 17 3e
       0.01278839 0.09447058 0.0831354 0.14772643
0001e0 d1 86 56 bb 4d eb cc be 6c 59 4e 3b 7a b1 48 bd
       -0.0032734165 -0.4002327 0.0031486405 -0.04899738
0001f0 b1 db 4d bc 47 d4 01 be 3b 15 ed bd cf bd fe bd
       -0.012564586 -0.12678634 -0.11576315 -0.12438547
000200 48 9e 3e bc 91 77 6b 3e f9 37 1c 3e ca d2 fe bb
       -0.011634417 0.2299483 0.15255727 -0.007776593
000210 34 e4 26 bd c8 ec 0a 3e d9 e3 9c 3d 8c 97 e7 3d
       -0.040744975 0.13566887 0.07660646 0.11308202
000220 f2 b2 cf 3d d6 8d a1 bc 90 42 ae bd d3 bc 8c bd
       0.10141553 -0.019720953 -0.085087895 -0.06871953
000230 71 2c 89 3d 3e ee 15 bd 8f 1d 0e be e8 c6 b1 bd
       0.0669793 -0.03660416 -0.13878463 -0.086805165
000240 4d a7 18 bd 29 84 5b 3d 9d e8 b4 3c 50 d1 b2 bc
       -0.037268925 0.053592835 0.022083575 -0.021828324
000250 99 e4 15 be c9 7a 29 3d 20 b7 24 bc 8b 84 27 be
       -0.14637984 0.041376863 -0.010053426 -0.16359155
000260 04 4d 2f bc 9d 22 c2 3d c1 a2 f0 3d a8 1f 62 bd
       -0.010699514 0.09479258 0.11749793 -0.05520597
000270 12 1f 69 3d 7f 70 57 be 21 94 6d bc 2e 96 3f bc
       0.056914397 -0.21039008 -0.014500649 -0.0116935205
000280 86 21 10 3e df 51 b3 bc d4 3a af bd 4f 7f aa bc
       0.14075288 -0.021889625 -0.085561424 -0.020812659
000290 55 0e 8b bd 85 f2 cf bd 20 81 bb 3d 61 4c f7 3c
       -0.06789843 -0.10153679 0.09155488 0.030187787
0002a0 fc 3f 8c 3c af c1 cd bc 71 21 7a 3c a4 c8 09 be
       0.017120354 -0.02511677 0.015266762 -0.13455445
0002b0 2e d1 83 3d 11 34 e1 bd a8 f0 fb bd f2 b4 be 3d
       0.06436382 -0.10996259 -0.12301761 0.09311856
0002c0 00 fa c8 bd c0 50 02 3e 26 78 bd 3d ae 24 69 bd
       -0.09813309 0.12726116 0.09251432 -0.056919746
0002d0 bc 89 ce bc f3 27 28 3c 21 46 8f 3c 5d 7e 17 be
       -0.025212161 0.010263431 0.017489495 -0.14794298
0002e0 e2 83 27 be 58 c3 cb be 3a 92 ff bc c4 6f 9d 3d
       -0.16358903 -0.39797473 -0.031197656 0.07687333
0002f0 54 2f d0 bb ff 1b d1 bd c2 2b 75 bb 89 32 21 bc
       -0.006353298 -0.10210418 -0.0037410115 -0.009838709
000300 29 af 18 be a8 5e 3f 3c b8 d1 9a 3d f1 b8 20 3e
       -0.14910568 0.011680283 0.07559532 0.1569555
000310 fc 97 51 bd 17 8d 78 bd be 56 d4 3c 68 d8 93 bc
       -0.051170334 -0.06068143 0.025920268 -0.018047526
000320 8b 6d 7c bc b3 16 86 3d 40 c5 82 3d 48 93 ad bc
       -0.015406976 0.06547298 0.06385279 -0.021188393
000330 5a 46 04 be ce 75 e1 3d c0 81 ad bd 46 1a 15 be
       -0.12917462 0.110087976 -0.084720135 -0.14560804
000340 91 f0 a9 3d 90 b6 71 3d 9d f5 f6 bc f7 40 7b bb
       0.082978375 0.059011996 -0.030146414 -0.0038338283
000350 55 5a 47 3d 76 e4 92 bc 77 e4 00 be 01 d5 30 3e
       0.04867013 -0.017931204 -0.12587152 0.17268755
000360 77 0f 98 3d 0b ae 82 3d de 26 cd bd 4e 51 2a 3c
       0.07424825 0.06380852 -0.10017179 0.010395361
000370 2b 86 0c 3d 6c b8 e6 bb 0a 7d 67 3c 67 0f 1b be
       0.03430764 -0.007041028 0.014128933 -0.15142594
000380 6c 1a 07 3e ba 3a 4c be 1d 75 42 3c d4 6c 96 3d
       0.13193673 -0.19944277 0.011868742 0.07344976
000390 55 65 8b bc c3 4a 81 3c 28 c4 fe 3d 7c b9 6b bd
       -0.017016092 0.01578272 0.124397576 -0.05754994
0003a0 4b b9 8c be 55 fa 17 3e 4a 86 92 bd d4 d6 b8 3d
       -0.27485117 0.14841588 -0.0715452 0.0902535
0003b0 7d 16 19 3d 29 6c 9a bc e5 48 bc 3d e5 38 03 be
       0.037374962 -0.018850403 0.09193591 -0.12814672
0003c0 3f 79 10 bd 50 b3 07 bd a0 a4 98 3d f4 f1 04 bd
       -0.03527188 -0.03312999 0.07453275 -0.032457307
0003d0 6e 46 9c bd 76 f5 8c 3d 84 e4 b6 3d 0c e5 0e be
       -0.07630621 0.068827555 0.08930305 -0.13954562
0003e0 a3 ca 06 be 87 04 83 bd ff e8 58 bd 65 79 ce bc
       -0.13163237 -0.06397348 -0.052956577 -0.02520437
0003f0 e8 d1 e6 3d cb 2f 83 be aa 20 44 be ef 28 d3 bb
       0.11270505 -0.256224 -0.19153085 -0.0064440886

fc4.bias f4 [10]
000000 03 f7 94 bd ca b3 a8 bd 57 55 6b 3b 94 76 ad bd
       -0.07273676 -0.08237417 0.003590902 -0.084698826
000010 cc 3e f9 3d ed b7 48 bd e9 57 8d bd 6d 3c f9 bc
       0.12170181 -0.04900353 -0.06901533 -0.030424321
000020 d6 78 84 3c 2b c1 e6 bb
       0.0161709 -0.0070420704
