Project/models/checkpoint.pth (torch, 874071 bytes, 6 tensors)

fc1.weight f4 [256, 784]
0	0x3d0dc2e3	0.034609687
1	0x3cac4401	0.02102852
2	0xbd0b219b	-0.033967596
3	0xbc961a20	-0.018323004
4	0xbcb92703	-0.02260161
5	0xbc6bff0e	-0.0144040715
6	0xbc498ef7	-0.012302152
7	0xbcb81d0e	-0.022474792
8	0x3cbf3ad5	0.023343483
9	0xbce19095	-0.027534762
10	0xbd07b82e	-0.03313463
11	0x3d95b790	0.073104024
12	0x3d54566e	0.05184024
13	0x3c91002d	0.01770028
14	0xbc8eec9e	-0.017446812
15	0xbd061e5a	-0.03274379
16	0x3d8e0b10	0.06935704
17	0x3bc1960c	0.0059077796
18	0x3d906ddd	0.07052205
19	0x3d8a4bc3	0.06752732
20	0xba00bc42	-0.0004910865
21	0xbcab5b7c	-0.020917647
22	0xbc6a38a4	-0.014295731
23	0x3cc546e1	0.02408165
24	0xbba2dac0	-0.0049699247
25	0xbb2ec4a5	-0.0026667502
26	0xbb639eca	-0.0034732097
27	0x3c6f410e	0.014602913
28	0x3cb09683	0.021556145
29	0x3b51344a	0.0031922036
30	0xbc5ffe1c	-0.013671424
31	0xbab7a2b7	-0.0014010285
32	0xbced7ef1	-0.028991194
33	0x3cbcbcf5	0.02303932
34	0x3c84e34c	0.016221665
35	0xbcd8b137	-0.02645169
36	0xbc945f65	-0.018111894
37	0xbd7bcc40	-0.061474085
38	0x3d04beac	0.0324084
39	0x3d99ffe8	0.07519513
40	0x3d49a3c2	0.049228437
41	0xbd4c6e76	-0.04991003
42	0xbd57a5cf	-0.05264836
43	0xbd95a160	-0.073061705
44	0x3e1495a8	0.14510214
45	0x3d96ae9d	0.073575236
46	0x3d8aa6d6	0.06770103
47	0x3c9eacaf	0.019369451
48	0x3d8d14b6	0.06888716
49	0x3d58162a	0.052755512
50	0x3b6d8a61	0.003624581
51	0xbd9bcc70	-0.07607353
52	0xbd459c31	-0.04824466
53	0x3c8e19ec	0.017346345
54	0xbc022b1c	-0.007944848
55	0x3c16286a	0.009164909
56	0x3cf855a1	0.030314269
57	0x3cd29ec1	0.025710465
58	0xbbebb9d3	-0.007193783
59	0xbccf8765	-0.025333116
60	0xbd8d17db	-0.06889316
61	0xbd8d4acd	-0.06899033
62	0xbd789d2d	-0.06069677
63	0xbc60bee9	-0.0137173915
64	0xbcc6d2a8	-0.02427037
65	0xbd394349	-0.045230184
66	0xbd98c76f	-0.07459914
67	0x3d808db8	0.06277031
68	0x3de59b32	0.11211242
69	0x3db7de38	0.08977932
70	0x3d440c26	0.04786315
71	0xbc3eb804	-0.011640552
72	0x3e14c1f8	0.14527118
73	0x3da97259	0.08273763
74	0x3cf053be	0.029336806
75	0xbcd5992e	-0.026074018
76	0x3d0bc237	0.034120765
77	0x3da7bab4	0.08189908
78	0x3de3dafe	0.11125754
79	0x3ca58ae7	0.020207835
80	0x3c3f3da3	0.01167241
81	0x3c3e427c	0.011612531
82	0x3d02362b	0.03178994
83	0x3cff9e58	0.031203434
84	0x3cfa15e8	0.030528024
85	0xbb9d73ae	-0.00480505
86	0x3b810465	0.0039372914
87	0x3ca0871c	0.019595675
88	0x3ab27ff1	0.0013618452
89	0xbd395711	-0.04524905
90	0xbd44c531	-0.04803962
91	0xbc5f283e	-0.013620434
92	0xbdacc702	-0.08436395
93	0x3c553742	0.013013663
94	0xbd375ab0	-0.04476422
95	0xbd092240	-0.03347993
96	0x3d933745	0.07188276
97	0xbcca0dca	-0.024664778
98	0xbd92f382	-0.07175352
99	0xbcfcbd03	-0.030851847
100	0xbd030581	-0.03198767
101	0x3d16fd18	0.036862463
102	0x3d0d1cb8	0.034451216
103	0xbb809735	-0.0039242753
104	0x3da0c6ca	0.07850416
105	0x3d998ab2	0.07497157
106	0xbab6c69f	-0.0013944692
107	0xbcd099d1	-0.02546397
108	0x3d980590	0.07422936
109	0xbd0bbae9	-0.0341138
110	0xbd01d9e0	-0.031701922
111	0xbccf1633	-0.02527914
112	0xbc8bbeb7	-0.017058713
113	0x3cf650e5	0.03006787
114	0x3d50ccf5	0.050976712
115	0x3cd46e43	0.025931483
116	0xbda4f650	-0.08054793
117	0xbe4f0644	-0.20217234
118	0xbe51b643	-0.20479684
119	0xbe20a64f	-0.15688442
120	0xbe0d8210	-0.13819146
121	0xbd552ce6	-0.05204477
122	0xbd5ceb30	-0.05393523
123	0xbd4ad0be	-0.04951548
124	0xbab22ed1	-0.0013594275
125	0xbd9f2401	-0.07770539
126	0xbe0df81f	-0.13864182
127	0xbdf353a0	-0.118811846
128	0x3b52f63b	0.0032190222
129	0x3caabc06	0.02084161
130	0x3d0709e0	0.032968402
131	0x3c1cfb49	0.009581395
132	0x3b27b750	0.002559144
133	0x3ce41aa8	0.027844742
134	0x3d614c7b	0.055004578
135	0x3e2beacd	0.16788788
136	0x3d28c9de	0.04120814
137	0x3e082e9e	0.13299033
138	0xbccd86a4	-0.025088616
139	0xbbe0b9d3	-0.0068580895
140	0xbce73223	-0.02822215
141	0xbcab6bac	-0.020925365
142	0x3dd3524a	0.1031843
143	0x3d2471fb	0.040147763
144	0xbd9481b3	-0.07251301
145	0xbe3449da	-0.17606297
146	0xbdf28a6b	-0.118428074
147	0xbe00e5f9	-0.12587728
148	0xbe1961f1	-0.14978768
149	0xbcfeb9a0	-0.031094372
150	0x3c844d75	0.016150216
151	0xbc8fc1d5	-0.017548481
152	0x3d2137e0	0.039359927
153	0x3c6b2868	0.014352895
154	0xbdff3e7b	-0.12463089
155	0xbd9ae1fc	-0.07562634
156	0xbe07d983	-0.13266568
157	0xbaacdb05	-0.0013187832
158	0x3d515500	0.051106453
159	0xbdbc6a1f	-0.091999285
160	0x3d03ce8e	0.032179408
161	0xbd959613	-0.07304015
162	0xbcdde287	-0.027085556
163	0xbc0c6ef1	-0.008571372
164	0x3c7e5d49	0.015525171
165	0x3e1c8ef2	0.15288904
166	0x3c1ead13	0.009684819
167	0xbcd5bd8a	-0.026091356
168	0xbd03955c	-0.032124862
169	0x3dbc36ad	0.09190116
170	0x3e595eda	0.21227589
171	0x3d3640a5	0.044495244
172	0xbd59b1ce	-0.053148083
173	0xbd9a2865	-0.07527236
174	0xbdbe2a6f	-0.09285437
175	0xbdd920c8	-0.10601956
176	0x3963d7f6	0.00021728859
177	0xbcf419c4	-0.029797442
178	0x3d5d561b	0.054037195
179	0x3d90383b	0.07041975
180	0x3dda6fca	0.10665853
181	0x3d002988	0.031289607
182	0x3d41525e	0.047197692
183	0x3c6c0151	0.014404611
184	0xbd6bcc4e	-0.057567887
185	0xbd4a8ada	-0.049448825
186	0xbd38f960	-0.045159698
187	0xbd41b787	-0.047294166
188	0xbd4c9a2a	-0.04995171
189	0xbd812406	-0.06305699
190	0x3b093f0b	0.0020942118
191	0x3dc87623	0.09788158
192	0x3d68ba34	0.056818202
193	0x3ad82e28	0.0016493248
194	0xbdbd816e	-0.092532024
195	0x3d19e22d	0.037569214
196	0xbc77ef61	-0.015132756
197	0x3d906cce	0.07052003
198	0x3e0606ce	0.13088533
199	0xbcec9846	-0.028881203
200	0x3b0904da	0.0020907433
201	0xbc6cfd96	-0.0144647565
202	0xbd980818	-0.07423419
203	0xbca976e5	-0.020686576
204	0x3c80525c	0.015664272
205	0x3d79dc34	0.061001018
206	0xbcf88b9e	-0.030340012
207	0x3d9ba602	0.07600023
208	0x3d4e4915	0.050362665
209	0x3d7fa244	0.062410608
210	0x3d0efbfe	0.034908287
211	0x3d598de1	0.053113822
212	0x3d295f94	0.041350916
213	0x3d685c0f	0.05672842
214	0x3cbf6286	0.02336241
215	0xbd219d40	-0.039456606
216	0x3af3736d	0.0018573828
217	0xbd888c68	-0.06667405
218	0x3d18cddd	0.0373057
219	0x3d14458d	0.03619914
220	0x3e12f97d	0.14352985
221	0x3d410b4e	0.04712992
222	0xbc810d1f	-0.015753327
223	0xbc4972cf	-0.012295439
224	0x3ccb3c61	0.024809064
225	0xbd6ff73b	-0.058585387
226	0xbd812aed	-0.063070156
227	0xbcc211da	-0.023690153
228	0x3cb2af08	0.021811977
229	0x3d91a200	0.07110977
230	0xbd1080b9	-0.03527901
231	0xbd69ea29	-0.05710808
232	0x3cfd42ea	0.030915696
233	0x3cf8a882	0.030353788
234	0xbc51355a	-0.012769068
235	0x3d9b7391	0.07590402
236	0x3c578374	0.013153899
237	0x3d039ddc	0.03213297
238	0x3d934d0d	0.07192431
239	0x3dc9e650	0.09858382
240	0x3d9f4bde	0.077781424
241	0x3d8fccc8	0.07021481
242	0x3d028997	0.031869497
243	0xbc8aafd8	-0.016929552
244	0x3b382cca	0.0028102868
245	0xbd992f81	-0.07479764
246	0x3cab8113	0.02093557
247	0x3d4af38b	0.049548667
248	0x3dd074be	0.10178517
249	0xbc3488f1	-0.0110189775
250	0xbd3a231c	-0.04544364
251	0x3aa405f6	0.0012513984
252	0xbd491a4e	-0.04909735
253	0xbdf5c930	-0.12001264
254	0x3cf99c91	0.030470164
255	0x3bebb3d3	0.0071930676

fc1.bias f4 [256]
0	0x3db80428	0.08985168
1	0xbacf1027	-0.001579766
2	0x3da41c0d	0.08013163
3	0x3d08853b	0.033330183
4	0xbcfae1e3	-0.03062529
5	0xbcccef3f	-0.025016425
6	0x3d9fe3e8	0.078071415
7	0x3cd5cfd8	0.026100084
8	0x3d903817	0.07041948
9	0xbc4967b8	-0.012292795
10	0x3d8d6aac	0.06905112
11	0xbd4ee2b1	-0.05050916
12	0x3dd159b5	0.102221884
13	0xbd42eeb1	-0.047590915
14	0x3ddeab93	0.10872569
15	0xbd77591e	-0.060387723
16	0xbdd8c9cd	-0.105853654
17	0xbd0e5f14	-0.034758642
18	0x3cabadd1	0.020956906
19	0x3dc4b9a3	0.0960572
20	0x3d2a8037	0.04162618
21	0xbc76810b	-0.015045415
22	0x3de0fbf4	0.10985556
23	0x3c9a3383	0.01882339
24	0x3d862ae0	0.065511465
25	0x3e0d9ab9	0.13828553
26	0xbd592d0e	-0.053021483
27	0x3cc5bbb7	0.024137361
28	0xbca89390	-0.020578176
29	0xbc786e93	-0.015163082
30	0x3c158b6b	0.009127478
31	0x3b90c864	0.0044184197
32	0x3df50fb1	0.119658835
33	0x3cae8002	0.021301273
34	0x3cba55ce	0.022745993
35	0xbd298d54	-0.041394547
36	0x3dcf0a6e	0.10109411
37	0x3dabd064	0.08389357
38	0x3cff23ea	0.031145055
39	0x3d48c686	0.04901745
40	0xbb947a86	-0.0045312075
41	0x3d1c082a	0.038093723
42	0xba390fea	-0.00070595613
43	0xbcb07181	-0.021538498
44	0x3e04795b	0.12936918
45	0x3d9501a3	0.07275703
46	0xbcaac583	-0.020846134
47	0x3ca35e06	0.019942295
48	0x3dca652b	0.098825775
49	0x3df1c946	0.11805968
50	0x3a3f8548	0.0007305932
51	0xbd9c7247	-0.07638984
52	0xbcd8175b	-0.026378324
53	0x3dabb786	0.08384614
54	0x3d8ce2c5	0.0687919
55	0x3dfa23d5	0.12213866
56	0x3d945814	0.07243362
57	0x3dd0fef8	0.102048814
58	0x3d279f2e	0.04092329
59	0x3d38b4c4	0.045094267
60	0x3c9d2912	0.019184623
61	0x3dc62f79	0.096770234
62	0x3c7db6ba	0.01548546
63	0x3c3fc443	0.011704507
64	0xbdd55d11	-0.10418142
65	0xbd3c5505	-0.04597952
66	0xbc28ce22	-0.010303052
67	0xbd9ff59f	-0.078105204
68	0xbcb7f61c	-0.022456221
69	0x3d29d31b	0.04146109
70	0xbc95f55d	-0.018305475
71	0xbd9ebc8d	-0.07750807
72	0x3c19e724	0.009393487
73	0x3da587b9	0.08082528
74	0x3cca8e2b	0.024725994
75	0xbc42e814	-0.011896152
76	0x3d1e2880	0.038612843
77	0x3c851891	0.016247066
78	0xbd01109c	-0.03150998
79	0xbcab0d05	-0.020880232
80	0xbd0c4c2e	-0.034252338
81	0x3d2d54b3	0.042317104
82	0x3c7f4c4d	0.015582156
83	0x3cfddda4	0.030989476
84	0x3d938097	0.07202261
85	0x3d12e852	0.03586609
86	0x3b7fbb90	0.0039021708
87	0x3dc8bd26	0.09801702
88	0xbc8b60d9	-0.017013954
89	0x3ddebd5a	0.1087596
90	0x3d11bf6a	0.035582937
91	0xbc8fc73a	-0.017551053
92	0xbd271a0d	-0.04079633
93	0x3d756757	0.059913006
94	0x3cc7fecd	0.02441349
95	0x3cc0cd0e	0.023535278
96	0x3d9d2ec4	0.076749355
97	0x3ca039a6	0.019558739
98	0x3d0bca02	0.034128197
99	0xbca9459f	-0.02066308
100	0x3d987e63	0.07445981
101	0x3d431741	0.0476296
102	0x3db69bce	0.08916436
103	0x3d0dde43	0.034635793
104	0x3d272311	0.040804926
105	0x3d411145	0.04713561
106	0x3ce8515b	0.028359106
107	0x3da3c7e0	0.079971075
108	0x3cc1b4e8	0.023645833
109	0x3dbc834b	0.0920473
110	0xbd14b952	-0.036309548
111	0x3d74adfb	0.059736233
112	0x3c5d6eda	0.013515199
113	0xbd7a8e71	-0.061171
114	0x3dda8652	0.10670151
115	0x3d92bb86	0.071646735
116	0x3e206c27	0.15666257
117	0x3d6f6d3a	0.058453776
118	0x3dba6530	0.09101331
119	0xbd288eb7	-0.04115173
120	0xbdb2904d	-0.087189294
121	0xbcf7c41c	-0.03024488
122	0x3c98a3d1	0.018632801
123	0xbd084e79	-0.033277962
124	0xbcf709f4	-0.030156113
125	0x3d2d7e1c	0.042356595
126	0x3dde3f1f	0.10851883
127	0x3d04cdcb	0.032422822
128	0xbb37cb25	-0.0028044668
129	0x3d85ba1e	0.0652964
130	0x3d2583fc	0.040409073
131	0xbc0e3971	-0.008680687
132	0xbd42f529	-0.047597084
133	0xbc5c8c6a	-0.013461212
134	0x3d6c5922	0.05770219
135	0xba9bd1a0	-0.0011888035
136	0x3cc91918	0.024548098
137	0x3dcf1d2b	0.10112985
138	0x3d8db386	0.06919007
139	0xbc42bc77	-0.011885754
140	0x3d38258f	0.044957694
141	0xbd31de99	-0.043425176
142	0x3d61ba58	0.055109352
143	0x3e076c82	0.13224986
144	0x3c1a82f9	0.00943064
145	0x3d32ffa8	0.043700844
146	0xbdb2d4e1	-0.0873201
147	0xbd01fd7c	-0.031735882
148	0x3bd7d609	0.0065867943
149	0xbc48b9f6	-0.012251368
150	0x3deb1a64	0.11479643
151	0xbd544d4c	-0.05183153
152	0xbc5fab73	-0.0136517165
153	0x3d3b0a41	0.045664076
154	0xbd20714e	-0.039170556
155	0x3c066a71	0.008204089
156	0xbd225afd	-0.039637554
157	0x3cbb6fa3	0.022880381
158	0xbc3962a1	-0.011315019
159	0xbcac3422	-0.021020953
160	0xbcdc4e11	-0.026892694
161	0x3d59549e	0.053059213
162	0xbe26aa6b	-0.16275947
163	0x3cb597e8	0.022167161
164	0x3d820a9e	0.06349681
165	0xbc30eff6	-0.010799399
166	0xbda73b9e	-0.08165668
167	0x3ca4da54	0.020123638
168	0xbd1c804b	-0.038208287
169	0xbd29c6fb	-0.04144953
170	0x3da2870a	0.07935913
171	0xbca9929f	-0.020699797
172	0x3d7addba	0.06124661
173	0xbd8833e0	-0.06650519
174	0x3d72f13b	0.059312087
175	0x3ced82f2	0.028993104
176	0xbd6472b3	-0.05577345
177	0xbd6e8018	-0.05822763
178	0xbd036679	-0.032080147
179	0x3e0f964e	0.1402218
180	0x3d75864f	0.05994254
181	0xbd122334	-0.035678104
182	0xbd0e056f	-0.03467315
183	0xbc8fd5eb	-0.017558059
184	0x3da01c0c	0.078178495
185	0x3dbf7b45	0.09349684
186	0xbbfba0d6	-0.0076790852
187	0x3c53db9c	0.012930777
188	0xbc1cfbd9	-0.00958153
189	0x3dc5d4c7	0.09659725
190	0xbc039ac6	-0.008032506
191	0xbbc24bb6	-0.0059294356
192	0x3d842923	0.06453159
193	0x3daff6f0	0.085920215
194	0x3cf0c099	0.029388713
195	0x3d29cd92	0.041455813
196	0x3c9695b9	0.01838194
197	0x3d4b6596	0.049657427
198	0x3d8e8822	0.06959559
199	0x3d9c6efb	0.07638355
200	0xbd543aee	-0.051814012
201	0xbb9a276a	-0.0047044056
202	0x3dcb9ff4	0.09942618
203	0x3d82d200	0.063877106
204	0x3d3814da	0.04494176
205	0x3d04dcf5	0.032437284
206	0xbba817c6	-0.005129787
207	0xbcc890c8	-0.0244831
208	0xbc6fe421	-0.0146417925
209	0xbc820e3e	-0.015875932
210	0xbc069640	-0.008214533
211	0x3d547bd2	0.051875897
212	0x3d0aaf42	0.033858545
213	0xbd322397	-0.043490972
214	0xbc3a7ced	-0.011382324
215	0xbd5a7347	-0.053332593
216	0xbcb790f4	-0.022407986
217	0xbd938d99	-0.07204742
218	0x3d09f1c4	0.03367783
219	0xbb9d3088	-0.004797045
220	0x3dc8dd14	0.09807792
221	0x3d8cc6a1	0.06873823
222	0x3d54914e	0.051896386
223	0x3c9c3a52	0.019070778
224	0x3d83b7e6	0.0643156
225	0xbd9aa367	-0.07550698
226	0x3dce4cff	0.100732796
227	0xbd27546d	-0.040852
228	0x3ccb80cf	0.024841694
229	0x3d051946	0.032494806
230	0x3d982b2a	0.07430108
231	0x3d2923a7	0.041293766
232	0x3cb6a8c3	0.022297269
233	0x3ca5a7e2	0.020221654
234	0x3da907d4	0.08253446
235	0x3d247016	0.040145956
236	0xbda21da7	-0.07915812
237	0x3bc78818	0.0060892217
238	0x3d33f057	0.043930378
239	0x3d3a9da8	0.04556051
240	0x3d5e9f41	0.054351095
241	0x3d2147f7	0.03937527
242	0x3c25b895	0.010114809
243	0x3cfdac8b	0.030966064
244	0xbd12494f	-0.035714444
245	0x3dc720d0	0.09723055
246	0x3dbb1f66	0.09136848
247	0x3ba2c443	0.004967244
248	0xbc0919cf	-0.00836797
249	0x3b37b914	0.00280339
250	0xbce247aa	-0.027622063
251	0x3c8211eb	0.015877685
252	0x3d88db5d	0.06682465
253	0xbd5aace2	-0.05338753
254	0x3d914418	0.07093066
255	0x3d634fe8	0.055496126

fc2.weight f4 [64, 256]
0	0xb87bfb6c	-6.007722e-05
1	0x3da4b3f0	0.08042133
2	0xbc53ffdf	-0.012939422
3	0x3c7349dc	0.014849152
4	0x3be78448	0.0070653297
5	0x3e0cb397	0.13740383
6	0x3c67fe6f	0.014159783
7	0xbe2c74ed	-0.16841479
8	0xbe0ac0c9	-0.13550104
9	0xbd40e22f	-0.047090705
10	0xbb531308	-0.0032207388
11	0xbc690ff6	-0.014224997
12	0x3dcdccf6	0.10048859
13	0xbd0a25a1	-0.033727292
14	0x3c964cae	0.01834711
15	0xbd82e495	-0.06391255
16	0xbdf5cb09	-0.120016165
17	0x3bfea70d	0.007771379
18	0xbe0ca5bd	-0.13735099
19	0x3e43c464	0.19117886
20	0x3d938705	0.07203487
21	0x3c63759e	0.013883023
22	0x3d999543	0.074991725
23	0xbd9afde0	-0.07567954
24	0x3d4336cf	0.04765969
25	0xbd40cd02	-0.04707051
26	0xbe60637a	-0.21912947
27	0xbd95cee1	-0.0731485
28	0xbd796ae9	-0.060892973
29	0xbdda329c	-0.10654184
30	0xbcfdabca	-0.030965704
31	0x3cb978d4	0.022640623
32	0x3e243a39	0.16037835
33	0x3d9f2f9d	0.077727534
34	0xbd833d86	-0.06408219
35	0x3e864ba4	0.26229584
36	0x3e1b49d8	0.15164888
37	0x3c328789	0.010896572
38	0x3e0c506b	0.13702552
39	0x3db5ea1a	0.08882542
40	0x3e987dc6	0.29783458
41	0x3e025def	0.12731145
42	0xbe059d68	-0.13048327
43	0xbe473845	-0.19455059
44	0x3db9c46f	0.0907067
45	0x3e884c23	0.26620588
46	0x3ca71c09	0.02039911
47	0x3c90e591	0.01768759
48	0x3c35c76a	0.011094907
49	0xbe0ba22c	-0.13636082
50	0xbe752dbb	-0.23943226
51	0xbc6f60bf	-0.014610468
52	0x3d5327de	0.051551692
53	0x3d8f5301	0.069982536
54	0xbd07788c	-0.033073947
55	0x3e32afb0	0.17449832
56	0xbce0c4bf	-0.027437566
57	0x3c0ddb66	0.008658266
58	0x3e58a5d4	0.21157008
59	0x3cec8cd8	0.028875753
60	0xbe2adc25	-0.16685541
61	0x3e7fd708	0.24984372
62	0x3d9386cb	0.07203444
63	0xbda8cfd5	-0.08242766
64	0xbd326b80	-0.04355955
65	0x3b299785	0.0025877666
66	0xbe839c0e	-0.25704998
67	0xbe117127	-0.1420332
68	0x3b71d6eb	0.0036901783
69	0x3dbfc701	0.09364129
70	0x3cef5048	0.029213086
71	0x3db4495c	0.08803055
72	0xbe417ac2	-0.18894485
73	0x3c10781a	0.008817697
74	0xbd5e0a84	-0.054209247
75	0x3d878eba	0.0661902
76	0x3d3b0f13	0.045668673
77	0xbe14953c	-0.14510053
78	0xbc63c8aa	-0.0139028225
79	0x3c98e08e	0.018661764
80	0xbe597956	-0.21237692
81	0x398e4652	0.00027136743
82	0x3b73d496	0.0037205569
83	0x3c5441b0	0.012955114
84	0x3dace38a	0.08441837
85	0xbdca33b4	-0.09873143
86	0x3d6fd3c0	0.05855155
87	0xbc6fc13d	-0.014633474
88	0xbea3b3a1	-0.31972983
89	0x3dd69739	0.10478062
90	0xbd410c73	-0.047131013
91	0x3e04eed7	0.12981735
92	0xbdc7b7e7	-0.097518735
93	0x3cb2b0fd	0.02181291
94	0x3e68a560	0.22719336
95	0x3b3b6974	0.002859679
96	0xbd8c75a4	-0.06858376
97	0xbe006a62	-0.12540582
98	0xbe5755ec	-0.2102887
99	0x3ddfb3ab	0.10922941
100	0x3e33261e	0.1749501
101	0xbe2b01cc	-0.16699904
102	0x3d7e370b	0.06206421
103	0xbd22b9ed	-0.039728094
104	0xbdb0e5a1	-0.08637548
105	0xbd0cccb5	-0.03437491
106	0x3d861ef6	0.06548874
107	0x3dd42b6c	0.103598446
108	0xbdda9b83	-0.10674193
109	0xbd0356c3	-0.032065164
110	0x3de3ba7b	0.11119553
111	0x3d089cf4	0.033352807
112	0xbb3c68cd	-0.002874899
113	0x3d1ec39d	0.03876077
114	0x3d1e9e25	0.038725037
115	0x3dc3c0c7	0.09558254
116	0xbcb04b4d	-0.021520281
117	0xbd96ba1b	-0.073597156
118	0x3d1e7113	0.038682055
119	0x3dde904f	0.108673684
120	0xbe755dde	-0.23961589
121	0x3d86a801	0.06575013
122	0x3cad1c15	0.021131555
123	0x3cae1a7e	0.021252867
124	0x3dc0eb0a	0.0941983
125	0x3d504897	0.050850477
126	0xbe8849e8	-0.26618886
127	0x3ec74cfa	0.38925916
128	0x3d27fa0e	0.041009955
129	0x3e12b46a	0.14326635
130	0xbe9e97ff	-0.3097534
131	0x3dde218e	0.10846244
132	0x3dcb4781	0.09925748
133	0x3c999655	0.018748442
134	0x3e92ffe7	0.28710863
135	0x3db62d50	0.088953614
136	0xbad16eef	-0.0015978495
137	0x3d5c6856	0.05381044
138	0x3d963847	0.07334953
139	0xbe69efbf	-0.22845362
140	0x3caf3b10	0.021390468
141	0xbe80c43e	-0.2514972
142	0x3dbf0d1e	0.09328674
143	0xbd43e93d	-0.047829855
144	0x3abf90f6	0.0014615345
145	0x3db53722	0.088484064
146	0x3dc29304	0.09500697
147	0xbd267552	-0.04063923
148	0xb8e21746	-0.00010780855
149	0xbd279abf	-0.04091906
150	0xbd4e4752	-0.050360985
151	0xbd5a9785	-0.053367157
152	0xbe4494dc	-0.1919741
153	0xbe8074c8	-0.25089097
154	0xbd777b18	-0.060420126
155	0xbdc7f4e1	-0.09763504
156	0xbe5680e0	-0.209476
157	0xbce33575	-0.027735451
158	0x3d6ad4b9	0.057331774
159	0xbb1e66f5	-0.0024170254
160	0xbde1bbe6	-0.11022167
161	0x3d78a190	0.060700953
162	0x3e19a426	0.15004024
163	0x3d3e58b5	0.046471316
164	0xbe0e0823	-0.13870291
165	0xbcf62492	-0.030046735
166	0x3d53e4cc	0.05173187
167	0x3eadff6b	0.3398393
168	0xbd12f3ab	-0.03587691
169	0x3d0a6b28	0.0337936
170	0xbd4375ca	-0.047719754
171	0xbbe74309	-0.0070575518
172	0xbe4b58af	-0.19858049
173	0xbcd1e4b0	-0.025621742
174	0xbd4bc472	-0.04974789
175	0xbda8d818	-0.082443416
176	0xbe2fe7b9	-0.17178239
177	0xbe7bef09	-0.24602903
178	0xbe261f3f	-0.16222857
179	0x3d2970bb	0.041367274
180	0xbcb6c250	-0.022309452
181	0x3d1c305b	0.038132053
182	0xbe2e8d89	-0.17046179
183	0xbe3ad610	-0.18245721
184	0x3de85d24	0.1134589
185	0xbac89109	-0.0015302013
186	0xbbd4e321	-0.0064968024
187	0xbe146812	-0.14492825
188	0xbdc41f2c	-0.09576258
189	0x3e0a6f18	0.13518941
190	0x3cf0c0ca	0.029388804
191	0xbe281dc9	-0.16417612
192	0xbd546cc3	-0.051861536
193	0x3ddd4bca	0.10805471
194	0x3be48bb3	0.0069746613
195	0xbd9af5f2	-0.075664416
196	0x3e872f73	0.26403388
197	0x3d1f801f	0.038940545
198	0xbdfc3255	-0.123142876
199	0x3e9114ac	0.28336084
200	0xbe751165	-0.23932417
201	0xbeaea854	-0.341128
202	0x3c03bb7f	0.008040308
203	0x3cf94d70	0.030432433
204	0x3dd735e7	0.10508328
205	0x3a64b330	0.0008724211
206	0x3db92808	0.090408385
207	0xbcbd7a95	-0.02312974
208	0x3d453f9f	0.048156377
209	0x3ddf63fe	0.10907744
210	0xbcbc4ec4	-0.022986777
211	0x3c8820fb	0.016617289
212	0x3e4721fa	0.19446555
213	0xbe9a7b21	-0.30172065
214	0x3dad0466	0.084481046
215	0xbe0fa8f1	-0.1402929
216	0xbe195539	-0.14973916
217	0xbc391c8f	-0.011298313
218	0xbe5687c2	-0.20950225
219	0x3d7bff17	0.06152257
220	0x3db0e6ac	0.08637747
221	0xbcfdff34	-0.03100548
222	0xbd0ff1b2	-0.035142608
223	0x3dd047bc	0.10169932
224	0xbe48ec3a	-0.19621363
225	0xbd06688c	-0.032814547
226	0x3d5a78f7	0.053338017
227	0x3dc83c26	0.097770974
228	0x3dcb00bd	0.0991225
229	0x3e83b36e	0.2572283
230	0x3dab6198	0.08368224
231	0x3dfaf824	0.1225436
232	0xbe2f6cca	-0.17131343
233	0x3de06056	0.109558746
234	0xbd4609e5	-0.04834928
235	0xbc04dac8	-0.008108802
236	0x3c34deba	0.01103943
237	0x3df7078b	0.120619856
238	0xbd3e558a	-0.046468295
239	0x3db615e8	0.08890897
240	0x3d9136c0	0.07090521
241	0x3ddec7ec	0.10877976
242	0xbe0dd9d8	-0.13852632
243	0xbc492a4f	-0.012278154
244	0xbdbe5aae	-0.092946395
245	0x3d54e2d8	0.051974148
246	0x3ce4a224	0.027909346
247	0xbdcadc45	-0.09905294
248	0xbd37feff	-0.044920918
249	0xbddfb7ee	-0.10923754
250	0x3ddfff8c	0.109374136
251	0x3db51560	0.088419676
252	0x3e530436	0.20607075
253	0xbea14e99	-0.31505278
254	0xbdfee20f	-0.12445461
255	0x3d4b6ce5	0.049664397

fc2.bias f4 [64]
0	0x3d20f8d7	0.039299812
1	0xbb189e15	-0.0023287584
2	0x3d38e825	0.045143265
3	0x3dc960e1	0.09832931
4	0x3e1a627d	0.15076633
5	0x3d4b4e46	0.049635194
6	0x3d554faa	0.052077927
7	0xbd849b34	-0.06474915
8	0x3da02011	0.07818616
9	0x3e0eccde	0.13945338
10	0x3e2e19df	0.17002057
11	0xbd083cd8	-0.03326115
12	0x3ce6a4e7	0.028154803
13	0xbdaab33f	-0.0833497
14	0x3d93ae62	0.07210995
15	0x3d54aece	0.05192452
16	0x3dd8428d	0.105595686
17	0xbdf2540e	-0.118324384
18	0x3d9e0bf9	0.07717127
19	0x3d4cd9cf	0.050012406
20	0x3d3c3baf	0.045955356
21	0x3e02f596	0.12788996
22	0xbd2eb2e6	-0.04265108
23	0x3d25b8c8	0.040459424
24	0x3def2625	0.11677197
25	0xbc878c02	-0.016546253
26	0x3d6a15b2	0.057149597
27	0x3dbc47a3	0.09193351
28	0x3e0da285	0.13831528
29	0x3e504ce7	0.20341836
30	0x3ca48021	0.020080628
31	0x3dcbfc2f	0.099602096
32	0x3e04875e	0.12942263
33	0x3d9575f1	0.07297886
34	0x3d5edd5c	0.054410324
35	0x3ceac191	0.028656753
36	0x3df0f1dc	0.11764881
37	0x3d84d8c1	0.06486655
38	0x3dca66f9	0.09882922
39	0x3decee58	0.11568898
40	0x3d84f2b7	0.06491607
41	0xbc68b57c	-0.0142034255
42	0x3e19a902	0.15005878
43	0xbd965c49	-0.07341821
44	0x3c2f1d3a	0.0106881205
45	0x3ce012f9	0.027352797
46	0x3c703d61	0.014663071
47	0x3dcd2402	0.100166336
48	0x3e300547	0.17189513
49	0x3d8187ef	0.063247554
50	0x3d853d13	0.065057896
51	0xbd50a618	-0.05093965
52	0xbc202307	-0.009773976
53	0xbbf20e3a	-0.00738695
54	0xbc7222ea	-0.014778832
55	0x3dc307fe	0.09523009
56	0x3a727e17	0.0009250356
57	0xbd76aad9	-0.060221527
58	0x3e19c546	0.1501666
59	0xbd2c04cc	-0.041996762
60	0xbd38fbf4	-0.045162156
61	0x3daecaaa	0.08534749
62	0x3dc88ce1	0.097924955
63	0xbd55755c	-0.052113876

fc3.weight f4 [10, 64]
0	0xbd8d22c4	-0.06891397
1	0x3dc8850d	0.097910024
2	0x3dd5e360	0.10443759
3	0xbe3a7334	-0.18208009
4	0xbec1df13	-0.37865505
5	0xbeb03cd6	-0.34421414
6	0xbe433dbd	-0.1906652
7	0xbeccd019	-0.40002516
8	0xbe0f88c7	-0.1401702
9	0x3d88d412	0.06681074
10	0xbe4d2f21	-0.2003751
11	0xbe0bc573	-0.1364954
12	0xbec13275	-0.37733808
13	0xbe841f23	-0.25805005
14	0xbebbe751	-0.36699918
15	0xbe471199	-0.19440307
16	0xbe6c0f9d	-0.23052831
17	0x3e461890	0.19345307
18	0x3e23acb4	0.1598385
19	0xbebb3c58	-0.36569476
20	0x3cad7ed2	0.021178637
21	0x3e0691d3	0.13141565
22	0x3e50104e	0.2031872
23	0xbe9e0823	-0.30865583
24	0xbd15f9b8	-0.036615103
25	0x3e385cbd	0.18004127
26	0x3d836c67	0.064171605
27	0x3e258647	0.16164504
28	0xbe68e961	-0.22745277
29	0xbe8d4d12	-0.27597862
30	0xbd925418	-0.07144946
31	0xbde78542	-0.11304714
32	0xbe447993	-0.19187002
33	0x3e545307	0.20734797
34	0xbe187add	-0.14890619
35	0x3e23a97e	0.15982625
36	0xbd900a7f	-0.07033252
37	0xbdb53f72	-0.08849992
38	0x3e040cca	0.12895504
39	0x3ccbf733	0.024898147
40	0xbe9a407a	-0.30127317
41	0x3e468c01	0.19389345
42	0x3e67b85a	0.22628918
43	0x3dc2844c	0.0949789
44	0x3e52b3e1	0.20576431
45	0x3e2dc40e	0.1696932
46	0xbe814b8f	-0.2525296
47	0x3e0fc0cb	0.14038388
48	0x3d1cb036	0.038253985
49	0xbbc696a6	-0.006060439
50	0x3e22415a	0.15845242
51	0xbe445622	-0.19173482
52	0xbe0feef2	-0.14055994
53	0xbe47fc48	-0.19529831
54	0xbe1d7f26	-0.15380535
55	0xbe63e4ed	-0.22255297
56	0xbe85d974	-0.26142466
57	0x3e11bbd1	0.14231803
58	0x3d9179b3	0.071032904
59	0x3e6af034	0.22943193
60	0x3e70eed9	0.23528613
61	0x3e501101	0.20318986
62	0xbdc31afd	-0.09526632
63	0x3e45eaf6	0.19327912
64	0x3e6190fb	0.22027962
65	0x3e8a52c7	0.2701628
66	0xbcd7eae9	-0.026357131
67	0x3e0456cc	0.12923735
68	0xbd569917	-0.05239209
69	0x3e0ddcc5	0.13853748
70	0xbda5b6f6	-0.08091538
71	0x3e79c6db	0.24392264
72	0x3e1c5a59	0.1526884
73	0xbe6aaf1d	-0.22918363
74	0xbd93e770	-0.072218776
75	0x3e0968c6	0.13418874
76	0xbe85947a	-0.2608984
77	0x3e30fe67	0.17284547
78	0x3e835412	0.25650078
79	0x3e676f16	0.2260097
80	0xbe1af70d	-0.15133305
81	0xbe02faef	-0.12791036
82	0xbe7ec0cd	-0.24878235
83	0x3db0d5ee	0.08634554
84	0xbe1e25b4	-0.1544407
85	0xbe5d64bc	-0.21620458
86	0xbe9d5a02	-0.30732733
87	0xbe56f96e	-0.20993587
88	0xbece051a	-0.40238267
89	0xbe215fc1	-0.15759183
90	0x3e3657a0	0.17806864
91	0xbea3267f	-0.31865308
92	0xbe29d4ce	-0.16585085
93	0x3e4ad27d	0.19806857
94	0x3e4f1f8a	0.20226875
95	0xbd576aca	-0.052592076
96	0xbd617398	-0.05504188
97	0xbe594d50	-0.21220899
98	0x3e69aa5f	0.22818898
99	0xbe99dffa	-0.30053693
100	0xbd313d3c	-0.04327129
101	0x3e5ea5b7	0.21742903
102	0x3dd6b9b1	0.104846366
103	0xbea535de	-0.3226766
104	0x3dad5d16	0.0846502
105	0x3d9d043d	0.07666824
106	0xbdcdf0b4	-0.10055676
107	0x3d8f2a42	0.06990482
108	0x3e81ae16	0.2532813
109	0xbdf8c7c5	-0.12147478
110	0x3db6811c	0.089113444
111	0x3e1472f8	0.14496982
112	0x3ddae62a	0.106884316
113	0xbd46118b	-0.048356574
114	0xbe9b261b	-0.3030251
115	0xbe5c658d	-0.21523114
116	0xbe72be42	-0.2370539
117	0xbd8f3670	-0.06992805
118	0xbec47014	-0.3836676
119	0x3e1428f4	0.14468747
120	0xbe7d3a8f	-0.2472937
121	0xbe64f3ee	-0.22358677
122	0xbeb7b347	-0.35878965
123	0x3e307612	0.1723254
124	0xbe874f09	-0.26427487
125	0xbe8e5b16	-0.27803868
126	0x3d8a5e65	0.067562856
127	0x3e3387b9	0.17532243
128	0xbe21c1b1	-0.15796544
129	0x3e2ae8ff	0.16690443
130	0x3e00a279	0.12561978
131	0xbf01491a	-0.5050217
132	0x3d84854b	0.06470736
133	0x3de3d022	0.111236826
134	0x3d5bb96d	0.053643633
135	0x3e12a7d8	0.1432184
136	0xbe882a4e	-0.26594776
137	0xbe007555	-0.12544759
138	0xbe2480b9	-0.16064729
139	0xbd9643f5	-0.073371805
140	0xbec5088d	-0.38483086
141	0x3e26ce26	0.16289577
142	0x3dfa82cb	0.12231978
143	0xbccd93aa	-0.025094826
144	0x3df8ac6d	0.121422626
145	0x3e3d0991	0.1846068
146	0x3db3bbc9	0.087760516
147	0x3e2ed862	0.17074731
148	0xbe0a1929	-0.1348616
149	0xbc6febf2	-0.014643656
150	0x3e4b5c9c	0.19859546
151	0xbe485696	-0.1956428
152	0x3e3c0492	0.18361118
153	0xbe66ef09	-0.22552122
154	0x3e504d5f	0.20342015
155	0x3dca0315	0.09863869
156	0xbdc48077	-0.09594815
157	0xbe92c373	-0.2866474
158	0x3e2eff3f	0.17089556
159	0xbde14557	-0.10999554
160	0xbea457df	-0.3209829
161	0xbe275a7d	-0.16343112
162	0xbbfd8e3d	-0.0077379034
163	0xbe96e24d	-0.2946953
164	0xbe95931d	-0.292138
165	0x3e24cb81	0.16093256
166	0xbc7ec207	-0.015549189
167	0x3dc01fc8	0.09381062
168	0x3e12bad3	0.1432908
169	0xbe4ec900	-0.20193863
170	0xbe1c4987	-0.15262423
171	0xbd4690a5	-0.048477788
172	0xbe8d94ec	-0.2765268
173	0xbe7c3bf9	-0.24632253
174	0x3d304520	0.043034673
175	0xbe304f8d	-0.17217846
176	0x3dcf1ec9	0.10113294
177	0xbe12e848	-0.14346421
178	0xbd19431d	-0.03741752
179	0xbd21f0e6	-0.03953638
180	0x3e6b3e8f	0.22973083
181	0xbccd3055	-0.02504746
182	0x3e56d42c	0.20979375
183	0x3d15ed99	0.036603544
184	0x3eec49fc	0.46150196
185	0xbe6ba168	-0.2301079
186	0x3e45603e	0.19274995
187	0x3dd86b5a	0.10567351
188	0x3cdd757e	0.027033564
189	0x3e29b33f	0.16572283
190	0xbe6af21e	-0.22943923
191	0x3d24a49a	0.04019604
192	0xbe3166bf	-0.17324351
193	0xbe05a246	-0.13050184
194	0x3ddffc52	0.10936798
195	0x3dbdeac7	0.09273296
196	0x3d298ce6	0.041394137
197	0x3e0f37f0	0.13986182
198	0x3e40dafc	0.18833536
199	0xbdcd0fbf	-0.10012769
200	0xbe93939d	-0.28823557
201	0xbe9df701	-0.30852512
202	0xbdac56ea	-0.08415015
203	0x3e4ba955	0.19888814
204	0x3e0ae7cd	0.13564987
205	0x3e29c1ac	0.16577786
206	0x3e02d707	0.12777339
207	0x3dfc0e51	0.12307418
208	0xbe278136	-0.16357884
209	0x3e326569	0.17421497
210	0x3de769c4	0.1129947
211	0xbe211591	-0.15730883
212	0xbeac7b08	-0.33687615
213	0x3ca00927	0.019535614
214	0xbe08d385	-0.13361938
215	0xbd0d63c6	-0.03451898
216	0x3db4aefa	0.08822437
217	0xbe8031f7	-0.2503812
218	0xbe9e98c7	-0.30975935
219	0xbe9f85cc	-0.31156766
220	0xbe19b067	-0.15008698
221	0xbd83cf97	-0.06436079
222	0x3e41dc72	0.1893175
223	0x3e43e6bb	0.19130985
224	0x3e23a063	0.15979151
225	0x3be15abb	0.006877271
226	0xbe7dc040	-0.24780369
227	0xbdf6b3ba	-0.12045999
228	0x3db36e4d	0.087612726
229	0xbeadc124	-0.33936417
230	0x3daaf20e	0.083469495
231	0x3de3e213	0.111271046
232	0x3e1d278c	0.15347117
233	0xbea69014	-0.32531798
234	0xbed3bf1d	-0.41356745
235	0xbcdf30d6	-0.027244966
236	0xbe681b41	-0.22666647
237	0x3e240bf9	0.16020192
238	0x3e265135	0.16241916
239	0xbe1ce1fa	-0.15320578
240	0xbed9718d	-0.42469445
241	0xbd81d883	-0.063401245
242	0x3dd6e676	0.10493176
243	0x3e0d078c	0.1377241
244	0x3e8478d9	0.2587345
245	0x3d270f4c	0.040786073
246	0xbdea3f47	-0.114378504
247	0x3d3c1d6d	0.0459265
248	0xbe5b690c	-0.21426791
249	0x3e026e87	0.12737475
250	0xbdfe3dd2	-0.12414135
251	0x3e251967	0.16122971
252	0xbd3f99a4	-0.046777382
253	0xbcf0fa40	-0.029416203
254	0x3db96f9b	0.0905449
255	0xbdd2411c	-0.10266325

fc3.bias f4 [10]
0	0xbe39690b	-0.18106477
1	0x3cf38618	0.029727027
2	0xbd95f0ea	-0.07321341
3	0xbd9c653f	-0.07636499
4	0x3e496969	0.19669117
5	0x3b0266dd	0.0019897737
6	0x39bd3264	0.00036086433
7	0xbdf7d134	-0.12100449
8	0x3def0643	0.11671116
9	0x3bf84147	0.007576141
