Project/models/trained_model.pt (torch, 973263 bytes, 8 tensors)

fc1.weight f4 [256, 784]
000000 dc 3f c3 3b dc 06 4d 3b f7 fb d8 bc 33 97 41 bc
       0.0059585404 0.0031284606 -0.026487334 -0.011815834
000010 ae 8d 0b bd 8e 3f 09 bd ee 4a 76 3b 81 be 49 3c
       -0.034070663 -0.033507876 0.0037581283 0.012313486
000020 06 ad 6e 3b 5c 20 00 3d 6c 32 c1 bc 9d 39 e7 ba
       0.0036419048 0.03128086 -0.023583613 -0.0017641071
000030 01 54 53 3d 61 f1 71 3c 9f 5b 17 3d 7c ba 41 bc
       0.051593784 0.014767022 0.03695261 -0.0118242465
000040 3d 69 10 3b c9 36 17 3c c4 97 39 3b 42 60 5f bc
       0.0022035383 0.00922937 0.002831922 -0.0136337895
000050 66 19 e0 3b c0 d8 8b 3b 72 49 94 3c 6e be 21 3b
       0.006838965 0.004267782 0.018101428 0.0024680155
000060 bc 3b 94 3c ba 2e c8 3c 45 71 90 3c 2e bf 17 3c
       0.01809489 0.024436343 0.017632136 0.009261889
000070 7e a6 8b 3c a1 db f3 bc 77 51 26 3c e3 1c dc 3c
       0.017047163 -0.029767813 0.010151259 0.026869243
000080 43 e7 9e bc 13 2d b5 bc 14 fc 4d 3d 1c fa 25 3d
       -0.019397384 -0.02211622 0.05028923 0.040521726
000090 fb 6d 59 3c 42 a3 63 3d 76 af ff 3c b4 ac 35 3d
       0.01327085 0.055575617 0.031211596 0.044354156
0000a0 e9 6e 8d 3d 51 93 2e 3d 41 20 21 3d df 86 63 3d
       0.0690592 0.04262096 0.0393374 0.055548545
0000b0 c7 74 24 3e 97 89 16 3e 8e 2f 01 3e 28 76 6b 3d
       0.16060172 0.14700924 0.12615797 0.05748573
0000c0 d1 0c 1d 3d 30 96 ca 3c 9e ea 74 3d c3 31 b3 3d
       0.0383423 0.024729818 0.05979406 0.08749726
0000d0 1a e5 93 3c 53 c2 d6 bc fc 45 61 3c ca 34 a8 3b
       0.01805358 -0.026215708 0.013749596 0.005133246
0000e0 6e 36 c7 ba 0c d5 f3 3c a5 b6 a9 bb d0 2a a7 3c
       -0.0015198716 0.029764675 -0.0051792436 0.020406157
0000f0 32 91 93 3d 9e 9d a7 3d 9c a6 6b 3d ba a7 15 3e
       0.07205428 0.0818436 0.057531938 0.14614764
000100 36 f6 64 3d 02 03 ac 3d d9 af af 3d cb cd 22 3e
       0.055898868 0.08399011 0.08578462 0.15898816
000110 0a 6b 06 3e 0f 79 2e 3e cf 3f a4 3d 34 44 93 3d
       0.1312677 0.17038368 0.08019983 0.07190743
000120 b5 b1 c9 3d 88 e2 8c 3d 0c 7e d0 3d 62 ae 2b 3d
       0.09848348 0.06879145 0.101802915 0.04191435
000130 48 d3 77 bc 19 b1 04 3d f0 51 7c 3d 68 bd bc 3c
       -0.015126057 0.032395456 0.06160158 0.023039535
000140 d4 38 05 3d 51 13 a1 bc 5c e3 d9 3b db c1 07 bd
       0.0325249 -0.019662531 0.006649418 -0.03314386
000150 c1 5a af 3b 3c f0 2e 3c 88 c3 e2 3c 9c a7 de bb
       0.005351395 0.0106773935 0.027681127 -0.006794883
000160 d6 31 a6 3b f4 36 80 3d 28 32 de 3c 08 80 80 3d
       0.005071859 0.062604815 0.027123526 0.0627442
000170 17 57 a7 3d 33 93 0b 3e 02 76 23 3e 16 8d 1a 3e
       0.08170908 0.13630371 0.15962985 0.15092883
000180 48 ae 23 3e 81 b0 ab 3d c5 27 99 3d f6 98 fc 3d
       0.15984452 0.08383275 0.074782886 0.123338625
000190 b6 b0 a2 3d 47 f8 d3 3c e0 10 71 3c e8 78 b7 3d
       0.07943861 0.025875224 0.014713496 0.08958608
0001a0 58 e8 9d 3a 9a 85 4f bc 52 1d af bd 1a ed 28 bd
       0.0012047393 -0.01266613 -0.08550514 -0.041241743
0001b0 aa 7f 6c 3d 5e 3d ed 3c 77 99 35 3d 7c 00 32 3c
       0.057738937 0.028959926 0.04433581 0.010864373
0001c0 5c a9 a6 bc e1 00 f1 bc b7 9a 02 3b e7 bf 6f 3d
       -0.020344429 -0.029419364 0.0019928643 0.05853262
0001d0 54 b4 29 3d 89 9c 46 3d 23 f1 32 3d 32 94 bc bb
       0.04143174 0.048489127 0.043686997 -0.005754971
0001e0 c2 66 9e 3d df 1b 59 3d eb 4f 43 3c ce 76 8a bb
       0.07734443 0.053005096 0.011920909 -0.0042255884
0001f0 d4 7b c8 bc ce 63 13 3c 05 bf 08 3c 38 96 32 3d
       -0.024473108 0.008995963 0.008346324 0.04360029
000200 3c ca 34 bc be 4f 87 bb 08 de 7d bc 1d 4a 83 3c
       -0.011034545 -0.004129379 -0.015494831 0.01602655
000210 33 b5 5f bc 7a 26 2b 3d 93 0e a0 3a ab 0a 71 bc
       -0.013654041 0.04178474 0.0012211375 -0.014712016
000220 91 44 57 3b 62 ff 70 3d 63 13 13 bc e5 1a c1 bc
       0.0032847265 0.058837302 -0.00897679 -0.023572395
000230 6e 48 74 bb 88 4c ea bc 21 c4 04 3d f0 f7 18 3d
       -0.0037274617 -0.028600946 0.032413606 0.037345827
000240 6a 93 98 bc ce 11 e7 3b 4f ab 32 3d 80 0a f9 bb
       -0.01862498 0.007051683 0.043620404 -0.0076001287
000250 d0 b4 76 bc ca a9 f0 3c 05 6f 86 3c b9 df 15 3c
       -0.0150577575 0.029377837 0.01641036 0.009147578
000260 25 c9 04 bd 59 b7 33 3c 84 9e da 3b 7f e2 5a bc
       -0.03241839 0.010969006 0.0066717286 -0.013359665
000270 67 e6 1b bc 8d dd bc bc 66 68 1f bd fa d5 5e bc
       -0.009515381 -0.023054862 -0.03891792 -0.013600821
000280 08 06 aa 39 2b 38 a6 bc 0b 8d 5b bc be e3 12 3d
       0.0003242942 -0.020290455 -0.0134003265 0.035861723
000290 02 ad 7c bc 81 f2 ef 3b bb 87 67 3d 01 0a fd 3a
       -0.015422108 0.00732261 0.056525927 0.001930535
0002a0 f2 c4 00 bd 4b 80 d7 bc e4 f0 f6 3c e1 5a 7b 3d
       -0.03143782 -0.026306292 0.030144162 0.061365966
0002b0 da 74 84 bd 01 1f 89 bc 65 56 4f 3c 6b 7f 8b 3a
       -0.064676 -0.016738417 0.012654875 0.0010642832
0002c0 60 f0 06 bc 9a fb 92 3d 5b 64 1c 3d 36 80 84 bc
       -0.008236021 0.071768954 0.038181644 -0.016174417
0002d0 94 fd 15 bd d8 e6 a3 3c 93 ef c3 3c c0 45 67 3d
       -0.036618784 0.020007536 0.023917949 0.056463003
0002e0 3b 3e 28 bc 50 fa 77 3c 94 9b 0b 3d cc 24 0e bd
       -0.010268743 0.015135363 0.034083918 -0.03470306
0002f0 c1 69 e1 bc 50 c8 c4 3c 2f 3a 6a 3b 7e 38 4f 3d
       -0.027516248 0.024021298 0.0035740247 0.050590985
000300 95 b9 96 3d 4f ef 8e 3d 34 04 b7 3d 9c e1 ba bb
       0.07359616 0.06979238 0.089363486 -0.0057031643
000310 73 eb 67 bc 47 78 24 3d ee af 20 bb c3 2e 8b 3d
       -0.014155257 0.040153768 -0.0024518925 0.067960285
000320 84 ff 6e bd e0 3a 18 bc 59 bf 3b 3c 98 ad ef bc
       -0.058349147 -0.009291381 0.011459195 -0.02925758
000330 36 80 c0 3c f2 1a 98 bc a2 43 1e bd 35 d6 ca 3b
       0.023498636 -0.018567536 -0.03863872 0.0061900862
000340 41 30 bf bc d6 98 15 3d cc f4 37 3d f3 b8 08 3d
       -0.023338439 0.03652271 0.04491119 0.033379506
000350 ad 4c a5 3b 1c 54 3b bd f3 06 9d 3c d0 71 ac bc
       0.005044541 -0.04573451 0.019168353 -0.021050364
000360 c7 f3 0b bd 10 2e d8 bc b1 d4 9f bc af b4 8e bd
       -0.03416803 -0.026389152 -0.019510599 -0.069680564
000370 2e e6 e6 ba 99 95 b5 3d 62 4c d8 3d dd 0c 3f 3d
       -0.0017616206 0.08866424 0.10561444 0.046643127
000380 ac a7 9a bc cb 68 ba 3c 72 ec 7f 3d 9c eb 61 ba
       -0.01887878 0.022755047 0.06248135 -0.00086181774
000390 6f fc 23 bd 26 16 2b bd 5b 4f a7 bc d0 bb eb bc
       -0.04003566 -0.04176917 -0.020423582 -0.02877608
0003a0 d5 25 18 bd f6 25 4e bd 9d 6a 85 3c f0 a4 d8 3c
       -0.037145454 -0.05032917 0.016286189 0.026445836
0003b0 ff 6f 48 3d b2 6b 98 3c f2 3e bc 3d c3 de d1 3a
       0.048934933 0.01860604 0.09191693 0.0016011823
0003c0 e7 58 b4 3c b8 2d 07 3d 10 84 82 bd d3 b1 8f bd
       0.022015048 0.033002585 -0.06372845 -0.07016339
0003d0 da 33 b8 bd a0 0a de bd 30 ad a7 bd ab 38 c7 bd
       -0.08994265 -0.1084187 -0.0818733 -0.097276054
0003e0 4c bc d1 bc 15 2c d0 bb aa 2c e4 3c 57 3c 20 3d
       -0.025602482 -0.0063529112 0.027853329 0.039120045
0003f0 ed 05 36 3d 37 70 4d 3d c3 8d d3 3b f4 c2 76 3c
       0.044439245 0.050155845 0.0064561083 0.015061129

fc1.bias f4 [256]
000000 04 2b a8 bc fd 03 10 3d d6 84 c6 3c 22 25 61 3d
       -0.020528324 0.035160054 0.024233263 0.054967053
000010 65 e5 5b 3d 6e f0 a8 3c 6f 23 39 3c ec 5f ef bc
       0.053685565 0.020622458 0.011299952 -0.029220544
000020 32 1d 65 3d c4 ef 9f bc 5e 85 96 3c 24 cc b7 3c
       0.055936046 -0.019523509 0.018374141 0.022436209
000030 5d 54 f8 3c 9f 1c f4 bc 11 59 cb 3c 8b f4 8f bc
       0.030313665 -0.029798804 0.024822744 -0.017572662
000040 8a 3a 27 3d bf 7a 95 bc d6 06 48 3c 87 07 39 3c
       0.04082731 -0.018247006 0.012208661 0.011293299
000050 bb a4 35 3d af ed 0b ba a5 8b cf 3c 9a a9 46 bc
       0.044346552 -0.0005337847 0.025335142 -0.012125397
000060 39 5a 7d bc 93 98 96 3d 71 59 18 bd eb 1a 19 3d
       -0.015463405 0.0735332 -0.037194673 0.037379187
000070 46 33 8f bc e9 55 37 bd dc 75 2b bc e1 49 e4 3a
       -0.017480504 -0.044759665 -0.010465112 0.0017417037
000080 dd 0a 15 bd 3c ba 39 bd 1d 1f 32 bd 8a c3 ac 3c
       -0.036387313 -0.045343623 -0.043486703 0.021089334
000090 9e 17 70 3d be e2 08 bc a5 ca 68 bc 81 92 84 3d
       0.058616273 -0.008354841 -0.0142084705 0.06473256
0000a0 fe 38 80 3d 2f c4 d7 3c 83 4a 77 bc 2c 1b 49 3d
       0.062608704 0.026338665 -0.015093449 0.04909818
0000b0 a7 a5 ea 3c 44 8d 00 3d 15 d6 60 3d 83 9c 0e 3c
       0.028643442 0.03138472 0.054891665 0.0087043075
0000c0 af 0e a2 3d 5f cd 34 3d 4e e1 3c bc 36 b9 64 3c
       0.07912957 0.04414117 -0.011528326 0.013960173
0000d0 cc 09 c1 bc 82 74 d3 bb 36 8e 96 3c e0 fa 63 3c
       -0.023564242 -0.006453098 0.018378358 0.013914794
0000e0 ef ae 23 3d 5c 39 b4 3d e4 94 f1 3c 48 eb 4b 3d
       0.03996175 0.08800003 0.029489942 0.04978493
0000f0 ba 06 ba 3c 8d 6c 10 bd cf 69 d1 bc 6f e5 7d 3d
       0.022708286 -0.035259772 -0.025563149 0.061986383
000100 c0 18 b8 3c 34 26 12 bd ee 75 08 3c 87 03 e6 3c
       0.02247274 -0.035680965 0.008328898 0.028077854
000110 3f d3 b5 bc 1d 62 1f 3d 80 1b 3f 3d 9b d6 0d 3c
       -0.022195457 0.038911927 0.046657085 0.008657123
000120 39 fc d7 3c 48 3f c3 3c 41 3f b1 3c a7 23 12 bd
       0.026365386 0.023833886 0.021636607 -0.035678532
000130 71 82 8d bc 7a 9d 97 3d 41 32 bd 3d bd 49 2c 3c
       -0.017274113 0.07403083 0.09238101 0.010515627
000140 85 bd f6 bc f6 b9 97 3d 2f e5 a1 3d ff 08 2e 3d
       -0.030119667 0.07408516 0.079050414 0.042489048
000150 5f e9 cf 3d 89 5f 80 3c 87 b7 6c 3c bb a9 1b 3d
       0.10151934 0.015670555 0.014448053 0.038003664
000160 0c fc f0 bc 4e c5 be 3d 2b cb 8e 3c 02 26 5d 3d
       -0.02941706 0.09314977 0.017430862 0.053991325
000170 a5 63 da 3d 31 ee 5b bb bb 81 19 3c 99 a2 da 3c
       0.10663537 -0.0033558721 0.009369309 0.02668886
000180 cd 08 ba 3c 91 57 1a bc 8e fd 3b 3c d9 78 f6 3c
       0.022709275 -0.0094202915 0.011474026 0.030086922
000190 24 f7 7b bd e2 b5 5c 3d c0 52 13 3d 1d 81 55 3d
       -0.06151499 0.053884394 0.03596759 0.052125085
0001a0 3a 09 1c bd b8 98 27 3c 0c e7 2c 3d ed cf 31 3c
       -0.038094737 0.010229282 0.04221253 0.010852796
0001b0 05 e5 44 3d bf 6f 87 3d 45 6a ad 3c dd 1a 66 3c
       0.048069973 0.06613111 0.021168837 0.014044491
0001c0 ee 5b 52 bc 5f d7 99 bb 37 6c 2b bc ce 92 b5 3c
       -0.012839301 -0.0046948637 -0.010462812 0.022164728
0001d0 af 6c 6b bc 62 d7 81 bb ca d6 1a bd 7f 1f cc 3c
       -0.014369174 -0.003962443 -0.037802495 0.024917362
0001e0 a0 48 4d 3d 42 58 47 3d e3 55 8e bc fe 94 0f 3d
       0.05011809 0.048668154 -0.017374938 0.0350542
0001f0 22 7f 12 bd 7f 44 11 3c 2a a1 2a 3d f6 fc 12 3d
       -0.035765775 0.008866428 0.041657604 0.035885774
000200 d5 6d 3d 3d 4a 98 fe 3b 24 34 4b 3d cd 79 ec 3c
       0.046247322 0.007769619 0.049610272 0.028866673
000210 e2 87 ba 3c 85 72 2d bd 84 64 9a bc 80 a0 06 3d
       0.022769872 -0.042345542 -0.018846758 0.03286791
000220 70 29 0c 3c 3e 82 1f bb aa 35 e1 3b 3d e5 4c 3d
       0.008554801 -0.0024339105 0.0068728523 0.050023306
000230 f2 b7 c1 3c 47 1d f1 3c 0a 47 b8 bc 8b 51 67 3c
       0.023647282 0.029432906 -0.022494812 0.014118562
000240 26 1e 1f 3d 46 18 ae bc 28 eb d6 3c 84 31 8b 3c
       0.03884711 -0.021251809 0.026235178 0.016991384
000250 47 17 4d 3d 41 dd 04 bc 7e d0 fa 3c 44 27 50 3d
       0.050071027 -0.008109392 0.030616995 0.050818697
000260 9a 2b da 3d 3e 83 cd bc 3b f7 9e 3c ac bc f6 3c
       0.106528476 -0.025086995 0.019404998 0.030119263
000270 f9 97 2f bd 0d fe b8 bc d3 0b ab bc 8d f4 50 3c
       -0.04286954 -0.022582078 -0.020879662 0.012753618
000280 0b 3f 90 bc 22 c9 0d 3c 2f 6e 7b bd 3c 7c 2c 3d
       -0.017608186 0.008653911 -0.061384376 0.042110667
000290 30 c8 b8 3c 92 a5 d0 bc 03 6f 4b 3d d1 ae 31 bc
       0.022556394 -0.025469575 0.049666416 -0.010844902
0002a0 cd fd 4f bc 5e 69 ff bb dc bf 27 bd ee 53 85 3d
       -0.012694788 -0.007794543 -0.040954456 0.06510149
0002b0 33 c5 ee 3c 59 b7 89 3c 75 94 57 bc 5d 56 a0 3d
       0.029146766 0.01681106 -0.0131579535 0.078289725
0002c0 e7 15 cc 3b 97 a9 d9 3a 98 cb 60 3d d4 71 e7 3c
       0.006228197 0.0016606328 0.054881662 0.02825252
0002d0 6e 10 d7 bc 32 99 63 3d 77 15 e4 3d e8 52 61 3d
       -0.026252951 0.05556602 0.111369066 0.055010706
0002e0 3b 17 35 bc 44 00 51 3c 69 9f b2 bc c0 a5 6f 3a
       -0.011052902 0.012756411 -0.021804528 0.0009141825
0002f0 d6 2c 6b ba f1 9f 0c bd 5f 27 bc bb ce ad b3 bc
       -0.00089712196 -0.03433222 -0.005741998 -0.021933462
000300 78 de 02 3d e7 6e e2 3c 4c 8e 53 3d 1b 96 f8 3c
       0.031950444 0.027640773 0.051649377 0.030345013
000310 78 67 f8 3a de 04 29 3d 36 5e 6c bc 81 26 21 3c
       0.0018951735 0.041264407 -0.0144267585 0.00983584
000320 dc ab 2d bd 2c 6f d3 bc b6 df 11 3d ee 42 08 3d
       -0.042400226 -0.025809847 0.035613738 0.033266954
000330 4a ad dd 3c cc 88 90 3a c2 46 93 3b 8a 69 e9 bc
       0.02706017 0.0011027097 0.004494519 -0.028492708
000340 f4 f9 cf bb 13 12 58 3a a8 2b dc 3c 6c 02 04 3d
       -0.0063469354 0.00082424394 0.026876286 0.032228872
000350 c0 01 30 bc 9a 3e 61 3d f9 95 a3 3c 72 60 49 3c
       -0.010742605 0.054991342 0.019968973 0.012291061
000360 bb 3d 89 3d d8 57 a2 3d 0b 9f 2b 3d 4d f1 b4 bc
       0.06701227 0.07926911 0.041899722 -0.022087717
000370 da ce 49 b8 5b c1 5c 3d 8d e5 84 bc 76 f5 53 bc
       -4.811478e-05 0.053895336 -0.01622274 -0.01293694
000380 9b 01 d2 b9 14 9a 2e bd c6 8f 90 3c f3 03 85 3d
       -0.00040055517 -0.04262741 0.017646682 0.06494894
000390 98 24 b5 3b 10 e4 ba 3c 12 c4 94 3d 7c da 31 3d
       0.005528044 0.022813827 0.0726396 0.043421254
0003a0 e9 0c 5d 3d db aa 97 bc cd ff 67 3d c3 65 32 3d
       0.05396739 -0.018514087 0.056640435 0.04355408
0003b0 13 ae 1d bd e9 ea b1 3c 6a 59 99 3c 54 1e 5e 3d
       -0.03849609 0.02171846 0.018719394 0.054228142
0003c0 81 17 a3 3d 4e 0b 29 bc 44 be ea ba d8 70 a8 3b
       0.079634674 -0.010317637 -0.0017909487 0.005140405
0003d0 99 df 55 3d 69 17 18 bd 21 29 db 3b 17 04 73 3d
       0.052215192 -0.0371317 0.0066882526 0.059330072
0003e0 36 0e 58 bc a8 67 06 3d d5 98 28 3d 68 89 eb bb
       -0.013186982 0.032813698 0.041161377 -0.007188011
0003f0 a9 52 95 3a 7c f8 94 3c 73 8a 44 bd 20 da 5b 3d
       0.0011392432 0.018184893 -0.047983598 0.053674817

fc2.weight f4 [128, 256]
000000 8b 07 9f bb 83 c5 0f 3c d4 66 15 bd f4 51 34 3c
       -0.004853194 0.008775118 -0.036475018 0.011005867
000010 18 17 fd 3a fc 2a da 3c 63 cd 80 bd d9 54 ae bc
       0.0019309251 0.026631825 -0.062891744 -0.021280693
000020 c6 15 b1 3d 90 04 6e bd a7 c4 39 bc 8f 37 b7 3c
       0.08646731 -0.05810982 -0.0113383895 0.02236536
000030 9c 04 87 bd c9 c1 9d 3d f6 7c 81 bd b9 3d be bc
       -0.06592676 0.07702977 -0.063226625 -0.023222791
000040 4f b9 21 bd e3 c5 5d 3d 20 6c cf bb 9a 6f 7b 3d
       -0.039483365 0.054143798 -0.006330028 0.06138573
000050 97 9f d0 3c b4 dc 16 3d 7a 03 cf 3d b5 dc 5f 3e
       0.025466723 0.036831573 0.10108085 0.21861537
000060 e9 93 3e bc 01 1d 2e 3c 53 ee c2 bd 0d db 01 3c
       -0.011631944 0.010627032 -0.09518113 0.007925761
000070 70 64 fa 3a 83 d7 e3 bc e8 3d 41 bd dd 03 67 bd
       0.0019103419 -0.027812725 -0.04717818 -0.05640017
000080 bb d1 9b 3d 7f bb 47 3d 4d 7c 3b be e7 dd 35 3c
       0.07608362 0.048762795 -0.18309136 0.011100269
000090 75 2d e3 3c 9c ea ae 3a ea 2d df 3c a6 2f 4b bd
       0.027731637 0.0013345066 0.027243573 -0.049605988
0000a0 bf 57 cb 3d da 69 22 3d 43 19 5e 3d 68 0b e3 3c
       0.099288456 0.03965173 0.05422331 0.0277154
0000b0 f1 84 06 bc 40 12 c8 3d d7 a9 9f 3c 5e 7c 7b 3c
       -0.008210407 0.09769106 0.019490166 0.015349476
0000c0 ea 96 76 3d 0c ac 96 bd 60 72 2f be 3b 24 40 bd
       0.060202517 -0.07357034 -0.17133474 -0.046909552
0000d0 c9 e6 86 bd 4d 37 49 3d f7 c3 29 bd ea 5c e9 3d
       -0.065869875 0.049125005 -0.041446652 0.11394675
0000e0 cc 80 4a 3d 81 a8 85 3d b2 5a 79 3c d7 f4 9a 3d
       0.049439237 0.0652628 0.015219377 0.07566231
0000f0 e2 cb 3e bc b5 e4 70 3d 4e a3 05 3d d2 ab 26 bd
       -0.011645289 0.058811862 0.032626443 -0.040691204
000100 eb 8f 10 3d 9b 56 32 3d 0b b9 70 3c 62 9d 55 3d
       0.0352935 0.043539625 0.014692555 0.052152045
000110 6f 40 83 bd cc 8a 87 3d 8a 7e 81 bd 0c dd 93 bd
       -0.06408774 0.0661827 -0.063229635 -0.07219896
000120 56 38 81 be e8 55 be 3d af 5c 34 bd e6 89 13 bc
       -0.25238293 0.09293729 -0.044033702 -0.0090050455
000130 af 72 88 bd 48 98 00 3b db 44 ef bc 21 60 4d 3d
       -0.06662499 0.0019622017 -0.029207638 0.050140504
000140 f1 65 ac 3c a9 8f 96 3d 31 aa cf bd d6 ed ab 3c
       0.021044703 0.0735162 -0.10139883 0.020987432
000150 87 29 ab 3d 83 77 39 bd 7c 89 b9 bc 85 19 65 3c
       0.0835753 -0.04527999 -0.022648565 0.013983135
000160 57 fa 84 3d 42 a6 a8 bd 91 1e 26 3d 1e b7 a4 bd
       0.06493061 -0.08234836 0.040556494 -0.08042739
000170 9c d3 a5 bc 0e 95 b3 bc 8b 43 ed bd 5d f8 18 bd
       -0.020242505 -0.02192166 -0.115851484 -0.037346233
000180 b8 2a 96 3d 80 f5 8a 3d dd f3 50 3d 5b a3 8e 3d
       0.07332367 0.06785107 0.051013816 0.06964751
000190 2b 2c 51 bc b9 e2 8e 3d d2 22 b4 bc 40 3c 7e 3d
       -0.012766878 0.06976838 -0.02198926 0.062069178
0001a0 f4 4c cb 3d ba 0f 95 3d 1f c7 99 3c d1 74 75 3d
       0.09926787 0.0727839 0.018771706 0.059925858
0001b0 13 1c 8d 3d a4 17 15 3c 70 6d 5e bc a2 08 37 3c
       0.0689012 0.009099875 -0.013575897 0.011171492
0001c0 a1 56 85 bc 85 62 c6 3d 1c ac ae 3b d2 b9 19 3d
       -0.01627666 0.0968676 0.0053305756 0.037530728
0001d0 d7 f9 88 bd 3d b7 22 3d ac d5 12 bc 84 99 22 be
       -0.06688278 0.03972553 -0.008962076 -0.15878874
0001e0 27 c9 0c 3c 71 3f 20 bd b6 15 89 3c f9 64 34 bc
       0.00859288 -0.039123002 0.016733985 -0.011010402
0001f0 b1 db 81 3b 8c 1f 42 3e df 0c 88 bc 81 88 65 3c
       0.003962957 0.18957347 -0.0166077 0.014009596
000200 a6 47 5e bd 16 3c 44 bc e6 ce 4e bd 4b a8 d1 bc
       -0.054267548 -0.011977216 -0.050490282 -0.025592944
000210 92 ca ac 3c 25 6f 99 3d 9e ec 85 bd 0b f3 bb 3d
       0.021092687 0.07491902 -0.06539272 0.09177216
000220 c7 59 72 be 39 2b bf 3c 29 c9 b7 bd ac 44 66 3d
       -0.2366706 0.02333604 -0.08973915 0.056217834
000230 52 c1 09 3c eb 75 45 3d ce 47 ab 3b 0f 6c 79 bd
       0.008407908 0.04820816 0.0052270656 -0.06089407
000240 67 b6 58 bd 15 2d ce 3d d6 dc 4e bd 55 dd 66 bc
       -0.052908327 0.100671925 -0.050503574 -0.014090856
000250 86 ef ce 3c f0 e0 b4 3d 53 8a eb bc ba bc 65 be
       0.025260698 0.08831966 -0.028752482 -0.22435275
000260 70 16 55 3d 3f bc a2 3c 37 d8 10 3d 01 53 22 3d
       0.05202335 0.019865153 0.03536245 0.03962994
000270 a5 b4 50 3d 68 8f 06 3d a7 df b2 3d c0 ea 83 3d
       0.050953526 0.032851607 0.087340645 0.064412594
000280 1e 38 5c bd 83 07 a1 bd bf dc 7a 3d a1 86 16 bd
       -0.053764455 -0.07862761 0.061245676 -0.036749486
000290 8a 81 91 3d 6a 91 11 be 06 24 cc 3c 3d 57 be 3c
       0.07104786 -0.14215627 0.024919521 0.023234958
0002a0 27 b7 58 3d a4 02 2a bd 55 99 9d bc de 32 50 3c
       0.052909043 -0.041506425 -0.019238153 0.01270744
0002b0 3d f9 6a bd d7 15 6b bc 16 62 03 be 2b 25 11 3c
       -0.0573666 -0.014348469 -0.12830386 0.008858959
0002c0 9b 4d 17 3a 15 67 92 3d b7 40 12 bd da a4 77 bd
       0.0005771757 0.071485676 -0.035706248 -0.06045995
0002d0 3c 6d 56 3d 7b 3b 3b bd 99 80 99 3d b2 9d 02 3d
       0.052350268 -0.045711022 0.07495231 0.03188867
0002e0 d9 2f dd bb 6f a4 65 3d a0 97 8e 3d 65 a5 a1 3d
       -0.0067500887 0.05606502 0.06962514 0.07892875
0002f0 f0 bb 79 bd 03 0f ba 3d 90 7d e0 bd f9 7c 02 be
       -0.060970247 0.090848945 -0.10961449 -0.12742986
000300 72 f3 6c 3d 77 44 9d 3b c1 4f 39 3d 3b 41 9e 3d
       0.057849355 0.0047994214 0.045242075 0.077272855
000310 34 b1 a3 3d 82 e3 22 3d 44 dd cb 3d a1 ad 8e 3d
       0.07992783 0.03976775 0.099543124 0.06966711
000320 5a 99 32 be b2 eb 36 bc 8e 6a 2c bd 21 4c fe 3a
       -0.17441311 -0.011164593 -0.042093806 0.001940135
000330 d4 45 e9 bd 21 92 4f 3c 96 f1 84 3d e9 64 df 3d
       -0.11390272 0.012669117 0.06491391 0.10907919
000340 de b2 cf 3b dc 2c 76 b8 c6 c1 39 bd 64 ba d7 bc
       0.0063384613 -5.869275e-05 -0.045350812 -0.026333995
000350 8e 1d 7d 3d d1 34 35 3d 13 83 5d bd 4a 09 1f 3d
       0.061795764 0.044239823 -0.05408008 0.038827218
000360 a8 c9 c4 3c bd b9 ee bc d5 a8 1a bd 28 57 25 3d
       0.024021938 -0.029141301 -0.037758667 0.04036632
000370 cf 9c ba 3d 30 fe 86 3c 2c 8c f1 bc 29 08 16 3d
       0.0911194 0.016478628 -0.029485784 0.036628876
000380 13 25 dc b9 14 e9 13 be f7 6f d2 bd aa 50 65 3d
       -0.00041989292 -0.14444381 -0.10275262 0.05598513
000390 d1 dc 7b bd b7 32 f8 3d 71 52 48 bc cb d2 ec 3c
       -0.061489884 0.12119048 -0.012226687 0.028909108
0003a0 fe 33 4b bb 4f c5 0c bd 4f 07 48 3d 5f a3 f7 bb
       -0.0031006332 -0.034367856 0.048835095 -0.007557317
0003b0 6a 36 a5 3d 4e 19 cd bb a0 a4 8a 3d 1c 44 b3 bc
       0.08067019 -0.00625912 0.06769681 -0.021883063
0003c0 b1 67 a9 bb 27 fd 3c 3d 4a 60 c3 3a f6 d9 b1 3d
       -0.0051698317 0.046139862 0.0014906016 0.08684151
0003d0 c4 59 1f be 1f 74 2b bd 52 9e a7 3d 49 31 e7 bd
       -0.15561587 -0.04185879 0.08184494 -0.11288697
0003e0 f8 b2 7d 3c 26 18 96 bc 2c 98 a5 3c 5a 1e 02 be
       0.015484564 -0.018322062 0.020214163 -0.1270689
0003f0 c0 64 96 3d 36 f6 12 bd 2f a5 26 3d 8a b6 dd bc
       0.07343435 -0.035879336 0.040684875 -0.02706458

fc2.bias f4 [128]
000000 4a ce 68 3d 62 9b 0a 3e f0 fa 76 bd 4f f8 68 3d
       0.056837358 0.13535836 -0.060297906 0.05687743
000010 f5 87 f6 bc 44 93 3b 3d a9 68 16 3d 27 ba 7e bc
       -0.030094126 0.04579474 0.036720905 -0.015547312
000020 5e 2d 89 bd 55 85 41 bc ac 07 f1 3c 85 34 42 bd
       -0.06698106 -0.011811574 0.029422604 -0.047413368
000030 89 6f 59 bd af 75 93 3d aa 5a 2b 3d 1f 0f 91 bc
       -0.053084884 0.07200181 0.04183451 -0.017707406
000040 a7 c7 57 bc fc ec 00 3d 3e c6 88 3c f5 ba 80 bd
       -0.013170159 0.031476006 0.016696092 -0.06285659
000050 83 cc d0 3d 01 89 f0 3c fb 7e 8b 3d e8 7d 8d 3d
       0.101952575 0.029362204 0.06811329 0.0690878
000060 fa 94 26 3d 6d 86 79 3d 19 14 85 bd 87 5f 90 3d
       0.04066942 0.060919214 -0.06497974 0.070494704
000070 70 49 5b 3d 42 7a 84 3d 78 e3 88 3d 21 be b1 3d
       0.053536832 0.06468631 0.06684011 0.08678842
000080 90 0d f1 3a 15 ea 70 3d b7 47 8c 3d 69 fc 14 bd
       0.0018390883 0.058816988 0.06849616 -0.03637353
000090 0c b6 8b bd e6 ba 96 3d ec 19 89 bd 77 6b 54 bd
       -0.06821832 0.07359867 -0.06694397 -0.0518603
0000a0 55 de b6 3d 97 f2 84 bd 84 9d 98 3d 70 16 2a 3b
       0.08929125 -0.06491583 0.07451919 0.0025953315
0000b0 0c 31 73 3d c0 2e f4 ba 0e d3 32 bd c0 76 30 b9
       0.059372947 -0.0018629655 -0.04365831 -0.00016828906
0000c0 91 2c 34 3d 1e 27 48 3c cc 93 40 bd da de b5 3d
       0.043987814 0.0122163575 -0.04701595 0.08880396
0000d0 8e 7e 21 3d 27 f7 da 3d 60 9f 78 3d 99 51 97 3c
       0.039427333 0.10691672 0.060698867 0.018471526
0000e0 8b 96 af 3d 11 62 ae ba 75 97 09 bd f9 85 d4 3d
       0.08573636 -0.0013304373 -0.033591706 0.10377116
0000f0 0d c9 74 3c 29 a4 9a 3b b5 24 25 3d 60 11 08 3d
       0.014940512 0.0047192764 0.04031821 0.033219695
000100 71 27 41 bd da a9 96 3d d3 b9 da 3c 18 f4 df 3d
       -0.047156755 0.07356615 0.026699936 0.10935229
000110 ff 04 8b 3d 14 75 5e 3d 6e 51 b9 bc 6f 19 a2 bc
       0.06788062 0.054310873 -0.022621837 -0.019787518
000120 12 67 91 3d 9e 65 0c bd 5f 03 3d 3d d2 8d 4b bc
       0.07099737 -0.034276597 0.046145793 -0.012423949
000130 2e 18 9a 3c 61 49 42 3d cf 7c 8c 3d 4f c8 7b bd
       0.018810358 0.04743326 0.06859743 -0.061470326
000140 55 0b 50 3d 17 ac 0a bd 3a ea be bd 70 53 07 3d
       0.050792057 -0.033855524 -0.09322019 0.033038557
000150 69 0a 66 bd 36 82 d0 3d 6e 39 43 3d 35 62 b5 bd
       -0.05616227 0.10181086 0.04766219 -0.08856622
000160 59 19 c8 3d ae 4d 78 3d 92 16 87 3d f4 77 a0 3c
       0.0977046 0.060620956 0.06596102 0.019588448
000170 89 52 67 3d 47 66 82 bb 4b 46 b6 3c 3c e5 56 3d
       0.056475196 -0.0039794776 0.022250315 0.05246471
000180 cf b8 ba 3d 2e 2d a2 3c ff d0 c7 3d 24 56 97 bc
       0.09117281 0.019796934 0.0975666 -0.018473692
000190 ca 96 f8 3c 2e 72 88 3d e0 d8 33 bd 4e a2 69 3d
       0.03034534 0.06662403 -0.043908 0.05703955
0001a0 62 46 b7 3d 3b 9a f3 bc 87 79 5b 3c 7a bf 8f 3d
       0.08948971 -0.029736629 0.013395674 0.07018943
0001b0 0f 73 d5 3d 63 f0 68 bd b1 ee 86 bd ca 00 19 bc
       0.10422336 -0.056869876 -0.065884955 -0.009338567
0001c0 e0 68 80 ba 90 86 a3 bc b4 60 0d bc b9 1e 6d 3d
       -0.000979688 -0.019961625 -0.008629013 0.057890628
0001d0 f1 a4 1e bd 24 49 aa 3b 5a e0 19 bc aa 1b 38 3d
       -0.03873152 0.0051967073 -0.0093918685 0.044948258
0001e0 8b 86 03 bc b5 d5 81 3d e7 6d bb bc 22 68 b4 bd
       -0.008027683 0.063395895 -0.022879554 -0.08808924
0001f0 ea 47 17 3d 57 98 ba bb de ec c5 ba fe 38 ac 3d
       0.036933817 -0.00569443 -0.0015100499 0.08409308

fc3.weight f4 [64, 128]
000000 25 15 04 be cd ba b4 bd 94 ce 2a 3d d8 11 17 3d
       -0.12898691 -0.08824692 0.041700915 0.03688225
000010 b9 0d e6 bd ac 76 84 ba 4a 7a ec bc e1 62 bd 3d
       -0.11233086 -0.0010106168 -0.028866906 0.09247375
000020 05 84 8e bd a1 88 42 3d 8f 12 4d bd a8 9d 03 bb
       -0.069587745 0.04749358 -0.050066527 -0.0020082984
000030 43 57 37 bd e4 b0 0a 3e ed e3 80 3d a1 b9 65 3c
       -0.044760954 0.13544041 0.062934734 0.014021308
000040 14 44 60 bc 89 88 c4 3d 56 62 86 3d e3 2b 56 bd
       -0.013688106 0.095963545 0.06561725 -0.052287947
000050 ea f7 1e bd 7a d9 33 bd e7 22 8d 3c c7 a2 4b 3d
       -0.038810648 -0.043908574 0.017228557 0.049715783
000060 a4 ae a4 3c e0 ca e2 3d df 83 88 3c 0d a6 5b 3d
       0.020102806 0.110738516 0.016664444 0.053625155
000070 92 bf 0c bd 94 7e 6c bc 08 78 40 3c 35 66 c4 3b
       -0.034362383 -0.014434475 0.011747368 0.0059936293
000080 0d 5e 68 bd 66 d3 d0 bd e3 66 91 3d c6 a5 a8 3d
       -0.05673032 -0.10196571 0.07099702 0.08234744
000090 4d 7f 9a bd 19 ec 53 3d 5b 8b 2c bd 49 57 b6 bd
       -0.07543812 0.051738832 -0.042125087 -0.08903367
0000a0 40 a8 07 be 24 ff 43 bd a8 41 a4 3d a4 57 4a bd
       -0.13247776 -0.047850743 0.080203354 -0.049399987
0000b0 5f 46 30 bd 25 a6 af 3d 32 e9 12 3d 09 db ae 3d
       -0.04303586 0.085766114 0.035866924 0.085378714
0000c0 4c 6c 42 3d 3d 4b 70 3d 3a 12 ae 3c 3c 63 0c bd
       0.04746656 0.058665503 0.021248925 -0.034274325
0000d0 dd 58 c1 bd 90 21 5f 3d e7 11 02 3e 4a 8e 58 3d
       -0.094407775 0.054475367 0.12702142 0.052870072
0000e0 0c f3 22 bd 9b 5a 38 3d 3d ed 21 be 16 dc 93 3d
       -0.03978257 0.045008283 -0.15813155 0.072197124
0000f0 86 bc d0 3d 56 73 74 bc 92 57 d2 bc ba fa 99 3d
       0.10192208 -0.014920076 -0.025676522 0.075185254
000100 09 bb 15 be 9d 55 8a bd 10 e3 e1 bc bd 44 b1 bd
       -0.1462213 -0.06754611 -0.027574092 -0.08655689
000110 8c 62 4c bd 85 ec 81 3d ae ca 57 3d a2 e1 b9 3d
       -0.04989867 0.06343941 0.052683525 0.09076239
000120 0e c4 c5 3d bd a7 6f 3d f0 a3 b2 3c a3 87 a0 3c
       0.09656535 0.058509577 0.021806687 0.019595927
000130 30 b3 8f bd 36 18 ab bc f6 95 50 3d 55 aa 58 3d
       -0.07016599 -0.020885568 0.050924264 0.052896816
000140 b9 9a 0e be 90 bf 9d 3c 44 07 a7 bd 25 45 f8 bc
       -0.1392621 0.019256383 -0.08155683 -0.030306408
000150 af 8e 0b 3d ac 46 81 bd 92 18 e0 bc 9d 5e fb bc
       0.03407162 -0.06312308 -0.027355466 -0.030684764
000160 8b 1a 51 3d f1 ec 8f 3d 24 b9 48 3e fc a6 ee 3d
       0.051050704 0.07027615 0.19601876 0.116529435
000170 51 43 b9 bd 24 b5 c4 bc 00 96 a1 bd 1c 88 c2 3c
       -0.09046043 -0.024012156 -0.07889938 0.023746543
000180 16 cb 8c 3d bf 77 e2 bd 10 1a bc 3d 43 1d 7f bd
       0.06874673 -0.11057996 0.091846585 -0.062283766
000190 c8 ed ce bd 02 d0 07 3e 69 cc 87 3c f8 bc ce b8
       -0.10103947 0.13262942 0.016576963 -9.8580436e-05
0001a0 bc cf 11 be e9 a6 ea 3d 1d b8 80 bd dc a0 d5 bc
       -0.142394 0.11457617 -0.06285117 -0.02607768
0001b0 81 3f 04 3e e5 32 88 bd 10 ae d7 bd 6f ff 38 bd
       0.1291485 -0.06650332 -0.10531247 -0.045165475
0001c0 7c a5 57 3d 24 dd 55 3e a7 d0 96 3c 3a 68 41 3d
       0.052648053 0.2088514 0.01841004 0.04721854
0001d0 e7 02 11 3d 72 ca a6 3d 7f 36 30 bd f2 21 cb 3a
       0.03540316 0.08144082 -0.04302072 0.0015497787
0001e0 31 3b 8e 3c 5f 5f 08 bd e9 b3 f8 bd b3 e7 75 bd
       0.017362209 -0.033294078 -0.1214369 -0.06003542
0001f0 82 1a bf 3d 48 73 ab 3d c2 71 bb bd ad fa 78 3d
       0.09331228 0.083715975 -0.09152557 0.060785938
000200 99 09 87 3d e3 9e 8e bd 23 32 c7 bc 79 2e 8b 3d
       0.065936275 -0.06963899 -0.0243159 0.06795973
000210 4c 9c 81 bd 1c 2d 37 bd 20 f5 30 3b 38 ab 97 bd
       -0.063286394 -0.044720754 0.0027001575 -0.07405704
000220 af a2 9b bd 0e 06 be bd 55 c0 e0 3c fc 98 53 bd
       -0.07599389 -0.092784986 0.027435461 -0.05165957
000230 9e a3 6d bd 90 bd 5c 3d 58 6e fd 3c 50 d9 c8 3c
       -0.058017366 0.05389172 0.030936405 0.024517685
000240 4b d9 d0 bd 40 b9 48 bc 25 16 67 3d 50 b1 a3 3d
       -0.10197695 -0.012251198 0.056417603 0.07992804
000250 5c 49 09 3d 6d 86 22 3d 79 50 ed bc ec 06 93 bd
       0.033517227 0.03967898 -0.028969036 -0.071790546
000260 cc 1b 46 bb 42 6e 88 3d 4d ac df bc c9 33 4b 3d
       -0.003022897 0.06661655 -0.02730384 0.049609933
000270 50 f9 9a 3b 3e bd 64 bd 8a d7 94 ba df 20 21 bc
       0.0047294274 -0.055844538 -0.001135574 -0.009834497
000280 4c 0b 0c bd 99 c9 ed 3c d6 78 09 3d 7b b7 b3 bd
       -0.03419046 0.029026793 0.033562504 -0.087752305
000290 8d 3c de 3c 18 89 d6 3b 7f 56 31 bd e8 ca 01 3c
       0.027128482 0.0065471046 -0.04329538 0.007921912
0002a0 db d3 15 bd 80 4e 5d bc 6a 35 68 3c 93 8c a4 bd
       -0.036578994 -0.013507485 0.014172891 -0.08034625
0002b0 9b 68 52 3c b3 f0 87 bd ca 31 8a bd 3c 35 3f 3d
       0.012842323 -0.066377066 -0.06747778 0.046681628
0002c0 5f 5d 95 bc 4f 18 63 bd 15 75 9e bd cf c1 43 bd
       -0.018233 -0.055443104 -0.077371754 -0.047792252
0002d0 d1 c3 ac bd 52 cf 35 3d b6 92 e7 bb e2 9e 88 bd
       -0.084357865 0.04438717 -0.00706705 -0.066709295
0002e0 21 d6 1e 3a cb 6e 04 bc 0b 54 b4 3c 86 0c b7 3c
       0.00060591294 -0.008083056 0.022012731 0.022344839
0002f0 ba 8c 2a 3d ab db b4 bb ed 03 64 3d a9 92 83 3d
       0.041638114 -0.0055193505 0.055667806 0.064244576
000300 00 74 a7 bd 55 7c a6 bd 82 25 02 bd 37 2a 3e bd
       -0.08176422 -0.08129183 -0.03177405 -0.046426978
000310 fb 3b 28 3d b7 af 54 bd a7 ee 1b bb f1 03 f3 bc
       0.041072827 -0.051925387 -0.002379337 -0.029664965
000320 86 42 d3 bc b4 31 51 3d a8 ed 8b bb 15 18 63 3d
       -0.025788557 0.05107279 -0.004270274 0.05544289
000330 4d 3b 7f 3d be 6f 33 3d cc 2a 85 bd a9 55 98 3d
       0.062312413 0.043807738 -0.065023035 0.074382134
000340 c8 23 b3 3c c5 fd 5a bd 01 06 d4 bd 56 ac 3c 3c
       0.021867648 -0.05346467 -0.10352708 0.011515697
000350 9b 28 1d 3d 1f b8 af bd a4 d6 a1 bd c1 c2 a2 bc
       0.038368803 -0.0858004 -0.079022676 -0.019868257
000360 69 d2 c0 bd 37 79 e6 3b f0 c7 d2 bd 9a 93 90 bb
       -0.094151326 0.007033493 -0.10292041 -0.0044121267
000370 f1 1e 0c bd f5 bb 40 bc 6a 4e 06 3d 69 c6 86 bd
       -0.034209196 -0.011763562 0.032789625 -0.065808125
000380 e2 d3 e0 bc 4e 3f 0b bc 65 8c d5 bd fc f1 8d 3c
       -0.027444784 -0.00849898 -0.10427169 0.017327301
000390 12 78 b8 bc 2e 8f e5 3c 27 16 9d bd 92 92 41 bd
       -0.022518191 0.028022375 -0.07670241 -0.04725892
0003a0 29 7f 5f bb c1 b3 b5 3b 03 4c af bd b5 1b 87 bd
       -0.0034102893 0.00554511 -0.0855942 -0.065970816
0003b0 2b 74 b9 bc 3c 55 27 3d 29 fc 7d 3c 16 33 69 bb
       -0.022638401 0.04085277 0.015502014 -0.0035583428
0003c0 0c b4 c2 3c e2 76 a7 3d 9f 7b b0 3d 2c 72 69 3d
       0.023767494 0.08176972 0.08617329 0.05699365
0003d0 79 7f 51 bd 88 be 9f bd 04 f8 b0 bd 61 8b 57 bd
       -0.051146958 -0.07800013 -0.08641055 -0.052623156
0003e0 fb 89 e0 bc 8f ff 14 3d d3 68 52 bd ed 4d 5b bc
       -0.027409544 0.036376532 -0.0513695 -0.013385278
0003f0 63 91 94 bd 17 81 d2 bd d7 32 db bc f9 70 81 bd
       -0.07254293 -0.10278528 -0.02675764 -0.06320376

fc3.bias f4 [64]
000000 c7 72 08 3d 7f 4c c0 bc 9d be 90 3d 92 06 ac 3c
       0.033312585 -0.023473976 0.070676066 0.020999227
000010 69 78 ae bd 92 54 0b 3e 16 22 56 3d 51 58 35 bd
       -0.0851906 0.1360648 0.0522786 -0.04427368
000020 28 f4 a8 3d 06 d1 b9 bd ee 4f 5c bd ab ce a9 3d
       0.08249694 -0.09073071 -0.053787164 0.08291372
000030 28 69 b4 ba b8 6c 54 3c 6f fa e9 3d 72 6c 91 3d
       -0.0013764249 0.012965374 0.114247195 0.071007624
000040 1f 34 81 bb c5 0d 5c 3c f4 84 90 ba c3 45 9b 3b
       -0.003942981 0.013431017 -0.0011025951 0.004738541
000050 7f 80 77 bc bc d7 80 3d 23 f1 6f bd 3c db 19 3d
       -0.015106319 0.06291148 -0.058579575 0.037562594
000060 32 f7 b3 3c d7 9b 89 3d ea 49 0e 3e 25 85 a1 bd
       0.021968458 0.06719177 0.13895383 -0.078867234
000070 42 f1 b0 bc af 20 c5 3c 4b 19 38 3d 82 df a5 bd
       -0.021599416 0.024063436 0.044945996 -0.08099271
000080 e9 c1 db 3c 12 16 2f bd 4e 48 6e bd f6 3b cb 3d
       0.026825862 -0.042745657 -0.058174424 0.09923546
000090 a1 31 bc 3d d1 4d 44 3c 5b e6 87 bb 2c cc 45 bc
       0.091891535 0.0119814435 -0.0041473336 -0.012072604
0000a0 80 34 da 3d 24 8d 7a 3d e1 97 92 3d 07 69 f8 bc
       0.10654545 0.06116976 0.07157875 -0.030323518
0000b0 ad d0 57 3d 1a 3b 9a 3c ea 4a 83 3d 38 de 5c bd
       0.052689243 0.01882701 0.06410773 -0.05392286
0000c0 f4 c8 01 3e 66 e1 04 3b ec 88 cc 3d d5 dd 65 bd
       0.12674314 0.002027595 0.09987053 -0.05611976
0000d0 e4 c7 f1 3b 4a f6 cd bd ac 91 1c bd 95 8c 21 3d
       0.007378565 -0.100567415 -0.03822486 0.03944071
0000e0 00 04 07 3e d0 9b 02 bd 31 25 b0 bc 66 e9 14 3d
       0.1318512 -0.031886876 -0.02150211 0.0363554
0000f0 e5 8b 17 3e bc 82 6e bd de 70 8c 3d f2 c5 b3 bd
       0.1479946 -0.058230147 0.06857465 -0.087779894

fc4.weight f4 [10, 64]
000000 3f 1c 0f be 83 9a 17 3d 44 51 1f 3c 9e 4d f3 3d
       -0.13975619 0.03701259 0.009723965 0.11880039
000010 0c 8f 6f 3d 90 28 94 3d dd 8c 25 be 04 49 a2 bd
       0.05848603 0.07234299 -0.16167016 -0.07924083
000020 cd e7 c3 bd ad e1 35 bd 1e 18 97 bd ba 8a 35 3d
       -0.09565697 -0.044404674 -0.07377647 0.044321753
000030 ec 7a 25 3e b4 8e bd bd f0 15 3d be 26 4b e4 3d
       0.16160172 -0.09255734 -0.184654 0.11147146
000040 15 97 fc bb d7 e4 00 bd 9f f9 fc 3b 68 4b 14 3e
       -0.00770844 -0.03146824 0.007720187 0.1448189
000050 70 5e df ba 9b 90 d1 3d 55 ed dc bd 04 8e c9 3c
       -0.0017041694 0.102326594 -0.10787455 0.024603851
000060 89 ee 3a be 3b c4 27 be 29 0f b1 3a fe b2 98 3d
       -0.18255056 -0.1638345 0.0013508546 0.07456015
000070 a0 94 09 bd e5 1d 43 be c9 ea c4 bd 9c cf 17 3d
       -0.033589005 -0.19054373 -0.09615094 0.037063226
000080 e9 48 21 3e 00 dc a6 3c 3f d9 0b be f1 b1 14 bc
       0.1575047 0.020368576 -0.13657092 -0.009075628
000090 ad 92 04 3e 0c 29 52 be a9 11 4a 3d 2b 5c c0 3d
       0.12946577 -0.2052347 0.04933325 0.0939258
0000a0 5a 27 01 3e 46 02 01 be 35 21 13 3d 8c 32 8c 3d
       0.12612668 -0.12598523 0.03592034 0.068455786
0000b0 59 b4 31 be 1e 79 7b 3d b9 f4 f5 3d 92 2b 07 3d
       -0.17353953 0.061394803 0.12009568 0.033000536
0000c0 6d 60 77 be 1e 64 bc bd de 63 11 be c6 75 b9 bc
       -0.24157877 -0.09198783 -0.14198253 -0.022639167
0000d0 30 45 8e 3d 00 17 22 3d 31 e2 b5 bc 6e 36 44 be
       0.0694679 0.039572716 -0.022202583 -0.19161388
0000e0 16 1c 0d bd 25 20 c7 3d 2b 63 89 bc 63 39 3c bd
       -0.034450613 0.09722928 -0.01677092 -0.045953166
0000f0 b4 93 46 be c5 f8 a5 3d 9e 85 19 3e 84 56 25 bb
       -0.19392282 0.0810409 0.14992377 -0.002522857
000100 d6 21 13 3e cc f6 36 bd 38 b3 20 be 05 a1 ed 3d
       0.14368376 -0.044668958 -0.15693367 0.11602978
000110 3c 1c 86 bd ef 0d 7e bc 79 65 d8 3d b7 20 e4 bd
       -0.06548354 -0.015506252 0.105662294 -0.11139052
000120 99 95 ce bd 02 dc cd 3d 5e de 3f be 73 da 59 bd
       -0.10087127 0.10051729 -0.1873717 -0.053186845
000130 06 84 fe bc e2 80 b1 bd e1 58 7e 3c 06 d5 9b bd
       -0.031068813 -0.086671606 0.01552412 -0.0760899
000140 44 0a b1 bc 92 21 91 bd 27 7d 1a 3d 56 c4 5a bc
       -0.02161134 -0.07086481 0.03771701 -0.013352474
000150 ce 99 90 bd bc 76 47 be 85 21 04 be c3 88 bf 3d
       -0.07060586 -0.19478887 -0.12903412 0.09352257
000160 08 bf de 3d 1d c7 9d 3d c2 2e 19 be 23 15 3d be
       0.1087628 0.077039935 -0.14959243 -0.18465094
000170 ba ee 24 3e f9 0b 00 3d 85 ee dc 3d 1d 5d 38 bd
       0.16106692 0.031261418 0.107876815 -0.045010675
000180 91 6c 1e 3e b9 3e 07 bb b9 de 10 bd eb a1 20 3e
       0.15471102 -0.002063675 -0.035368655 0.15686767
000190 83 ce 70 bd 3d 1f dc 3c e1 65 32 3d a1 80 18 be
       -0.058790695 0.026870364 0.04355419 -0.14892818
0001a0 76 1f 1f 3e f3 48 52 3d e0 c2 02 3e 11 e3 1c 3c
       0.15539345 0.0513391 0.12769651 0.009575621
0001b0 1d 84 26 bd a7 c3 1b 3e a7 20 80 3d 0b 06 c0 3c
       -0.040653337 0.15211354 0.06256228 0.023440382
0001c0 1b 71 00 3e 9f ca c0 3d 62 1e 7b bd 7f bc 4e 3c
       0.12543146 0.09413647 -0.061308272 0.012618183
0001d0 94 ef 06 3e be 74 b6 bd 0a d4 0c 3e ce 58 f2 3d
       0.1317733 -0.089089856 0.13752761 0.118333444
0001e0 f8 49 27 be 7c 6a 06 be 83 04 98 bd 36 98 4d be
       -0.1633681 -0.13126558 -0.074227355 -0.20077595
0001f0 e2 8b 92 3d 66 79 4a be bb 3d 98 3b 28 31 7a bd
       0.07155587 -0.19772872 0.0046460307 -0.061082035
000200 55 2e 10 3d 61 85 2d bd 9a 2c 31 3e e6 69 23 3d
       0.035200436 -0.04236353 0.1730217 0.039895914
000210 70 e1 67 bc d9 c3 4e be ce 93 fe 3d 3c 94 9b 3b
       -0.01415287 -0.20191897 0.12430535 0.0047478955
000220 af b7 d1 bd b3 3e b2 bd 31 6a b2 bd f9 9a 37 3c
       -0.10240113 -0.08703365 -0.08711661 0.011206382
000230 33 92 96 ba e8 79 27 3e 11 5a 2b 3d 57 e8 6a 3d
       -0.0011487663 0.16355097 0.04183394 0.057350483
000240 88 fd b4 3b 0d f6 cc 3d 54 30 fc bd 0c 62 1e be
       0.0055233873 0.10007868 -0.12313905 -0.1546709
000250 71 16 20 3d 9a 81 de 3d e9 49 f6 bd d2 01 01 3e
       0.0390839 0.10864563 -0.12025816 0.1259835
000260 dd bd eb bd b1 3a 33 be 5d f7 d9 3d e7 90 98 3d
       -0.11510823 -0.17502858 0.10642884 0.07449513
000270 bc 2c b0 bb de c3 f0 3d d6 db 20 be bb c6 3d 3d
       -0.0053764265 0.11756109 -0.15708861 0.046332102
000280 26 49 4f bd 09 d7 46 bd 3f 07 14 bd 76 c0 40 3e
       -0.05060687 -0.048544917 -0.036139723 0.18823418
000290 c2 b7 c9 bd ac 33 d0 bd 86 d1 09 be 73 dc 16 be
       -0.09849502 -0.10166106 -0.13458833 -0.14732532
0002a0 94 b0 80 bd dc cc c9 3c a3 1c 1e be 3c 27 66 bd
       -0.062836796 0.024633817 -0.15440612 -0.05618976
0002b0 41 55 a4 bd cc f7 9d 3b 17 ac 7d bd a5 f1 02 3e
       -0.080240734 0.0048207995 -0.061931696 0.12787493
0002c0 e3 e0 31 be 25 18 e2 3d 51 ee 6f bc 9a 21 03 3c
       -0.17370944 0.110397615 -0.014644221 0.008003617
0002d0 2c 7c 02 3d d7 7b 1d bd c1 bc 56 bd 06 bc 32 3e
       0.0318567 -0.03844818 -0.052426104 0.17454538
0002e0 ce 7f e7 bd 75 63 97 bc 6b 69 26 be 6e 1b 18 be
       -0.11303674 -0.018480042 -0.16251151 -0.14854214
0002f0 b0 ec bf 3d 87 69 f3 3d 8b a5 be bd f3 b5 a8 3d
       0.093713164 0.11885362 -0.093089186 0.08237829
000300 94 38 9d bd aa 5b 7b bd 0f 2c 0a bd 0c 77 36 3e
       -0.07676807 -0.061366715 -0.033733424 0.1781885
000310 58 82 8f bd 08 22 8b 3d c3 61 f6 3d 8a 2e e3 3d
       -0.07007283 0.067936 0.12030365 0.11092861
000320 d5 de 29 3e 48 63 b7 3d 0e 28 01 bd 77 de 07 3e
       0.1658891 0.08954483 -0.03153234 0.13268457
000330 a1 06 15 3c 06 2e ef 3b 3a b7 21 bb 59 9a cf 3d
       0.009095819 0.0072991876 -0.0024675862 0.10136861
000340 10 24 9e 3d 67 7c ee 3d 34 77 95 3d 6a fe 0a be
       0.07721722 0.116448216 0.07298127 -0.13573614
000350 72 b6 8a bd ae 96 99 bd a3 f5 d4 bd 09 57 d6 bd
       -0.0677308 -0.07499443 -0.10398414 -0.104658194
000360 14 df 2a 3e ba 5b 4b be 1a c6 c1 bd 88 6f 03 3e
       0.1668666 -0.1985921 -0.09461613 0.12835515
000370 2f 1a 20 be 97 78 b9 bd 8c 55 21 3e ed 07 f9 3c
       -0.15634988 -0.09056204 0.1575529 0.030399287
000380 51 a5 4a 3d 68 36 ae 3d 9c 01 8e bd 8a 76 1c be
       0.049474064 0.08506471 -0.06933901 -0.15279594
000390 c0 62 06 bd 36 6b 35 bc 5a 81 f9 3c 4c 3d 0c be
       -0.03280902 -0.011072924 0.030457187 -0.13695258
0003a0 d8 02 6c bc 58 9a a6 bd f9 9e 0b bc a7 bb fd bd
       -0.014404975 -0.081349075 -0.008521789 -0.123893075
0003b0 3a 97 2c bd 9b f9 20 3d 17 2e 56 be fc 45 ca bd
       -0.04213641 0.039300542 -0.2091602 -0.0987663
0003c0 92 2b a3 bd f5 67 38 bc d5 88 35 bc df f8 01 be
       -0.07967295 -0.011255254 -0.011079987 -0.12692593
0003d0 9a a7 09 3d ed c8 bc 3d 5a 34 77 3d e1 52 1c be
       0.033607103 0.09218011 0.06035266 -0.15265991
0003e0 f4 dd 2b be a6 43 ac 3d c7 a4 9a bd bb bd 34 3c
       -0.16783887 0.084113404 -0.0755096 0.011031563
0003f0 9e 95 58 bd 13 20 d2 3c 86 a9 1b bd 9c b7 43 3d
       -0.05287706 0.02565006 -0.038003467 0.047782525

fc4.bias f4 [10]
000000 b2 86 f3 3c 10 7d b4 bd de ba 82 bd f0 05 a2 3b
       0.029727314 -0.08812916 -0.06383298 0.0049445555
000010 0e 3e 66 bd 47 5c f5 3d 9b e3 f3 3d 8d 13 ed 3d
       -0.056211524 0.11980491 0.11908647 0.11575995
000020 09 d7 d7 3c 9a 99 de bd
       0.026347654 -0.10869141
