Project/models/trained_model.pt (torch, 973263 bytes, 8 tensors)

fc1.weight f4 [256, 784]
000000 00 a7 17 3b e0 3b 92 bc de 65 b8 bc ce f9 19 3c
       0.0023140311 -0.017850816 -0.022509512 0.009397937
000010 93 32 72 3b 91 28 cd bc 6a 74 8d 3c e5 38 04 3c
       0.0036956414 -0.025043758 0.017267425 0.008070205
000020 51 65 1a bd 05 80 f8 3c 95 bc 9b bc 8c 06 6d b8
       -0.03769428 0.030334482 -0.019010821 -5.65113e-05
000030 c9 5d b2 3b 41 66 b6 ba cd 48 c5 3c 51 ef b8 bc
       0.005443309 -0.0013915972 0.024082566 -0.022575052
000040 1d fb ed bc af 3c 1c bd ae 3d 5c 3c b1 89 b4 3b
       -0.029050404 -0.03814381 0.01344244 0.005509578
000050 d3 15 85 3b e3 79 87 bc 49 62 3b bd 6a dd 07 3d
       0.0040614395 -0.016537612 -0.04574803 0.03317014
000060 8e 8b bd 3c c7 85 c3 3c d3 34 dc 3c 1c 9a a1 3c
       0.023137834 0.023867501 0.026880657 0.019726805
000070 e8 87 08 3d 41 f7 da 3b ea 7d e5 3c 53 38 5d 3c
       0.033332735 0.006682307 0.028014142 0.013502198
000080 c1 4c 01 3d 01 5a 4c bc b7 94 35 bd c6 76 02 bd
       0.03156734 -0.0124726305 -0.04433128 -0.031851552
000090 5d 1d 5a 3c c4 2a 49 bd b3 be 8b bb 01 8c 9e bc
       0.013312665 -0.04911305 -0.0042646765 -0.019353868
0000a0 4d a6 50 bd f4 31 ce 3c 7e eb 82 bc 45 f3 06 3d
       -0.050939847 0.025170304 -0.015981432 0.032946844
0000b0 1b c4 28 bd 35 37 06 bd c2 38 0a bd df 5a 98 bc
       -0.041202646 -0.032767493 -0.033745535 -0.018598018
0000c0 f3 20 c4 3a b4 e0 8b bb e1 e5 45 bd 60 3e 81 3a
       0.0014963433 -0.00426873 -0.048314933 0.0009860508
0000d0 a5 73 f1 bc 00 8e 88 3c b3 b6 b1 3c 44 9d 0e bd
       -0.029474089 0.016669273 0.021693563 -0.03481795
0000e0 90 fa a2 3c 6e f3 a7 bb b5 3f a6 3c b7 00 39 bc
       0.019894868 -0.0051254546 0.02029405 -0.011291674
0000f0 89 3d f7 bc d3 95 73 bd 98 c9 3b bd 33 26 d4 bd
       -0.03018071 -0.059469055 -0.04584655 -0.103588484
000100 59 f8 b9 bd 46 38 31 3d f4 6d 2c 3d d1 e1 a6 bd
       -0.09080572 0.043266557 0.042097047 -0.0814854
000110 a5 cc ad bd 4d a3 f6 bd 07 e3 4b bd c6 db 81 3b
       -0.084862985 -0.12042866 -0.049777057 0.0039629666
000120 ca 13 8c bd 96 06 6f bd a1 84 a2 bd e9 05 bc bc
       -0.06839712 -0.05835589 -0.07935453 -0.022952037
000130 c8 05 de ba f9 10 2c bd 53 60 c4 bc 26 64 e2 bc
       -0.0016938979 -0.042008374 -0.023971712 -0.027635645
000140 0c 0b 10 bd c5 b8 74 3c 71 06 d3 3c e5 55 ec bb
       -0.035166785 0.014936631 0.025759907 -0.007212388
000150 7e c2 8a bc 37 a8 0a 3d 68 0b f2 3c f9 f5 51 bc
       -0.016938444 0.03385183 0.029546455 -0.012814992
000160 ae 53 55 bd 36 6e bb bc f4 4b 03 bd 60 15 79 3c
       -0.052081756 -0.022879701 -0.032054856 0.01520285
000170 2d ea 4d 3d a3 e7 05 3d 15 cc 3f 3c 3f 98 ae 3d
       0.050272156 0.03269161 0.011706372 0.085251324
000180 e8 7d c8 3c d7 29 57 bc f7 cb 41 bd ce 98 41 bd
       0.0244741 -0.013132534 -0.047313657 -0.047264867
000190 cd 20 84 bc ad 6f eb bc 65 ac 04 bd c6 cd 96 bd
       -0.016128922 -0.028739775 -0.03239097 -0.07363467
0001a0 7a b9 8b bc 1c f9 47 3c 3c da a2 bc 0d c2 79 3c
       -0.017056216 0.012205388 -0.019879453 0.015244019
0001b0 11 ba de bc c6 a5 17 bd 77 a0 b3 bc 4b dd 11 bd
       -0.027188333 -0.03702333 -0.021927102 -0.035611432
0001c0 f3 ae f1 3c 6e 3e 9e 3b df 26 c3 bb 18 39 d6 3c
       0.029502368 0.0048292195 -0.0059555615 0.026150271
0001d0 06 db 6a 3d 10 25 2a 3b 00 08 3b 3b a2 df 85 3c
       0.057337783 0.0025962032 0.0028538704 0.016341988
0001e0 13 c9 83 3d fc 8d 48 3d 80 04 76 3d 7f 74 97 3d
       0.06434836 0.04896353 0.060062885 0.07395267
0001f0 ea 0e 8a 3d 5e 75 b3 3c a3 51 d1 bc 5a f9 a8 3b
       0.06741126 0.021906551 -0.025551623 0.005156678
000200 49 a5 91 bd a7 c0 06 bd fa 54 9f bc 96 28 45 bd
       -0.07111604 -0.03289857 -0.0194497 -0.04813441
000210 f3 0c 4a bd 26 47 cf bc de 06 eb bc 7a 80 e7 3c
       -0.049328756 -0.02530248 -0.028689798 0.028259505
000220 22 bb b4 3d ac 2d c5 bb e9 88 16 3d f3 3e f0 bc
       0.08824755 -0.0060174074 0.03675166 -0.029326892
000230 9e 94 95 bc 4e a3 ee 3c f1 ec 0e 3d ac 12 84 3d
       -0.018259343 0.029130604 0.034893934 0.06448874
000240 6c c5 d0 bb fe ef d2 3c e2 b3 26 3d 66 14 be 3d
       -0.006371191 0.025749203 0.040698893 0.092812344
000250 af 54 5b 3c a3 74 c5 bb 03 ab 56 3d a7 52 97 3d
       0.013386889 -0.006025867 0.052409183 0.073888116
000260 c3 b8 a6 3c 76 88 2f 3d 2e b9 a0 ba 76 f5 13 3d
       0.020351773 0.04285475 -0.0012262219 0.03612276
000270 dd f4 31 bd df 12 16 bd db d3 29 3c c1 2b 55 bb
       -0.04344641 -0.03663909 0.010365452 -0.00325273
000280 0d fb 2a bc f8 a0 88 bd e5 bf 84 bd 32 a9 a4 bc
       -0.010435832 -0.06671327 -0.064819135 -0.02010021
000290 92 ac 8e 3d fc 03 68 3c c8 2b f4 bc 01 59 b5 3c
       0.06966509 0.014161106 -0.029806033 0.022137167
0002a0 2a 70 af 3c 95 f8 94 bd 95 39 80 3d bb 17 84 3d
       0.021415789 -0.07273976 0.06260983 0.06449839
0002b0 7e 36 e9 3c 9d fd 55 3d 59 04 02 3d 58 d1 24 3d
       0.028468367 0.052243818 0.031742427 0.04023871
0002c0 58 de ce 38 05 87 09 3d ca df 2f 3d a6 a5 50 3c
       9.86426e-05 0.03357603 0.04293803 0.012734806
0002d0 db 9f 1b 3c 16 a9 e3 3c 1c 6d 06 3d e2 ac 4e 3d
       0.009498562 0.027790587 0.0328189 0.050457843
0002e0 16 e2 61 3d d3 d6 7e 3c 81 2b 69 3c 3c 09 02 bd
       0.055147253 0.015554148 0.014231564 -0.031747088
0002f0 73 16 31 bd 91 53 3d bd 71 ce ba bd 4b 83 85 bd
       -0.0432343 -0.046222273 -0.09121407 -0.06519183
000300 90 06 a6 bc 6b ee 32 3c c7 1b 04 bd 29 a6 05 3c
       -0.020266801 0.010921101 -0.032253053 0.008157291
000310 b3 a2 c7 3c 25 61 09 bd d1 48 9d 3d ca 8a 84 3d
       0.024369573 -0.03353991 0.07679904 0.064717844
000320 6c 6d 55 3d c5 40 12 3d bd c3 64 3d 49 f5 25 3d
       0.052106306 0.0357063 0.055850733 0.040517125
000330 70 66 42 3c 5d 55 0f 3d 75 c2 48 bc 69 05 87 3c
       0.011865243 0.03499352 -0.012253393 0.016482072
000340 f1 48 f4 3c 7b 80 e0 3c f6 3c d2 3b 79 ef 44 3d
       0.029819937 0.027405014 0.0064159585 0.04807994
000350 6b cf 6a 3c e3 8a bc 3c 84 6e 6c 3b 77 c6 11 3d
       0.014331679 0.023015445 0.0036076615 0.03558966
000360 9a dd b8 3c db 1c 6d bd 24 5d 46 bd 17 00 00 be
       0.022566605 -0.057888847 -0.04842867 -0.12500034
000370 28 c7 22 bd bc 58 01 bd da 45 2e bc 07 fc 51 bb
       -0.03974071 -0.031578764 -0.010636771 -0.003204109
000380 1c c4 80 bb 6c 8f d1 3a f5 bd 38 3d 22 d3 e1 3d
       -0.003929628 0.0015988178 0.045103032 0.110265985
000390 19 69 1c 3d 8c 9c 91 3d 5d cc 8d 3d 57 12 0d 3d
       0.038186166 0.07109937 0.06923745 0.03444132
0003a0 4e 92 22 3d fe 15 9c b9 7e 1f 8f 3c ec 90 fd 3c
       0.03969031 -0.00029771024 0.017471071 0.030952893
0003b0 8c 50 cc 3c d0 f1 b0 bb 06 3b 6a 3d a1 07 ca 3d
       0.024940751 -0.00539992 0.057185195 0.09864736
0003c0 ef 82 51 3d 69 ad e3 3c 4d 43 4e 3b bc 4c 03 3d
       0.05115026 0.02779265 0.003147322 0.0320556
0003d0 05 3c 10 3c 04 32 f9 bc 84 ac 18 bc b3 33 00 bd
       0.008803372 -0.030419357 -0.009318475 -0.031299304
0003e0 f2 52 94 bd 1d 1d 06 bc 8a 91 09 bd 1d 4a f3 bb
       -0.07242383 -0.008185652 -0.033586062 -0.0074246065
0003f0 81 fa 79 3d e1 f6 bb bc 72 bd a0 3d e7 60 d9 3c
       0.061029915 -0.02294487 0.07848634 0.026535464

fc1.bias f4 [256]
000000 1f d5 e5 3c fc 74 53 bc e5 78 16 3d e1 a2 4a 3c
       0.028055726 -0.012906309 0.036736388 0.012367935
000010 6b 73 1b 3d 19 c5 82 3d 67 43 83 bc d7 55 0b 3d
       0.037951868 0.0638525 -0.01602335 0.03401741
000020 da 6e 73 3b d0 6d 00 bd 2b 37 54 3d fb 8d 25 3d
       0.003714493 -0.031354725 0.051810425 0.040418606
000030 b3 27 f7 3b 6d 6f f1 3c 4b df 66 3d 85 08 6f 3c
       0.0075425743 0.029472077 0.056365293 0.014589434
000040 be d3 3e 3d 84 0c 7e 3d 60 ee b0 bb 39 f6 44 3d
       0.04658865 0.062023655 -0.0053995103 0.04808638
000050 cf e0 d8 3c 8c b0 cd 3b f5 d1 37 3d 63 c7 8c 3b
       0.026474385 0.0062771495 0.044877965 0.0042962297
000060 d7 01 57 3d cf 53 03 bd 1e 15 74 bb fc cf 15 bd
       0.05249199 -0.032062348 -0.0037244032 -0.036575302
000070 1f 88 27 bd 65 54 91 3b 5a cd 8b bd f5 e7 d6 3c
       -0.0409013 0.0044351094 -0.06826277 0.026233653
000080 95 fe 20 bd 4e aa 80 3b f0 36 ca 3c 32 c8 80 3d
       -0.03930529 0.003926552 0.0246844 0.06288184
000090 1a e6 6e 3c 1f a4 46 3c 0c f8 50 bd 81 26 e1 bc
       0.014581228 0.01212409 -0.051017806 -0.02748418
0000a0 28 22 e1 bc d0 28 18 3d 31 7b 0d 3d 85 63 c1 ba
       -0.027482107 0.037148297 0.034541313 -0.001475439
0000b0 6a 82 7a 3d 93 dd 12 3d 10 fb ac 3d 69 33 23 3d
       0.06115953 0.03585584 0.08446324 0.03984395
0000c0 74 22 8d 3d 76 3e 18 3b 82 a3 b6 3c 94 ef 87 3d
       0.06891337 0.002323059 0.022294763 0.06637493
0000d0 b6 5e 2f 3c 22 dd 43 3c fd ea b6 3d 36 20 f1 3c
       0.010703733 0.011954578 0.08931539 0.029434305
0000e0 1b e4 5a bd 68 ec 7a 3c a4 42 23 3c 23 3c e6 bc
       -0.053440195 0.015315153 0.009964619 -0.028104847
0000f0 22 48 2e bc 74 41 72 3d 3f 6c d1 3c 2e 49 db 3c
       -0.010637315 0.059144452 0.025564311 0.026768293
000100 6e 20 b3 3c da 20 e4 38 45 b2 f8 bc d2 13 98 3d
       0.02186605 0.00010878006 -0.030358443 0.074256554
000110 50 be 55 3d 7f c2 2c bd cf 7f d0 bb ff fa a5 bc
       0.05218345 -0.042177673 -0.006362892 -0.020261286
000120 f1 e7 8f bc a4 45 b5 3c ac 2b ed 3c 12 9d c1 bb
       -0.017566653 0.022127934 0.028951488 -0.005908617
000130 97 11 a9 3d 46 f6 09 3d c2 0c 12 3d 6a 08 a2 3c
       0.08255308 0.03368213 0.035656698 0.019779403
000140 a7 e0 bf bc 98 83 00 3d ae 3b 5c 3c 12 1d 65 3d
       -0.023422552 0.031375498 0.013441963 0.055935927
000150 05 a3 7c 3d c3 7d 13 bd 36 8b 29 3d 5b 1a 56 3d
       0.061678905 -0.036008608 0.041392528 0.05227123
000160 94 7a 2e 3d e3 9f 8a 3c dd 8b 00 3d c0 4d d8 3c
       0.04259737 0.016921943 0.031383384 0.026404262
000170 a9 77 d5 bc b2 e1 85 bd 29 16 a9 3d 21 f8 b2 3b
       -0.026058035 -0.065371886 0.0825618 0.005461708
000180 7f 2e 19 3d 05 a5 bf bc 96 35 a0 bc fd fa 88 3d
       0.037397858 -0.023394117 -0.019556802 0.06688497
000190 eb bf c1 3b 69 5a 85 3d b6 68 ec 3c 07 8a 84 bc
       0.005912771 0.06511385 0.028858524 -0.016179098
0001a0 f4 71 26 bd f1 72 13 3d c5 92 2f bd 73 42 14 3d
       -0.040636018 0.03599829 -0.04286458 0.036196183
0001b0 b3 3b ce 3c ce de 15 bd d1 71 08 3d 9d 0f 69 b9
       0.025174951 -0.036589436 0.03331167 -0.00022226428
0001c0 45 b3 09 3c d3 fa 63 3d bf 1b 29 bc cc 2d 5b 3c
       0.008404558 0.055659126 -0.010321557 0.013377618
0001d0 74 4f 4e 3d da 13 54 3d 45 6b 4e 3d 81 bf 0b 3d
       0.05036874 0.051776744 0.05039527 0.03411818
0001e0 ac d8 8c 3d dd da 7f 3c 58 dc bd 3d e2 c9 e8 bc
       0.068772644 0.015616146 0.09270543 -0.028416578
0001f0 e9 30 dd 3c 42 68 ec 3c 39 7f 52 bd af dc 1a 3d
       0.027000861 0.028858308 -0.05139086 0.037808117
000200 eb 0e a0 bc e7 ad 7a bb c6 cb 59 bd 3d 72 0e 3c
       -0.019538363 -0.0038250627 -0.05317285 0.008694229
000210 5d bc 65 3c 02 86 d7 bc b8 95 18 3d 2e 8d 2a bb
       0.01402196 -0.026309017 0.037252158 -0.002602409
000220 d9 9f f4 3c 22 a7 64 3b 89 6a 00 3d ee c4 21 3c
       0.029861378 0.0034889658 0.0313516 0.009873612
000230 e4 36 66 3d aa 65 0d bd 7f 85 a7 3d d9 9f 4d 3c
       0.05620469 -0.034520783 0.08179759 0.012550318
000240 b4 e0 70 3b 3d 92 37 3c 4e 2f 1b 3a 4b a7 b0 3d
       0.0036755027 0.0112042995 0.000591983 0.086256586
000250 35 19 e1 bc 7b 46 91 3b 25 c7 77 3d c5 dc 26 3d
       -0.02747784 0.0044334508 0.060492653 0.040737886
000260 eb df 55 3b f3 b7 24 3c 8a 73 b2 3b 34 cb 37 3d
       0.0032634686 0.010053623 0.0054459022 0.044871524
000270 d8 ec 90 bc f6 82 46 3b 03 d8 2a bc 1e c7 82 3c
       -0.01769106 0.003029046 -0.010427478 0.015964087
000280 39 d8 bd 3d e0 f4 2d 3b 38 31 11 3d 8c 2d f4 bc
       0.09269757 0.0026543662 0.03544733 -0.029806875
000290 35 a1 1c 3d a4 9f a3 bc dd 42 4b 3d 29 2e 24 bd
       0.038239677 -0.019973584 0.049624313 -0.040083084
0002a0 73 0b f4 3c a9 86 76 3c d0 1d 81 3c 3e c5 2a 3d
       0.029790616 0.015046754 0.015761286 0.04169201
0002b0 c4 0e 57 3d 0b a1 89 3c 5f 17 57 3c ea c4 38 3c
       0.052504316 0.016800424 0.013128131 0.011277417
0002c0 a3 de 11 bd e8 9c 26 3d 80 6f 92 3c bf dc 70 3c
       -0.035612714 0.04067698 0.017875433 0.0147010675
0002d0 cd 41 fa 3b 32 44 18 3d 64 47 a2 3d f4 39 35 3d
       0.0076372386 0.03717441 0.07923773 0.04424472
0002e0 ff f4 c9 3c e3 5f 94 bc 57 37 26 3d 9c c9 cb 3c
       0.024652956 -0.018112129 0.04058012 0.024876408
0002f0 07 46 1f 3b bd 95 3b 3c 42 79 83 3d bf 7e 0e 3d
       0.0024303214 0.011449275 0.064196125 0.034788843
000300 55 a4 c1 3b 30 db f6 3c bc a6 4e 3d 00 cd b0 bb
       0.0059094825 0.030133814 0.05045198 -0.0053955317
000310 a5 92 df bc 39 b9 66 bc a2 55 5e 3c 8a f8 84 3d
       -0.027291605 -0.014082246 0.013570221 0.064927176
000320 d3 f3 a5 3c 2a 64 6b bd a7 cc 56 bc 4a 99 1c 3d
       0.020257866 -0.05746857 -0.013110316 0.038232125
000330 09 40 ec 3b 19 1a a5 3d af 51 ec 3b 57 a0 c8 3c
       0.007209782 0.08061618 0.007211886 0.024490518
000340 ca 35 ca 3c b4 19 a1 ba 49 b1 c8 3c 7b da f4 3c
       0.024683852 -0.0012290985 0.024498599 0.029889336
000350 90 82 15 3d 52 9e 0c bb 86 10 17 3d c3 26 c7 bc
       0.036501467 -0.002145667 0.036880992 -0.024310475
000360 a1 94 44 bd 10 0e 81 3d d2 bd 91 3b ed c7 fb 3c
       -0.047993306 0.0630151 0.004447677 0.03073498
000370 70 fb 79 bc 44 b8 8c 3d 98 fd c1 3c fc 29 5a 3d
       -0.015257701 0.068710834 0.023680493 0.053262696
000380 74 12 7b bb c6 60 e1 3c 30 ac d4 bc e4 9f 5c 3a
       -0.003831056 0.027511965 -0.025961012 0.00084161595
000390 a9 54 e8 3b 86 ce 29 3d 7f c1 f7 3c 11 be 4e bc
       0.0070901704 0.04145672 0.030243633 -0.012618558
0003a0 62 39 a8 ba f5 51 06 3d 1c 8a 58 3d 57 38 b3 3d
       -0.0012834484 0.032793004 0.052866086 0.0875098
0003b0 46 f7 0a 3c 63 b6 da 3c b7 34 bd 3c 5c e1 80 3d
       0.008481806 0.026698297 0.023096425 0.06292984
0003c0 60 28 94 3c a9 9c b5 bc 27 af ed 3b 2f b5 07 3d
       0.018085659 -0.022169428 0.007253546 0.033131775
0003d0 d0 20 6a 3a d9 78 10 3c b7 15 2b 3d 10 e4 05 3d
       0.0008931281 0.008817875 0.041768756 0.0326882
0003e0 d2 7c 75 3d 9d cf bc 3c 87 48 96 3c 25 65 45 bc
       0.05993349 0.023048216 0.01834513 -0.0120480405
0003f0 2a b0 46 bc 10 7c 05 3b e8 64 86 3c 60 58 5a 3d
       -0.012126962 0.0020368136 0.016405538 0.053306937

fc2.weight f4 [128, 256]
000000 a1 f8 68 bd 8e d1 da 3d 33 98 13 3d be 50 03 3d
       -0.056877736 0.10684501 0.03603382 0.032059424
000010 b4 3a 81 bb 47 61 86 3d ea 1f 81 3d 29 2e 2b bd
       -0.0039437655 0.06561523 0.06304915 -0.04179207
000020 48 0f de bc c5 ea 28 bd 29 9b db 3d 28 ad bb 3d
       -0.027106896 -0.04123952 0.10722954 0.09163886
000030 7f 30 10 bd 5d a2 6c bd c7 11 89 bd 29 e0 67 bd
       -0.0352025 -0.05777203 -0.06692844 -0.05661026
000040 3d cf bd 3c 54 4b 80 bd bb 8e 30 bd 56 32 41 3d
       0.023170108 -0.06264368 -0.04310487 0.047167145
000050 7c 38 09 3c ca 88 a0 3c a8 8d c3 bb 3c 17 01 3d
       0.008375283 0.019596476 -0.0059678145 0.0315163
000060 fd 7c 4d 3d a6 67 56 bd 60 43 2e 3d ad 62 74 3d
       0.050168026 -0.05234494 0.042544723 0.059664417
000070 3d b6 81 bc 19 4f 13 3c ab 40 c4 bb 40 35 a3 bd
       -0.015833968 0.008991026 -0.0059891543 -0.07969141
000080 8b 10 35 3d ce a0 ed 3d 78 24 01 3a 37 42 2f 3d
       0.04420523 0.11602937 0.0004926394 0.042787757
000090 59 74 98 3d e9 41 09 3e 53 bf 0e 3d 74 9b 15 bd
       0.074440666 0.13404049 0.03485043 -0.036525205
0000a0 0e 6f 0a 3d 14 8a ba 3c f9 bd f6 3d 5e 2f 9d bc
       0.033797316 0.022770919 0.12047953 -0.019187625
0000b0 dd 7a 2d 3d 09 ca ba bc 4a cf a2 bc 67 e5 70 3d
       0.0423535 -0.022801416 -0.019874234 0.058812525
0000c0 9b 7d a7 3c 54 6e eb 3d 04 2d 5d 3e f3 00 e9 bc
       0.020445636 0.11495653 0.21599203 -0.028442835
0000d0 f8 e5 d7 3d c1 26 07 bd ce 23 28 3d d9 cd 3d 3e
       0.1054191 -0.032995943 0.04104977 0.18535556
0000e0 72 d3 d7 3c c5 41 1f 3d b6 1e 85 bd 4a e7 d2 3d
       0.026345942 0.038881082 -0.06499998 0.10298021
0000f0 9b c0 ad 3c fa 83 55 bd 0c 89 f0 3d 55 46 50 bd
       0.021210006 -0.052127816 0.117448896 -0.050848324
000100 c4 b1 28 bd 72 be 11 3d 31 6a f4 3c fd e7 52 bd
       -0.041185156 0.035582013 0.029835792 -0.051490773
000110 e8 cf 07 3d 2f 8d 4b 3d 0d e4 90 3c b5 32 da bc
       0.03315726 0.04969519 0.017686868 -0.026635507
000120 00 87 ce 3c 7b 56 84 3c 9b 09 bf 3d 2f 87 43 3d
       0.025210857 0.016154518 0.09328004 0.047736343
000130 ad 7d 79 3d 40 04 3b 3d f0 65 c8 bc bf 25 9c bc
       0.06091087 0.04565835 -0.02446267 -0.019060967
000140 84 ce 92 3d 80 6f 15 3d c4 af 11 3e d1 20 4a 3d
       0.07168296 0.036483288 0.14227206 0.049347702
000150 76 27 23 bc 00 39 76 3d ba 85 ba 3d 6b 1b a4 bc
       -0.009958139 0.060112953 0.091075376 -0.020032605
000160 11 cc 88 bd 88 ce 89 bc 47 a0 07 ba 37 a4 fe bc
       -0.066795476 -0.016822115 -0.00051737245 -0.031084163
000170 3f 6a 33 3d e2 d1 a2 3c 7a e1 59 bd e4 a0 b3 3d
       0.043802496 0.01987547 -0.053193547 0.08770922
000180 2e 51 7b bd 39 09 a0 3c e0 62 fd 3c 3c bf 51 ba
       -0.061356716 0.019535648 0.030930936 -0.00080012134
000190 2d 04 b9 3b a0 e6 d4 3c 8f ee a4 3d a2 43 29 3d
       0.0056462497 0.025988877 0.08053314 0.041324265
0001a0 d9 82 16 bc 0e 96 9d 3d c3 78 a1 3d ef 5f 94 bc
       -0.00918647 0.07694636 0.078843616 -0.018112151
0001b0 dd b0 81 3d 8d 84 26 3d 78 45 9d bc a0 13 0c bb
       0.06332562 0.040653754 -0.019198164 -0.0021374002
0001c0 d7 70 80 bd 61 66 c7 3d 3b d0 9c 3d cb 17 97 bb
       -0.062715225 0.09736324 0.07656904 -0.0046109906
0001d0 4a 29 e5 3c 75 89 78 3d 9e f7 ea bd cf 46 ae 3c
       0.02797379 0.060677964 -0.114730105 0.021273999
0001e0 ad f6 16 3e a9 5e 40 3d 53 08 c9 ba 4e 05 a6 bd
       0.14742537 0.046965275 -0.0015337564 -0.081064805
0001f0 f8 1c c1 bd 8f cd 9d bd 88 92 2f bd 1e 8d 59 3c
       -0.094293535 -0.07705223 -0.042864352 0.013278274
000200 aa 26 3a bc 38 14 ff 3d 7e 92 01 3c b4 4c 7a 3d
       -0.011361757 0.12455028 0.007908462 0.061108306
000210 ea ec 2d bd 52 de ed bc 11 4f b4 3d 92 91 e1 3c
       -0.042462267 -0.029036675 0.08804143 0.027535234
000220 b7 7a d8 bc d0 7f d4 3d f3 fd dc 3d 7a 44 16 3c
       -0.026425702 0.10375941 0.107906245 0.0091715995
000230 3e a1 00 bd c0 d1 09 3d ed 8d 55 3d 98 99 b9 3d
       -0.031403773 0.0336473 0.052137304 0.09062499
000240 52 7a da 3c 2e 52 97 bd b1 69 01 3e 47 65 9b 3d
       0.026669655 -0.073887214 0.12637974 0.075876765
000250 63 97 e8 3c d8 1d 0b 3e 63 fb 64 bc fc 4c 87 bd
       0.0283925 0.13585603 -0.013975951 -0.066064805
000260 c1 01 bd bd 30 88 89 3c 6e 7f 55 bc 03 2b f4 3c
       -0.0922885 0.016788572 -0.01303087 0.029805666
000270 d0 34 95 bb 11 cb 09 3d ab ce 80 3d 29 b9 94 bd
       -0.004553415 0.033640925 0.06289419 -0.07261879
000280 01 e1 1a 3d 28 dd da 3c 9a 40 df 3b 63 22 56 3d
       0.037812237 0.026716784 0.006813121 0.052278887
000290 8a 1c 03 3c b3 ef f8 3c 30 c4 15 3a 82 3a 38 bd
       0.00800241 0.030387735 0.0005713133 -0.044977672
0002a0 32 97 3f bd 71 e2 24 3e 6e e6 2b be 46 16 e3 bc
       -0.04677505 0.16102006 -0.1678712 -0.027720582
0002b0 aa dc bb 3c 58 ea 89 3d ab 90 94 3d 97 97 10 bd
       0.02293237 0.06734151 0.07254156 -0.035300817
0002c0 97 ee 9e 3d 57 d0 21 bd 28 db a6 3b 83 a8 3f 3d
       0.07760351 -0.03950533 0.0050920434 0.046791565
0002d0 53 b1 e4 3d 31 6c 6c 3d 99 f9 6e bd 24 68 6d 3d
       0.111666344 0.057720367 -0.058343504 0.057960644
0002e0 f4 d6 bb 3c 4d d8 9b 3c 4a fc 9c 3c e8 a1 9a 3d
       0.022929646 0.019024039 0.01916327 0.075504124
0002f0 32 4f b1 bc 87 fd 7d 3c 44 14 d9 bd d6 e0 2a bd
       -0.021644209 0.01550234 -0.105995685 -0.041718327
000300 74 d5 6f bc 75 53 a7 3d 0c a6 43 3b 5b 65 34 bc
       -0.014638294 0.08170215 0.002985361 -0.011010493
000310 4e 07 d1 3c f2 15 89 bc 80 02 61 bd 4c 80 e8 3c
       0.025516178 -0.016734097 -0.054934025 0.02838149
000320 a4 40 34 bc 06 9d c5 3c 33 d2 f4 bb 2b 6a 49 bd
       -0.01100174 0.024122726 -0.0074713468 -0.049173515
000330 18 58 d1 3e bd 64 68 3d dc aa c8 3d bd 3b 97 3d
       0.40887523 0.056736697 0.09798214 0.07384441
000340 de 07 35 3d 87 28 9c 3c 95 04 e0 3d 89 cc f3 3c
       0.044196956 0.019062294 0.10938374 0.029760616
000350 2d 45 f1 3d ee 34 9b 3d a8 7b 8f 3a e6 39 5a bd
       0.11780772 0.07578455 0.0010946887 -0.053277873
000360 fe e7 fe 3c 02 49 a3 3d 37 45 9b 3d ad ff e0 3c
       0.031116482 0.079729095 0.07581561 0.027465666
000370 ba a4 a9 3e bc ff 9e bd 76 e2 ee bc 2d 09 98 bd
       0.3313349 -0.07763621 -0.02916072 -0.07423625
000380 84 d8 d0 bc 2e 04 2c 3d 45 d2 ac bb 80 7a 22 bd
       -0.025493868 0.041996174 -0.0052740895 -0.039667606
000390 56 70 9c bd a2 06 46 3d 31 5e 4e bd 2e 82 3b bd
       -0.07638614 0.04834617 -0.050382797 -0.045778446
0003a0 0a ac cb 3d 41 d5 9e 3d bf fd f0 3c 8e 33 9a bd
       0.09944923 0.07755519 0.02941787 -0.075293645
0003b0 9e 42 b0 ba 3b 07 7f bd 07 8c 93 3c 6a 5d f9 bc
       -0.0013447588 -0.062262755 0.018011106 -0.030440051
0003c0 ab 4b 68 3d 61 d0 89 3c ce 1c f4 3d 6a fa 03 3e
       0.056712788 0.016822996 0.119195566 0.12888494
0003d0 a3 01 f7 3b 80 cf d6 3d b9 d5 8a ba ed f7 38 3d
       0.007538037 0.10488796 -0.0010592259 0.045158315
0003e0 1f db 70 3c cc 1b 50 3d 60 4a 08 3d 96 45 46 bc
       0.01470068 0.05080776 0.033274055 -0.0121015515
0003f0 31 39 98 3d 35 81 74 3c f6 b6 a9 3d a1 c9 69 3b
       0.074327834 0.0149233835 0.0828685 0.0035673159

fc2.bias f4 [128]
000000 35 f3 6d 3d 48 01 86 3d 57 12 4c bc 59 be 02 3d
       0.05809327 0.06543213 -0.012455544 0.03191981
000010 c3 3f 47 3c 7d 35 aa 3d e2 88 8e bd 4d 47 32 bb
       0.012161198 0.08310983 -0.06959702 -0.0027203143
000020 b8 8d ab bc 8f 73 65 3d b1 97 83 3d 00 a5 d9 3a
       -0.0209416 0.05601841 0.06425417 0.001660496
000030 44 4b e0 3d e3 1a 7e 3c bb 77 be 3b 3d ce be 3c
       0.10951856 0.01550934 0.005812613 0.023291701
000040 f8 a9 5f bc c0 b0 ab bc 2b b6 85 3d bc 65 88 bd
       -0.013651364 -0.020958304 0.065288864 -0.06660029
000050 a9 a3 9a bc 3d 2b be bb b4 b3 c8 3c d8 06 b7 3d
       -0.018876867 -0.0058034942 0.024499752 0.08936852
000060 2d 4a 92 3c e1 8d bd 3b 11 4e df 3c cb e1 79 3d
       0.017857635 0.0057847355 0.027258905 0.06100635
000070 8b b6 a6 bd b2 01 18 3c fe d2 9d 3c cb de ed bc
       -0.08140286 0.009277748 0.019265648 -0.0290369
000080 20 54 46 bd 2b e2 99 3c a5 76 cb 3b d1 4a 19 bd
       -0.04842007 0.018784603 0.006209212 -0.037424866
000090 05 ce 92 3d 0f fa b4 3d f0 c7 8e bc f2 37 27 bb
       0.07168201 0.088367574 -0.017429322 -0.0025515524
0000a0 c5 5e 9d 3c 11 bf a1 3c b8 cb 57 bd 3f cd 10 bd
       0.019210229 0.019744428 -0.052684516 -0.035351988
0000b0 79 2b 2f 3d 79 0f 60 bd d3 e3 8d bc df f0 d4 bb
       0.042766068 -0.054702256 -0.01732055 -0.0064984406
0000c0 b9 c3 c1 3c 65 53 83 bc 37 bd 9b 3d 40 d4 3e 3a
       0.023652898 -0.016030977 0.07604449 0.00072795525
0000d0 44 75 bf 3c b2 29 ce 3c cd 2f 3d bd 97 1a 87 bc
       0.023371346 0.025166366 -0.046188165 -0.016492171
0000e0 10 58 d8 3d 0d c3 92 bc e1 8b 4e bd 41 79 7e bd
       0.105636716 -0.017915273 -0.050426368 -0.062127355
0000f0 3b f0 84 3d da f9 0a bd 50 62 10 3d 0e 26 5d 3d
       0.06491133 -0.033929683 0.035250008 0.05399137
000100 ca 68 fc 3c 2a 17 89 3d d1 c9 89 3d e6 bc 8b 3d
       0.030811686 0.06693871 0.067279465 0.06823139
000110 23 a4 01 3e 1e 7f 82 3d c5 66 c2 3d c4 5f 82 3d
       0.1266027 0.06371902 0.09492258 0.06365922
000120 9c 6f c2 3c 2b 54 83 bb 5d 41 c9 3c 4b 96 e3 3d
       0.02373486 -0.0040078363 0.0245673 0.111126505
000130 c7 0a c3 3d 60 fc 6f 3d 4f 81 97 3d 0b 1d c2 bc
       0.0952354 0.058590293 0.073977105 -0.02369549
000140 79 2e ce 3b 18 c4 b2 bc 0e 72 83 bd b3 25 01 bd
       0.006292161 -0.02182202 -0.064182386 -0.031530093
000150 43 2a 5f 3d 61 3c 6c 3d 4c d2 0a 3d 73 79 e8 3c
       0.054483663 0.05767477 0.03389196 0.028378224
000160 2f 12 d3 bb 42 5e d9 3c 0c 26 20 3d e1 21 8d 3d
       -0.0064413766 0.026534203 0.039098784 0.068912275
000170 a6 f3 80 3c d5 df 68 3b 71 92 20 3c c5 64 8e 3d
       0.01574118 0.0035533805 0.009800539 0.06952814
000180 25 4b 00 3b 0c d3 3a 3d b7 a4 e7 3c 9b 5b e4 bc
       0.001957604 0.045611426 0.028276784 -0.027875712
000190 58 2f d4 bc 85 d5 a5 bc 8e 1c 30 bd 5c 87 cd 3d
       -0.025901482 -0.020243416 -0.042995982 0.100355834
0001a0 60 06 9f 3d 47 14 0c 3d f3 61 45 3d ac ef 7a bc
       0.07764888 0.034199025 0.048189115 -0.015315931
0001b0 dd 1c 81 bd a1 ac c2 3d 56 92 8f 3c 1c f8 66 3c
       -0.06304333 0.095055826 0.017525833 0.01409724
0001c0 80 82 16 3d 3c d5 8d 3d 96 32 18 3d 75 c3 90 bd
       0.03674555 0.06925437 0.037157618 -0.070685305
0001d0 ae d1 75 3c 3f f1 4b 3d 78 0f be 3d 9c 13 bf bb
       0.015003605 0.049790617 0.09280294 -0.005831195
0001e0 a1 0c 87 bc 86 0e 87 3b ed 07 4f 3d f7 d0 05 bc
       -0.016485514 0.0041216044 0.050544668 -0.008167497
0001f0 f6 75 cb bb 7e 12 65 3d 02 62 2d 3d a3 54 1f 3d
       -0.0062091304 0.05592584 0.042329796 0.038899075

fc3.weight f4 [64, 128]
000000 91 65 b1 bd 38 39 e3 3b 2c 77 4c 38 75 92 aa bc
       -0.086619504 0.0069343112 4.8748378e-05 -0.02082179
000010 04 48 ab bd 22 0e a0 3c c4 c8 1b 3d 77 7d b1 3c
       -0.08363345 0.019537989 0.038033262 0.021666272
000020 a6 fe 24 bb 0f 21 b9 bb a7 3e 5a 3d 9f 31 39 3d
       -0.0025176196 -0.005649693 0.053282406 0.045213338
000030 5c dd 5f 3d 18 4e 81 bc 64 6f c0 bd df c8 77 bd
       0.054654464 -0.015784308 -0.09396246 -0.0604943
000040 f9 f9 10 3c 5c 46 98 bd 2c c4 01 3d 99 d0 95 bd
       0.008848661 -0.07435295 0.031681225 -0.073151775
000050 ef d1 64 bd 77 2c 8e 3d 99 19 1a bd 0c f3 af bd
       -0.05586427 0.06942075 -0.037622068 -0.085912794
000060 2e 63 4c bd bc 7c 6f 3d a1 fc 98 ba 03 b2 3d 3c
       -0.049899273 0.058468565 -0.0011671969 0.011578086
000070 3f a0 b1 bc a1 68 8c 3c b1 d5 1c 3d d8 d6 a0 bd
       -0.021682857 0.017139735 0.03828973 -0.07853478
000080 6a 3f 82 bd a1 ad c5 bd e6 d8 c6 bd da 7d 32 3b
       -0.063597515 -0.09652258 -0.09709339 0.0027235658
000090 d1 85 84 3d 9d e7 6e 3b 90 59 64 bc 97 f7 ac bd
       0.06470836 0.003645397 -0.013937369 -0.084456615
0000a0 81 46 d3 bb 18 9b 8e 3d 82 8e 79 3d 8f ee 98 bd
       -0.0064476137 0.069631755 0.06092692 -0.074673764
0000b0 b9 4f a9 bb 62 cc 99 bd 47 e6 3d bd 85 41 46 3d
       -0.0051669744 -0.07509686 -0.046362188 0.048402328
0000c0 c1 99 2f bd 08 ed 8b 3d a6 f9 89 bc de 4a 53 3c
       -0.04287124 0.068323195 -0.016842674 0.012896268
0000d0 a9 45 9a 3c cc 91 46 3d b1 ec da 3c ac 51 97 bd
       0.018832045 0.048478886 0.026724191 -0.073886245
0000e0 87 f1 89 3d a5 5d 99 3d 0c bb 84 3d 65 fd 68 bd
       0.06735521 0.074885644 0.06480989 -0.05688228
0000f0 e4 d5 7f bc f8 86 14 3d 23 1c c2 bd aa ad bc bd
       -0.01561496 0.03626153 -0.09478023 -0.09212811
000100 49 86 c7 bc a2 02 58 bc fc 58 86 3d 13 dd b9 bd
       -0.024356024 -0.013184221 0.06559941 -0.0907537
000110 52 05 21 3c fe 24 fa bc 62 a5 13 bb 51 81 34 bd
       0.009827929 -0.030535217 -0.0022528996 -0.04406864
000120 07 d2 69 3d f1 8e 86 ba 08 06 29 3d 94 6e 93 bd
       0.057085063 -0.0010265989 0.041265517 -0.071988255
000130 00 dd 74 3c 01 cf 9c 3c 9d b6 ba 3c c3 e9 0b bc
       0.014945269 0.019141676 0.022792155 -0.00853962
000140 8e 1e 8f bc cc cf 45 3c de a7 3e bd cc e2 b9 bd
       -0.017470624 0.012073468 -0.04654681 -0.09076461
000150 bf 48 5e bc 8f 16 67 3d 29 bf 8d 3d 0b 2b 22 bd
       -0.013567149 0.056417998 0.069212265 -0.03959183
000160 5e 2d 9a bd d1 35 80 bd 41 aa 8d 3c a9 86 6d 3d
       -0.07528184 -0.06260265 0.017293097 0.05798975
000170 5c 84 9b 3c ff b8 79 bd 12 5d 9e 3d 3e 40 97 bd
       0.018984012 -0.06096744 0.077325955 -0.073853
000180 25 76 b1 bc 42 39 6b bd 35 dc 9b 3d 10 71 95 bd
       -0.021662781 -0.057427652 0.076103605 -0.072969556
000190 74 62 c5 bd 8d e0 94 bd a7 bd cc bc 2a dd 3f bc
       -0.09637919 -0.07269392 -0.024992777 -0.011710444
0001a0 c0 ba 95 bc ab c1 b9 bd 27 09 d7 3c d0 cc 8f 3d
       -0.018277526 -0.09070142 0.026249481 0.07021487
0001b0 79 26 64 3c c1 ba b9 bd 61 93 bf bc 3b 85 a5 3d
       0.013925188 -0.090688236 -0.023385705 0.08082052
0001c0 75 d6 97 bd 03 c1 21 bb 53 34 16 bd ab 49 16 3d
       -0.07413951 -0.0024681694 -0.036670994 0.03669135
0001d0 e9 64 8d bd f8 3c c3 bd ca e7 8b bc c7 c5 8f bd
       -0.06904013 -0.09533113 -0.0170783 -0.07020145
0001e0 24 f1 e8 3c 5a af a7 3d 89 ff a6 bd 28 76 10 3d
       0.028435297 0.081877425 -0.08154208 0.035268933
0001f0 19 cc c6 3c 45 0f 5a bd 5d 09 25 bd c2 2b 80 bd
       0.024267243 -0.05323722 -0.040292133 -0.06258346
000200 0c 26 39 bd 09 6b 97 3c 61 48 6f bd 26 0b 03 bd
       -0.0452023 0.018483656 -0.058418635 -0.031993054
000210 f2 2c 2f bd 2c f8 3c 3d c2 de 1c bd b9 41 44 bd
       -0.042767473 0.046135113 -0.038298376 -0.04791424
000220 92 8e 9d 3b 17 25 c6 bd 19 2a 15 bd 4e 02 9a bd
       0.0048082555 -0.09675043 -0.0364171 -0.07519971
000230 3b 6a 8e 3d a8 cf 1d 3d 17 36 ae bd 7f 28 91 bd
       0.069538556 0.038528115 -0.085064106 -0.07087802
000240 a8 89 24 3d 2a ab 73 bd fb 3d 7e bd cd d3 db 3c
       0.04017034 -0.059489407 -0.062070828 0.026834393
000250 19 b0 d5 bd c5 00 5a 3b 7d 2d 2a 3b 67 e9 74 bd
       -0.104339786 0.0033264619 0.0025967055 -0.059792902
000260 cb d3 8d 3d bc 57 0d bd 51 fc 3d 3d 2b da a7 bd
       0.06925162 -0.0345075 0.046383206 -0.08195909
000270 79 b0 38 bd 8e cd 8b 3d 2c 2b 71 bd 8b be b6 3c
       -0.045090172 0.06826316 -0.058879063 0.022307655
000280 ce 64 86 3d 76 b2 15 3d ad 86 93 3c 69 09 e4 3b
       0.06562196 0.036547147 0.018008554 0.0069591296
000290 36 2b 14 3d 36 48 91 bc a8 ba 57 3d 64 86 42 3d
       0.03617402 -0.017734628 0.052668244 0.047491446
0002a0 73 ad bb 3c 49 03 54 3d 2c f5 4d 3d 48 d1 3d bd
       0.022909855 0.051760945 0.050282642 -0.046342164
0002b0 ef fe 22 bd 9f 0b 70 3d 4b 5f 4d 3d be 29 1d 3d
       -0.039793905 0.058604833 0.050139707 0.038369887
0002c0 cd 94 55 bd 1d e9 9c bd 05 6f 30 bc fd a5 34 3d
       -0.05214386 -0.0766165 -0.010768657 0.04410361
0002d0 5b 09 b2 3b e8 e4 56 bd 4f 02 6f 3d ab af 4e 3c
       0.005433244 -0.052464396 0.05835181 0.012615125
0002e0 48 f0 66 bd 9a 35 32 bc 23 66 14 bc b1 04 91 bd
       -0.056381494 -0.010877037 -0.009057554 -0.07080973
0002f0 00 2d ba bc b1 69 a6 bd f5 0c 80 3d 1e 56 e3 3c
       -0.022726536 -0.08125628 0.06252471 0.027751025
000300 be 06 9f bd 9a 16 5c bc 69 b3 83 3c 27 62 ce bd
       -0.07764958 -0.013433123 0.01607676 -0.10077315
000310 4b 76 29 bd e3 8b d8 bd a8 21 bd bc 19 e9 52 3d
       -0.04137258 -0.10573556 -0.023087338 0.05149183
000320 5d e2 4c bd 90 f7 fb 3c ae e0 ed bc c0 e3 1d 3d
       -0.050020564 0.030757695 -0.0290378 0.038547277
000330 b8 f0 75 bd d4 0e 83 3c f6 e1 c4 bc 49 0a ce 3c
       -0.06004402 0.015998282 -0.024033528 0.025151389
000340 a9 e7 82 bd 7a 3a 1e bc da af b0 bb 82 64 36 3d
       -0.06391842 -0.009657497 -0.005392057 0.044529445
000350 7a 7d 1f bd 74 e2 c5 bd 52 78 24 bd ae ba 40 3d
       -0.038938023 -0.09662333 -0.04015381 0.04705303
000360 9f 75 0a 3c a2 99 af 39 d7 22 5d 3d e4 cc b3 bd
       0.008450895 0.00033493066 0.053988304 -0.08779314
000370 09 09 c3 bd db 78 d1 3c 81 83 f3 bc b5 48 94 bd
       -0.09523208 0.025570324 -0.029725792 -0.0724043
000380 0b 8a 0b 3c 93 65 98 bb e6 50 79 bd 6c a3 c3 3c
       0.008516799 -0.0046507805 -0.060868166 0.023881637
000390 70 17 30 3d cd 80 bd bc dc 32 7e 3b 8c 01 e1 ba
       0.0429911 -0.023132706 0.0038787639 -0.0017166599
0003a0 6f 6e 1d 3d 70 1a dc bc 75 3f 8e bc ea 1f 66 bc
       0.038435396 -0.026868075 -0.017364243 -0.014045695
0003b0 79 13 5e 3d 11 4e bf bc 61 c1 8e bc c3 07 a3 bd
       0.05421779 -0.023352655 -0.017426195 -0.07960465
0003c0 60 d3 0a bd d4 8d 5a 3d ce 1e 31 3d 74 13 23 bd
       -0.03389299 0.053357914 0.04324227 -0.039813474
0003d0 32 00 84 3c 83 87 36 3d 77 ab c4 bd 35 24 cc bd
       0.016113374 0.044562828 -0.09603017 -0.099678434
0003e0 e2 a4 2d bd 13 c4 81 bd 4e 6d b8 bc 9f 3c 4b bc
       -0.042393573 -0.06336226 -0.022513058 -0.01240459
0003f0 53 c8 4d 3d 27 7f ea bc a5 a5 70 bc 57 2d 49 3d
       0.050239872 -0.028625084 -0.01468793 0.049115505

fc3.bias f4 [64]
000000 98 08 d7 bc 8f 08 d3 bd 02 b2 8f 3d 2e 6d c5 bb
       -0.026249215 -0.10304367 0.07016374 -0.006024978
000010 48 15 a8 bd 8a b3 87 3d 47 31 0b 3e 43 f6 32 3d
       -0.08207184 0.06626041 0.13593017 0.043691885
000020 15 69 64 bc c2 4b 08 3c 21 ce c1 3d 75 79 5f bd
       -0.013941069 0.008318843 0.09463144 -0.05455919
000030 db 38 f0 3c 1d b1 0d 3e 9a a6 c6 3d 26 83 4e bc
       0.029323986 0.13837095 0.096997455 -0.01260451
000040 0e 0e e8 3d 38 05 52 3c a2 97 b2 bd bc c8 c5 3d
       0.11330806 0.012818627 -0.08720328 0.09657428
000050 30 b7 30 3d ec e1 c9 3d 87 ab b5 3c b2 c9 cc 3d
       0.04314345 0.09857544 0.022176517 0.09999408
000060 9e 13 9f 3c 49 b2 bc 3d 9b 4c 2d 3c ab 57 99 bd
       0.019418534 0.09213693 0.010577346 -0.074874245
000070 2d 74 9e 3c 6b 23 54 bd 0d 24 31 bd 0b e2 be bc
       0.019342506 -0.05179159 -0.04324727 -0.023301145
000080 d6 fd 0e 3e 14 7a 83 3b 25 a0 a2 bd 82 df 2f 3d
       0.13964018 0.0040123556 -0.079407014 0.042937763
000090 ce 18 4c 3d 9e bf 68 bd f5 f6 1a 3d 5d dc 73 bd
       0.049828343 -0.056823365 0.037833173 -0.059536327
0000a0 af e3 78 bd 7f f3 17 bd 1e 5c 31 bd 5b 93 26 3d
       -0.06076401 -0.03709745 -0.04330074 0.040667873
0000b0 10 80 be bc 28 81 07 bd 45 18 50 3c 92 fc da 3d
       -0.023254424 -0.033082157 0.012701099 0.10692705
0000c0 29 da 7c bd 82 21 38 bc 76 08 47 bc 33 0f ee 3d
       -0.06173149 -0.011238458 -0.012148013 0.11623993
0000d0 98 2b cc 3d b0 0f 65 3d 5d 83 5b 3c 50 38 9f bd
       0.09969252 0.055923164 0.013398019 -0.07774413
0000e0 48 d7 a6 3d db 8f e6 3d 69 c9 61 bd f8 5b 05 3e
       0.081465304 0.11257907 -0.05512372 0.13023365
0000f0 e0 1e 72 bc 1d 4b de 3d 5e a7 c4 bb 2b 5a 12 3d
       -0.014777869 0.108541705 -0.006001397 0.035730522

fc4.weight f4 [10, 64]
000000 91 24 31 bd cc ae 82 3d fa 55 ae 3d 2d ac 0b 3d
       -0.043247763 0.06380996 0.085124925 0.034099746
000010 98 e0 d2 3d c3 4a 8c bd 26 a0 29 3e ad 49 4b 3e
       0.10296744 -0.06850197 0.16564998 0.19852324
000020 42 ab ae 3d 6a a7 3d bd 79 6d 79 bd 26 14 3b 3d
       0.085287586 -0.046302237 -0.060895417 0.045673512
000030 88 4e a4 bd ed 6a 49 be 50 22 07 be f2 be 97 3d
       -0.08022791 -0.19669695 -0.13196683 0.07409467
000040 22 fe ba bd 78 79 04 3d 04 6b 67 3d ce 9b 1b be
       -0.09130503 0.032342404 0.056498542 -0.15196154
000050 e0 4d 63 bc 09 97 54 3c 1a c8 3f be 7c ed ba 3c
       -0.013873547 0.012975463 -0.18728676 0.02281832
000060 80 63 6f be 93 0c 77 3d 03 ee 85 3d 08 17 35 bd
       -0.233778 0.060314726 0.06539538 -0.044211417
000070 9c ed 2a 3c a1 d0 f6 3d af 65 9b bd 12 b6 fc bc
       0.010432627 0.120515116 -0.07587754 -0.030848537
000080 5d 94 a0 3c da a1 1b 3e c3 de db 3b 2f b0 b1 3d
       0.019601995 0.1519846 0.006709905 0.086761825
000090 34 b4 aa bc 99 f9 18 3d f6 1a f5 3d 06 b9 b1 3a
       -0.02083788 0.03734741 0.11968033 0.001355917
0000a0 cb eb 03 3d 07 da ef bd 12 17 4e 3d 79 c3 df bd
       0.03220729 -0.11711507 0.05031497 -0.10925955
0000b0 64 a0 1b 3e 09 d3 a5 bd 35 d6 9e bd 53 91 3e be
       0.15197903 -0.080968924 -0.077557005 -0.18610124
0000c0 de e0 aa bd 97 01 01 3e a9 5a d5 3d f3 a1 41 be
       -0.08343671 0.12598263 0.10417683 -0.18909435
0000d0 b3 0a cd bd 61 6e 80 3d a1 a1 8f bc 9d ed ee 3b
       -0.10011806 0.06271053 -0.017533125 0.0072915093
0000e0 db c5 52 bd 4b 51 1d be 91 b0 7f 3d 52 67 29 be
       -0.05145822 -0.15363042 0.062424246 -0.1654332
0000f0 dc 32 1f be b4 c6 1f 3e 81 d2 64 be 31 d4 c0 bd
       -0.15546745 0.15603143 -0.22345926 -0.09415472
000100 ff fe b8 3d b7 02 91 bb b2 a1 19 be 58 11 e2 bd
       0.09033012 -0.0044253725 -0.15003088 -0.11038464
000110 c1 ec be 3d e7 b0 23 be fe 46 0f 3e c2 80 7b 3d
       0.09322501 -0.15985452 0.13991925 0.06140209
000120 9f fa e8 bd a0 55 e0 bd 15 9b a9 3d 9d 28 b0 bd
       -0.11375927 -0.10953832 0.08281533 -0.08601496
000130 3e 1a 0d be 39 18 bc 3d cf f6 37 3e b3 5f ad bd
       -0.13779542 0.091843076 0.17965244 -0.08465519
000140 06 90 7b bb bc 82 8a 3d 9d 5e 3c 3d 0c f5 1e 3e
       -0.0038385405 0.06763217 0.045988668 0.15523165
000150 2b a1 f6 3d b1 8e 3b 3e 8f ca 21 3e 7d f2 09 be
       0.12042459 0.18316151 0.15799926 -0.13471408
000160 72 d5 08 3d c3 d3 22 be ba 6d c5 bc 1c 2f b9 bd
       0.033406682 -0.15901093 -0.024100173 -0.090421885
000170 3a 0f 19 be 82 34 99 bb b3 bb 15 3e 98 c6 f6 3d
       -0.14947215 -0.004675449 0.14622383 0.120495975
000180 08 ad 03 be f4 c5 24 be 62 b4 91 3d 17 19 45 be
       -0.12858975 -0.16091138 0.071144834 -0.19247852
000190 91 bb 13 3e 73 b4 43 bd 88 a7 3f 3e e3 0f 29 be
       0.1442702 -0.04777951 0.18716252 -0.16509967
0001a0 f3 d2 66 bd c4 b4 90 3d 07 4f e5 bd 16 11 a6 3d
       -0.05635352 0.07065728 -0.11196714 0.08108728
0001b0 c2 a3 06 be 9b ec 7a bc e9 59 b3 3d f4 4a ea 3d
       -0.13148406 -0.0153152 0.087573834 0.114400774
0001c0 7a 95 9f bd cd 98 41 be bf ae 95 3d 22 b9 e4 3d
       -0.07792182 -0.18905945 0.07308721 0.11168124
0001d0 09 0e 02 be a5 75 23 3e a8 f8 ef 3d 40 8a 5b 3c
       -0.12700666 0.15962847 0.11717349 0.013399661
0001e0 e7 1b 3c be 32 24 90 bd 80 73 64 bd c3 cb af 3d
       -0.18370019 -0.07038154 -0.055774212 0.08583786
0001f0 c0 6e 7d bc 3e b0 41 bd bd cd 8d 3d 34 36 66 3d
       -0.015468299 -0.04728722 0.06924007 0.056204036
000200 1d 77 cc 3d ee ae ab 3d 97 78 1d be 9b e0 93 bd
       0.099836566 0.083829746 -0.15378033 -0.072205745
000210 b5 ad b3 3d eb 81 c2 3d ad 1d e6 3d 84 1b cf 3d
       0.08773366 0.09497436 0.11236129 0.1011267
000220 72 82 8b 3d 35 5b 18 be 4d ae 02 3e 32 c9 e1 3d
       0.0681199 -0.14878543 0.12761803 0.11024703
000230 5d 3f 69 bb 51 18 3c be e8 53 d8 bd 30 38 1a bc
       -0.0035590746 -0.18368651 -0.10562879 -0.00941281
000240 7d 44 05 3e cf 19 23 bd 4d f8 af bd 37 d7 fb 3d
       0.13014407 -0.039819535 -0.085922815 0.12296908
000250 53 7a 3c 3e 19 16 49 bd e6 65 17 be b4 5a 0c 3e
       0.18406038 -0.04909334 -0.14784965 0.13706475
000260 fb 6b 8b 3d 6c 2c 34 be 26 82 2b 3e 9b 20 c4 bd
       0.06807705 -0.1759507 0.16748866 -0.095765315
000270 93 e5 4e bd 5c 3f 94 3d b8 97 49 be 75 b7 5e bc
       -0.050511908 0.07238647 -0.19686782 -0.013593544
000280 fb d8 25 3e 51 6b 99 bd b3 14 4d bd d7 17 b7 3d
       0.16196053 -0.07491172 -0.05006857 0.08940094
000290 93 b3 38 3d 18 9e ff 3c a0 ea e2 3d 40 0d 23 3d
       0.04509313 0.031203315 0.110799074 0.039807558
0002a0 a3 cb ce 3c 6b ed ea bd 49 4d a1 bd b7 97 f9 bd
       0.025243586 -0.11471065 -0.07876069 -0.121871404
0002b0 e0 07 d0 bd 3c d5 a1 bd 89 85 e7 3d b9 35 ad 3d
       -0.10157752 -0.07901999 0.11304767 0.084575124
0002c0 44 8a b8 3c b1 89 8a 3c 88 81 1f 3e 72 66 20 3e
       0.022526868 0.01691136 0.15576756 0.1566408
0002d0 e9 04 ef 3d 40 bc 56 3d cb d6 9a 3c 31 1a 3d bd
       0.116708584 0.052425623 0.01890125 -0.046167556
0002e0 24 23 4c bc 8c 48 cd bd 5b 7a 02 be 5d 83 67 be
       -0.01245955 -0.10023603 -0.12741987 -0.22608705
0002f0 fe cd 8b 3b 49 a2 9d 3c 95 34 05 3d f7 16 f2 3c
       0.0042664995 0.019242423 0.03252085 0.029551966
000300 81 2d e3 3d 3a 94 80 3d 89 de 77 bc c0 34 c9 3d
       0.110926636 0.06278272 -0.01512874 0.098245144
000310 fe c6 bd bd f8 ae a3 bd d6 99 9d bd a3 ec e9 bd
       -0.092664704 -0.07992357 -0.076953575 -0.11422088
000320 5e ad 69 bd b8 ed 16 3e 8c c8 8f bd 3d 78 0b be
       -0.0570501 0.1473912 -0.07020673 -0.13620086
000330 86 68 2d be 77 80 9e 3d 34 c4 0c 3e ec 8f 07 3e
       -0.16934404 0.077393465 0.1374672 0.13238496
000340 46 dd a4 3b ef 08 dd 3d ce 8d bb 3c 52 64 c0 3d
       0.0050312607 0.107927196 0.022894766 0.093941346
000350 d7 e9 14 3e 86 b6 bd bc e6 26 65 b9 61 09 14 be
       0.14542328 -0.023158323 -0.00021853633 -0.14456703
000360 09 f5 e2 bd f2 86 8b bd 44 ce e9 3d df e9 e2 bc
       -0.11081893 -0.06812848 0.11416295 -0.027699409
000370 5a 86 cf 3d 13 db e3 bb 2b ba a2 3d 9d 0d 30 be
       0.101330474 -0.006953606 0.07945665 -0.17192693
000380 cd 05 1b be cc be 44 3d c6 10 08 3d ae 3b e8 bc
       -0.15138932 0.04803352 0.03321912 -0.02834877
000390 7c 2a 14 3e c6 58 b3 bd fd 46 0b 3e f5 af e9 bd
       0.14469332 -0.087571666 0.13601299 -0.11410514
0003a0 98 43 a0 bd c4 08 ea bc 00 01 9e 3d 81 45 87 3c
       -0.078253925 -0.028568633 0.077150345 0.016512634
0003b0 1d 10 1c 3d 24 63 d2 bc 93 69 21 be 4e 43 e6 bd
       0.038101304 -0.02568204 -0.1576293 -0.11243306
0003c0 ab b4 5b 3c 63 49 80 3b 6d e6 9b 3d b0 40 86 3d
       0.013409774 0.0039149984 0.076123096 0.06555307
0003d0 bf c9 39 3e 92 8a 3d 3d 75 a2 02 be 89 75 15 be
       0.18143366 0.04627473 -0.12757285 -0.14595617
0003e0 15 d1 da 3b 77 1f 27 bd a4 9c 80 3d 01 73 9e bd
       0.0066777566 -0.04080149 0.06279877 -0.07736779
0003f0 18 75 a8 3c fb 33 38 be 7c 48 f0 bd 70 c4 c2 3d
       0.020563647 -0.17988579 -0.11732575 0.09510124

fc4.bias f4 [10]
000000 67 ec 9f 3d 6c 1d 9a 3c 1d d6 e6 bb 5f af af 3d
       0.07808762 0.018812858 -0.0070445673 0.08578371
000010 3d 04 b5 3d ce 83 26 bc 41 c4 0b 3d 5f ae bb bc
       0.08838699 -0.010163261 0.03412271 -0.022910295
000020 d1 50 a3 bd 88 70 36 3d
       -0.07974399 0.044540912
