checkpoint.pth (torch, 973263 bytes, 8 tensors)

fc1.weight f4 [256, 784]
0	0x3ce60772	0.028079722
1	0xbc9fe593	-0.01951865
2	0xbcb4c55e	-0.022066768
3	0x3ca0109a	0.019539166
4	0xbc5a868e	-0.013337744
5	0x3d09e049	0.03366116
6	0xbbc177f0	-0.0059041902
7	0x3badca28	0.00530364
8	0xbca98808	-0.020694748
9	0xbc221c2e	-0.009894414
10	0x3cfc21fa	0.03077792
11	0xbe25ba8c	-0.16184443
12	0xbe1d1882	-0.1534138
13	0x3bf7cd08	0.0075622834
14	0xbc38f272	-0.011288272
15	0x3cfa2062	0.03053302
16	0xbdd08152	-0.10180916
17	0x3d6cc1e9	0.057802115
18	0xbdf1a108	-0.117982924
19	0xbde5b7ff	-0.11216735
20	0xbdb73fae	-0.08947693
21	0xbca1552e	-0.019693937
22	0x3cd34472	0.025789473
23	0xbc1842a6	-0.009293234
24	0x3baac6c8	0.005211685
25	0xbce4f848	-0.027950421
26	0xbcd83c08	-0.026395813
27	0x3cf7b14e	0.030235913
28	0x3c6adce0	0.014334887
29	0xbc4ede0e	-0.012626184
30	0xbcb86d88	-0.022513166
31	0x3d0b9751	0.034079853
32	0x3c93eaba	0.018056262
33	0x3c283208	0.010265835
34	0x3d00c6db	0.031439643
35	0xbd46d90d	-0.04854684
36	0xbd5bef1f	-0.05369484
37	0xbd3aefb2	-0.045638748
38	0xbdaa15ee	-0.08304964
39	0xbde1f215	-0.110325016
40	0xbea8f989	-0.3300288
41	0xbe6f9bb6	-0.23399243
42	0xbeaf5fde	-0.34252828
43	0xbe8ef34e	-0.27920002
44	0xbecc6795	-0.39922777
45	0xbe883917	-0.26606056
46	0xbe4d8ea3	-0.20073943
47	0xbdc3164d	-0.09525738
48	0xbda0ebd0	-0.07857478
49	0xbd8c9809	-0.06864936
50	0xbc7fa7b4	-0.015603948
51	0x3e11559a	0.1419281
52	0xbb72f900	-0.0037074685
53	0xbc6d6098	-0.014488362
54	0xbc9f808c	-0.019470476
55	0xbd0ce38e	-0.0343967
56	0x3a8b14a0	0.0010611005
57	0xbcb06bc0	-0.021535754
58	0xbbcb2878	-0.0061998926
59	0xbd10befd	-0.03533839
60	0x3c2ab215	0.010418435
61	0xbc0846e3	-0.008317682
62	0xbe2f19dd	-0.1709971
63	0xbe0b245f	-0.13588093
64	0xbeaa5a30	-0.33271933
65	0xbe8be8f2	-0.2732616
66	0xbecca3e9	-0.39968804
67	0xbea63b78	-0.32467246
68	0xbe67e6c3	-0.22646622
69	0xbea0fc17	-0.3144233
70	0xbe8b2065	-0.27173153
71	0xbebe5857	-0.37176773
72	0xbe45c277	-0.19312464
73	0xbdaa7e5d	-0.08324883
74	0xbad55a18	-0.001627746
75	0x3e1b5f17	0.15172993
76	0x3e86e813	0.26348934
77	0x3dc32f45	0.095305
78	0x3e301d35	0.17198642
79	0x3e53aeef	0.206722
80	0x3e0fee36	0.14055714
81	0x3db90e16	0.0903589
82	0xbc343b2e	-0.011000438
83	0x3a8369c0	0.0010026023
84	0x3ca43c4c	0.020048283
85	0xbca75960	-0.02042836
86	0x3a742240	0.0009312965
87	0xbcd9e410	-0.026598006
88	0xbdeaf674	-0.114727885
89	0xbc5cf42d	-0.01348595
90	0xbdee7973	-0.11644258
91	0xbe2f2351	-0.17103316
92	0xbea632cd	-0.32460633
93	0xbe83ec58	-0.25766253
94	0xbe704718	-0.2346462
95	0xbec62453	-0.38699588
96	0xbec1c08a	-0.37842208
97	0xbec07d94	-0.37595809
98	0xbebe3baa	-0.37154895
99	0xbea47ba6	-0.32125586
100	0xbe4bc41c	-0.19899029
101	0x3d1e3d78	0.03863284
102	0x3e8dcef2	0.2769695
103	0x3ea9fc58	0.33200336
104	0x3e8e9d0e	0.27854198
105	0x3da69865	0.08134536
106	0x3e2f556c	0.1712243
107	0x3e851f18	0.26000285
108	0x3e58998b	0.21152322
109	0x3dd85036	0.10562174
110	0xbc268f92	-0.010166066
111	0xbb588780	-0.0033039749
112	0xbd020b3c	-0.031748995
113	0x3ca29d4c	0.019850396
114	0xbdc3b9b4	-0.095569044
115	0xbdd6dfd5	-0.10491911
116	0x3e6ed72d	0.2332427
117	0x3da71cfa	0.08159824
118	0xbddc22a8	-0.10748798
119	0xbe8a9606	-0.27067584
120	0xbe6828d9	-0.22671832
121	0xbe45dbec	-0.19322175
122	0xbd5681a2	-0.05236972
123	0xbe7ac40c	-0.24488848
124	0xbe6e8c39	-0.23295678
125	0xbe990828	-0.29889035
126	0xbebbe539	-0.3669832
127	0xbeb60941	-0.35553935
128	0xbe61a95e	-0.22037265
129	0xbe13e259	-0.14441814
130	0x3d2e6c50	0.042583764
131	0xbd80c597	-0.06287687
132	0x3c9b237e	0.018937822
133	0x3d8b6e6e	0.06808172
134	0x3e9d2371	0.30691102
135	0x3e0e40a2	0.13891843
136	0x3da09664	0.07841185
137	0x3dba7675	0.09104625
138	0x3d40e954	0.04709752
139	0x3d067b75	0.03283258
140	0xbb358670	-0.002769854
141	0x3d06bb31	0.032893363
142	0xbe2854c5	-0.16438587
143	0xbdf4fc2b	-0.1196216
144	0x3d369343	0.044574033
145	0x3c3d1255	0.011540015
146	0xbdfa9b12	-0.122366086
147	0x3c99f0c8	0.018791571
148	0x3c811fb4	0.015762188
149	0x3d888987	0.06666856
150	0x3d77847a	0.060429074
151	0xbe2a2fb9	-0.16619767
152	0xbca753d3	-0.020425713
153	0xbe0c7579	-0.13716687
154	0xbe3ad1bc	-0.1824407
155	0xbe763653	-0.2404416
156	0xbe63d54a	-0.22249332
157	0xbc575c82	-0.013144614
158	0x3da1dc71	0.07903374
159	0xbd6be747	-0.05759361
160	0xbc892848	-0.01674284
161	0x3d13a455	0.03604539
162	0xbcbb764b	-0.022883555
163	0x3db844f8	0.0899753
164	0x3e219a75	0.15781577
165	0x3d1b3a56	0.03789743
166	0xbe0255dd	-0.12728067
167	0xbc270a80	-0.0101953745
168	0x3ccf6768	0.025317863
169	0xbde8b21f	-0.11362099
170	0xbca3ecfa	-0.02001046
171	0xbdabb4f9	-0.08384127
172	0xbd7de5e8	-0.061986834
173	0x3cf19b83	0.0294931
174	0xbccf6b97	-0.025319858
175	0x3cf6eeb4	0.03014312
176	0x3db72c19	0.08943958
177	0x3d08fc9d	0.033444036
178	0xbbc631f8	-0.006048437
179	0xbda6093b	-0.08107229
180	0x3d2cc3e9	0.042179022
181	0xbdd7467e	-0.10511492
182	0xbda77516	-0.08176629
183	0xbe4cae9d	-0.19988485
184	0xbddceb06	-0.10787015
185	0x3e3d552c	0.18489522
186	0x3c37b4a1	0.011212499
187	0xbe0ea9a1	-0.13931896
188	0xbd0f8962	-0.035043128
189	0xbe0f34c0	-0.13984966
190	0xbdba6f78	-0.09103292
191	0x3de54a20	0.11195779
192	0x3dfc814e	0.123293504
193	0x3e08d049	0.13360704
194	0xbe871c79	-0.2638891
195	0x3cd60710	0.026126415
196	0xbd04af8a	-0.03239397
197	0xbe3d020f	-0.18457817
198	0x3e5d9753	0.21639757
199	0xbd73c4ef	-0.059513982
200	0xbdc8255d	-0.097727515
201	0xbd8ace63	-0.067776464
202	0xbd74368e	-0.05962234
203	0x3b4173f8	0.0029518586
204	0xbc1d7a05	-0.009611611
205	0x3d5feb59	0.054667804
206	0xbe1a1700	-0.15047836
207	0xbd8f160c	-0.06986627
208	0xbdd82a27	-0.10554915
209	0xbdec5448	-0.11539513
210	0xbdf44299	-0.11926765
211	0xbe156d42	-0.1459246
212	0xbd4b4f53	-0.049636196
213	0x3de9e020	0.114197016
214	0x3dced561	0.100992925
215	0x3d73f9a0	0.059564233
216	0x3cf27b91	0.029599937
217	0xbd1a8159	-0.03772101
218	0x3d0be1fc	0.034151062
219	0x3b683d3a	0.0035436885
220	0x3d5bceca	0.053664006
221	0xbe0ef03c	-0.1395883
222	0xbe3de3e1	-0.1854396
223	0xbe1685ce	-0.1469948
224	0xbc2fc546	-0.010728186
225	0xbd5a82f7	-0.053347554
226	0xbcdb8797	-0.026798053
227	0x3dc79fd1	0.097472794
228	0xbdcf9872	-0.101364985
229	0xbd4c8bcf	-0.04993802
230	0xbc3a4c46	-0.011370724
231	0xbe3b0dc6	-0.18266973
232	0xbc126e6c	-0.008937459
233	0xbc33501f	-0.010944395
234	0xbe09e62a	-0.13466707
235	0xbe348413	-0.17628507
236	0xbe3d3fdf	-0.18481396
237	0xbdc9d24d	-0.09854565
238	0xbe02e166	-0.12781295
239	0xbe11b801	-0.14230348
240	0xbde6b738	-0.11265415
241	0x3d66342c	0.0562021
242	0x3de26268	0.11053926
243	0x3e405694	0.18783027
244	0x3d8a02a7	0.06738787
245	0xbca172c0	-0.019708037
246	0xbd484789	-0.048896346
247	0xbdcfcc51	-0.10146392
248	0xbe949e40	-0.29026985
249	0xbe883832	-0.26605374
250	0xbe5835c0	-0.21114254
251	0x3cf4ade2	0.02986807
252	0x3cffdb89	0.031232612
253	0xbe0ad627	-0.13558255
254	0xbd0d2cb2	-0.034466453
255	0xbd739569	-0.05946866

fc1.bias f4 [256]
0	0x3dbba663	0.09162595
1	0x3d4bb266	0.04973068
2	0xbe276f1d	-0.1635098
3	0xbd2f6b3c	-0.042826876
4	0xbe37bac8	-0.17942345
5	0xbdef3140	-0.116793156
6	0x3deed586	0.1166182
7	0xbe63890e	-0.22220251
8	0x3cf196f6	0.02949093
9	0xbdebd50a	-0.11515243
10	0xbdadb0e2	-0.08481003
11	0xbe821653	-0.25407657
12	0xbe135b10	-0.14390206
13	0xbdd1fba0	-0.10253072
14	0x3d0cc346	0.034365915
15	0xbcb18419	-0.021669434
16	0xbd9449f6	-0.072406694
17	0xbc3ddd5f	-0.0115884235
18	0xbdc3ae22	-0.095546976
19	0xbd9fc7f6	-0.078018114
20	0xbd2a2a86	-0.04154446
21	0xbdb5ef1e	-0.088834986
22	0xbde68a47	-0.11256843
23	0x3d5e137c	0.0542178
24	0xbd7818a4	-0.060570374
25	0xbd83c728	-0.064344704
26	0xbd007ebf	-0.031370874
27	0xbde9bfaf	-0.11413514
28	0xbd1a183d	-0.03762077
29	0x3d9f0af6	0.077657625
30	0xbc25883a	-0.01010328
31	0xbd925541	-0.07145167
32	0xbe65b64f	-0.22432826
33	0xbe46f4c6	-0.19429311
34	0x3be97ee7	0.0071257236
35	0xbdbbd897	-0.091721706
36	0xbcda9f98	-0.026687428
37	0xbd9ce442	-0.07660724
38	0xbe00677c	-0.12539476
39	0xbd74f192	-0.059800692
40	0xbddd2f2f	-0.10800015
41	0xbe0ec4ab	-0.1394221
42	0xbd352fc9	-0.044235025
43	0xbe20547b	-0.15657227
44	0xbc971e91	-0.018447192
45	0x3cc9b438	0.024622068
46	0xbe1618a7	-0.14657842
47	0xbc483667	-0.012220002
48	0xbd88e372	-0.06684007
49	0xbcd0c60d	-0.025485063
50	0xbd767a18	-0.06017503
51	0xbdc9d702	-0.098554626
52	0xbdb4973e	-0.0881791
53	0xbd7e4361	-0.062075976
54	0xbe343922	-0.1759992
55	0xbdda2843	-0.106522106
56	0xbd276d04	-0.04087545
57	0xbd8a929c	-0.06766245
58	0x38eff2c5	0.000114416274
59	0xbdcce472	-0.1000451
60	0xbe3f1cc4	-0.18663317
61	0xbdabe9e7	-0.08394223
62	0x3a04b9c4	0.00050630816
63	0xbd769e3f	-0.06020951
64	0xbdaefbc7	-0.085441165
65	0xbe1f0f75	-0.1553324
66	0xbdf2e4c9	-0.118600436
67	0xbd0ad4f2	-0.033894487
68	0x3df80048	0.12109429
69	0xbbc84974	-0.006112272
70	0xbdeac69e	-0.114636645
71	0x3c73b6b0	0.014875099
72	0xbcc7e495	-0.024400989
73	0x3cc3066c	0.023806773
74	0x3b2e9c62	0.0026643504
75	0x3de46986	0.111529395
76	0x3ca3a176	0.019974452
77	0xbcfcd217	-0.030861897
78	0xbcf50591	-0.02990988
79	0x3cff3753	0.03115431
80	0xbdb28225	-0.08716229
81	0xbdfd2c23	-0.12361934
82	0xbd12a85c	-0.03580509
83	0xbcf34ebb	-0.029700628
84	0x3d754d58	0.059888214
85	0xbde0b845	-0.109726466
86	0xbe0002c8	-0.12501061
87	0xbd84a595	-0.06476895
88	0xbe1c836f	-0.15284513
89	0xbda34a50	-0.07973158
90	0xbd3c376f	-0.045951303
91	0xbcb6c70a	-0.022311706
92	0x3d01c50a	0.03168205
93	0xbca2bea7	-0.0198663
94	0xbb58e947	-0.0033098029
95	0xbd877a46	-0.06615119
96	0x3c5c5f93	0.013450521
97	0xbdeede28	-0.11663467
98	0xbdbe1a7c	-0.09282395
99	0xbde070ab	-0.1095899
100	0xbd84376a	-0.06455882
101	0x3d0b5a14	0.034021452
102	0xbda74920	-0.08168244
103	0xbc8d725c	-0.017266445
104	0xbdcd7412	-0.10031904
105	0x3d16cafb	0.03681467
106	0xbd153475	-0.03642698
107	0xbe1555e9	-0.14583553
108	0xbdb18f7b	-0.08669945
109	0xbd80b0a9	-0.06283695
110	0xbdb95973	-0.09050264
111	0xbdb189a1	-0.08668829
112	0xbd818edf	-0.063260786
113	0xbdb5157f	-0.08841991
114	0xbdab3bbc	-0.08361003
115	0xbe02dfe3	-0.12780719
116	0xbd29ad63	-0.04142512
117	0xbdc08528	-0.094003975
118	0xbd8ed6a5	-0.06974534
119	0x3cc1529d	0.023598963
120	0xbd8d87be	-0.069106564
121	0xbcb2f870	-0.02184698
122	0xbd6dffff	-0.058105465
123	0xbdb39cd5	-0.08770148
124	0xbda508e9	-0.0805834
125	0xbc682c1f	-0.014170676
126	0xbd53419e	-0.05157625
127	0xbdb12cb7	-0.08651107
128	0xbdabd985	-0.08391098
129	0xbe12718f	-0.14301132
130	0xbccfb123	-0.02535302
131	0x3c2afd29	0.010436335
132	0xbbae2342	-0.0053142617
133	0xbd854521	-0.06507326
134	0xbdd5c31e	-0.10437606
135	0xbde8562a	-0.113445595
136	0x3d94c063	0.07263257
137	0xbd751eff	-0.059844013
138	0xbd32170d	-0.043479014
139	0x3d925984	0.0714598
140	0xbd8b8855	-0.06813113
141	0x3d581f58	0.052764267
142	0xbdbb8d01	-0.09157754
143	0x3c8c565b	0.017131021
144	0xbdeeda54	-0.116627365
145	0x3b82db5b	0.0039934344
146	0xbcb0c187	-0.021576656
147	0x3d33a36a	0.043857016
148	0x3dfc3fdd	0.123168685
149	0xbdd07142	-0.10177852
150	0xbe10f00f	-0.14154075
151	0xbdda4c90	-0.106591344
152	0x3c62348e	0.013806475
153	0x3d7220f8	0.059113473
154	0xbda511a7	-0.080600075
155	0xbd954f3d	-0.07290504
156	0x3cf77dca	0.030211348
157	0xbbf782af	-0.0075534205
158	0xbd23fc4b	-0.040035527
159	0xbc5cf2e0	-0.01348564
160	0xbe1d47ee	-0.1535947
161	0xbdad6bf0	-0.08467853
162	0x3cc61dbc	0.0241841
163	0x3c774b4d	0.015093637
164	0x3d9b5996	0.075854465
165	0xbdc6d3b5	-0.09708349
166	0x3c61791e	0.013761787
167	0x3d4bfbca	0.04980067
168	0x3d6db48e	0.05803352
169	0xbc9a5d2d	-0.018843258
170	0xbe1bb3b8	-0.15205276
171	0xbd4f7d34	-0.050656512
172	0xbd61f00a	-0.05516056
173	0xbd89c154	-0.067263275
174	0xbd926b1e	-0.07149337
175	0xbda3f60c	-0.08005914
176	0xbde41020	-0.11135888
177	0xbd6727cb	-0.056434434
178	0xbd8a3a25	-0.067493714
179	0xbd946b6d	-0.07247052
180	0xbdd84063	-0.10559156
181	0x3b3f5c66	0.002919936
182	0xbe1e8a7b	-0.15482514
183	0xbdae8eeb	-0.08523353
184	0xbdcc9dab	-0.0999101
185	0xbd3261d7	-0.04355034
186	0xbd6cb7f2	-0.05779261
187	0xbd192441	-0.03738809
188	0xbd9ef52f	-0.07761609
189	0x3cb1172c	0.021617495
190	0xbe065fd3	-0.13122492
191	0x3cfb6185	0.03068615
192	0x3da014f5	0.07816497
193	0xbd2053cf	-0.039142426
194	0x3c5a16a3	0.013311061
195	0x3c2e5575	0.010640492
196	0x3cb9fd81	0.022703888
197	0x3b54ce83	0.0032471723
198	0xbe1ee8cf	-0.15518497
199	0xbcc3801b	-0.023864796
200	0xbda7cac2	-0.0819297
201	0xbd0d2abf	-0.034464594
202	0x3db31acd	0.08745346
203	0xbcac9032	-0.021064851
204	0xbc8f6916	-0.017506164
205	0xbd539882	-0.051659115
206	0xbdf508dc	-0.119645804
207	0xba3fee87	-0.0007321615
208	0xbd47347e	-0.048634045
209	0xbe1079bb	-0.14108936
210	0xbd8a52d2	-0.06754078
211	0xbbcef87c	-0.0063162427
212	0x3d50066e	0.05078738
213	0xbd4fdafa	-0.05074594
214	0xbd182146	-0.037141107
215	0xbda79e2a	-0.08184464
216	0xbdecd0b2	-0.11563243
217	0xbd174163	-0.036927592
218	0x3b5d9578	0.0033811014
219	0x3d3d06d6	0.046149097
220	0xbd9d4e03	-0.07680895
221	0xbd207841	-0.039177183
222	0xbdb532b9	-0.08847565
223	0xbd60a4b7	-0.054844584
224	0xbcf49746	-0.029857289
225	0x3d026ef9	0.031844113
226	0xbdb2c322	-0.08728625
227	0xbda93362	-0.082617536
228	0xbd23cdcd	-0.03999119
229	0xbcffac3a	-0.031210054
230	0xbd65fd56	-0.056149803
231	0xbe95c0b2	-0.29248577
232	0xbd3e6751	-0.04648525
233	0xbdaf318d	-0.08554373
234	0xbc857ee5	-0.01629586
235	0xbe06b8d7	-0.13156448
236	0xbd1ad369	-0.037799273
237	0xbd9aa58b	-0.07551106
238	0xbe3c6784	-0.18398863
239	0xbdf176af	-0.11790215
240	0xbce7a5d5	-0.028277317
241	0x3d44da27	0.04805961
242	0xbdaa6442	-0.08319904
243	0xbe01c144	-0.12671381
244	0x3d99f530	0.07517469
245	0x3c85d7c1	0.016338231
246	0xbd89d056	-0.0672919
247	0xbd6b9fb4	-0.05752535
248	0xbdd5acc9	-0.10433347
249	0xbd7836d2	-0.060599156
250	0xbd883552	-0.06650795
251	0x3c8fce88	0.017554536
252	0xbd4f86c1	-0.05066562
253	0xbda47b37	-0.08031314
254	0xbdb7c99a	-0.08973999
255	0xbcbd50b4	-0.023109771

fc2.weight f4 [128, 256]
0	0xbe935a10	-0.2877965
1	0xbe070a25	-0.13187464
2	0xbed0c1e4	-0.40772927
3	0x3c5be8a9	0.01342217
4	0x3d78a5a4	0.060704842
5	0x3e0aff68	0.13573992
6	0xbd4d367d	-0.050100792
7	0xbd510739	-0.05103228
8	0xbdaf12bd	-0.08548496
9	0xbc74f54d	-0.014951062
10	0x3c7e9f94	0.015540976
11	0xbd711488	-0.05885747
12	0xbd8bee2e	-0.068325385
13	0xbe56c1c7	-0.20972358
14	0xbe7514e2	-0.23933747
15	0xbda5f87f	-0.081040375
16	0xbd0aef8a	-0.03391985
17	0xbca59ef4	-0.020217396
18	0x3de2b05e	0.110687956
19	0x3d7a25b7	0.061071124
20	0xbe2a5532	-0.16634062
21	0xbd007dd5	-0.031370003
22	0xbba6a94f	-0.005086101
23	0xbe5b1a0c	-0.21396655
24	0x3dccdad1	0.100026734
25	0x3dc7c08f	0.097535245
26	0xbe1fe202	-0.15613559
27	0xbe0791d6	-0.13239226
28	0xbe05c218	-0.13062322
29	0x3e2eae89	0.17058767
30	0x3da113b2	0.07865085
31	0xbdff938d	-0.12479315
32	0xbd00caa8	-0.031443268
33	0x3b94a107	0.0045357975
34	0xbd4fd233	-0.05073757
35	0xbd5eece6	-0.054425143
36	0xbe22b6b9	-0.15890016
37	0xbe375d5f	-0.17906712
38	0xbca98f3d	-0.020698184
39	0x3c8138b8	0.015774116
40	0xbd86a215	-0.065738834
41	0xbdbb3d5e	-0.09142564
42	0x3e52410d	0.20532627
43	0xbe806387	-0.25075933
44	0xbda6832e	-0.08130489
45	0xbddf28a6	-0.10896425
46	0x3c3d9c18	0.01157286
47	0xbd04cd8a	-0.03242258
48	0x3e1be12d	0.15222616
49	0xbcf0bfd2	-0.029388342
50	0xbdeb8d16	-0.115015194
51	0x3d8861bc	0.06659266
52	0x3d8948ef	0.06703364
53	0xbe13f019	-0.14447059
54	0xbe157a38	-0.14597404
55	0x3d786a3a	0.06064818
56	0xbd15c0fd	-0.036561
57	0xbdb3362b	-0.08750566
58	0xbd6ccdea	-0.057813562
59	0x3d1a206d	0.03762858
60	0xbe3cafc9	-0.18426432
61	0xbe6e0ea1	-0.23247768
62	0x3c9364e9	0.017992454
63	0xbd2bab82	-0.04191161
64	0x3c7084b2	0.0146800745
65	0xbc9798ee	-0.01850554
66	0xbab04960	-0.0013449602
67	0xbdec69de	-0.1154363
68	0xbe2de80d	-0.16983052
69	0xbdde4d77	-0.10854619
70	0xbe4fd422	-0.20295766
71	0xbb99de5b	-0.0046956963
72	0xbe3dd598	-0.18538511
73	0x3e3d87e5	0.18508871
74	0x3c412815	0.011789341
75	0xbde796c9	-0.11308057
76	0xbcd97f01	-0.026549818
77	0xbc97dbea	-0.01853748
78	0xbcc76616	-0.02434067
79	0xbe4d6390	-0.20057511
80	0x3dcd06b1	0.10011042
81	0xbcfc7200	-0.030816078
82	0xbe6d23d8	-0.23158205
83	0x3c924b41	0.01785815
84	0xbd1bedff	-0.038068768
85	0x3d74ad08	0.059735328
86	0x3b82cfcf	0.003992058
87	0x3cdc2dca	0.026877303
88	0xbd3cbab5	-0.046076495
89	0xbe322459	-0.17396678
90	0xbb48be95	-0.0030631174
91	0xbea6d644	-0.32585347
92	0xbe595b7d	-0.21226306
93	0xbdd4e8d3	-0.1039597
94	0xbe7cf5e0	-0.24703169
95	0xbdbbf5e9	-0.09177763
96	0xbc51022c	-0.0127568655
97	0x3d8dda6b	0.069264255
98	0x3dbef4d8	0.09324044
99	0xbe0db89a	-0.13839951
100	0x3d59f876	0.053215466
101	0xbeaa92d0	-0.33315134
102	0x3d2bcd7a	0.041944005
103	0x3d66f5c7	0.056386735
104	0xbd7d3aec	-0.06182377
105	0xbe407b4e	-0.18797037
106	0xbda79dd6	-0.08184402
107	0xbe0aaaf2	-0.13541773
108	0xbdaccc21	-0.08437372
109	0xbde063b2	-0.10956515
110	0xbe6ff2de	-0.2343249
111	0x3c021a91	0.007940904
112	0xbd8d6230	-0.069034934
113	0xbdd1c6fd	-0.10243032
114	0x3df97b2d	0.12181697
115	0x3d0848c2	0.033272512
116	0x3db4e66d	0.08833013
117	0xbe4b6084	-0.19861037
118	0xbdc156a9	-0.09440357
119	0xbdacb08c	-0.08432111
120	0xbdede89e	-0.11616634
121	0x3b28b869	0.0025744683
122	0xbd98506c	-0.07437214
123	0xbdd87f06	-0.10571103
124	0x3c476ccd	0.012171936
125	0xbc8e675d	-0.017383272
126	0x3cbd1158	0.02307956
127	0xbb995562	-0.004679368
128	0xbd118e54	-0.035536125
129	0xbce304ff	-0.027712343
130	0xbd5a42ff	-0.05328655
131	0xbde7395e	-0.11290239
132	0x3e9b1251	0.30287412
133	0xbe4f09e0	-0.20218611
134	0xbd9bec85	-0.07613472
135	0x3e30b778	0.17257488
136	0x3f00bdda	0.5028969
137	0xbda9bf8e	-0.08288489
138	0xbd2fce32	-0.042921253
139	0xbe8be1db	-0.27320752
140	0xbe27aba7	-0.16374074
141	0xbe64112d	-0.22272177
142	0x3d04e7f6	0.032447778
143	0xbdf3161f	-0.11869454
144	0x3d6b67e9	0.057472143
145	0xbe5b117a	-0.21393386
146	0xbe39e6fe	-0.18154523
147	0xbd1f0aac	-0.038828537
148	0xbe75049e	-0.23927543
149	0xbdd75e56	-0.1051604
150	0xbdb64e17	-0.08901613
151	0xbe833359	-0.25625113
152	0xbe3e0b66	-0.18559036
153	0xbccd46f5	-0.025058249
154	0x3da6f9bf	0.08153104
155	0xbdf59d72	-0.11992921
156	0x3b307cf3	0.0026929944
157	0xbdf04782	-0.11732389
158	0xbb4b4fd0	-0.0031022914
159	0xbd226c8a	-0.039654292
160	0xbe96ecd1	-0.29477552
161	0xbcc3e0e7	-0.023910953
162	0xbdf86063	-0.12127759
163	0x3d324961	0.04352701
164	0xbd4f99f7	-0.05068394
165	0xbdbc97c7	-0.09208637
166	0xbe9a172c	-0.30095804
167	0xbda7ff6f	-0.08203017
168	0xbd107bbf	-0.035274263
169	0xbdca5a33	-0.098804854
170	0xbc5374d1	-0.012906269
171	0xbe1fee2f	-0.15618204
172	0x3a14abc8	0.00056713494
173	0x3a46f093	0.0007588949
174	0xbdd023cf	-0.1016308
175	0xbda8a0ac	-0.08233771
176	0x3c196476	0.009362331
177	0x3d212824	0.03934492
178	0x3dd06ce3	0.101770185
179	0xbe1b4820	-0.15164232
180	0xbe2e6d34	-0.17033845
181	0x3dcbdfc0	0.09954786
182	0xbd4acdee	-0.049512796
183	0x3d07288e	0.03299766
184	0x3d16b00a	0.036788978
185	0x3ca758ba	0.02042805
186	0xbcc6ea31	-0.024281593
187	0xbd42b85c	-0.0475391
188	0xbd038df7	-0.03211781
189	0xbe051880	-0.12997627
190	0x3df1052f	0.11768567
191	0xbe17bb57	-0.14817558
192	0xbe80fb08	-0.25191522
193	0xbde4cf99	-0.111724086
194	0xbe8f2dc5	-0.27964607
195	0xbdcf5753	-0.10124078
196	0x3d479cfc	0.048733696
197	0xbd0a2c95	-0.033733923
198	0xbe1822b2	-0.14856985
199	0x3dc923b1	0.09821261
200	0x3d20ae91	0.03922898
201	0xbde698f9	-0.11259646
202	0xbe94af44	-0.29039967
203	0x3d8ca228	0.06866866
204	0xbbed56b1	-0.0072430004
205	0xbd88c419	-0.06678028
206	0xbc8241cd	-0.015900517
207	0xbd286a07	-0.04111674
208	0xbba84469	-0.0051351083
209	0x3cc2c13b	0.02377378
210	0xbeda0602	-0.4258271
211	0xbd04f590	-0.03246075
212	0xbc26fbb5	-0.010191848
213	0xb6a5fa51	-4.946524e-06
214	0xbd181382	-0.03712798
215	0xbcd5de6e	-0.02610704
216	0x3e325352	0.17414597
217	0x3daa0b46	0.083029315
218	0x3edf49b6	0.43610924
219	0xbd754951	-0.059884373
220	0x3dbb7b53	0.091543816
221	0xbdc33cc5	-0.09533075
222	0x3d33d597	0.043904867
223	0x3d90b944	0.070665866
224	0xbd1285c2	-0.035772093
225	0xbdc96070	-0.09832847
226	0xbb51f2b2	-0.0032035527
227	0xbd5544d1	-0.05206758
228	0xbbc945ff	-0.0061423774
229	0xbdb2e35c	-0.087347716
230	0xbe017708	-0.12643063
231	0x3e3d85f3	0.18508129
232	0x3d16c791	0.036811415
233	0x3af3e488	0.0018607536
234	0xbd9787cb	-0.07398947
235	0x3d3495b7	0.04408809
236	0xbd5bdae1	-0.053675536
237	0xbe1f75c4	-0.15572268
238	0x3de85a78	0.113453805
239	0x3d319511	0.04335505
240	0xbdc6fbe0	-0.0971601
241	0xbd7d4038	-0.061828822
242	0x3b92f733	0.004485035
243	0x3db5fbac	0.08885893
244	0x3dc5d2cb	0.09659346
245	0xbe80a683	-0.25127038
246	0x3d446a84	0.047953144
247	0x3df2c400	0.1185379
248	0xbd795307	-0.060870197
249	0xbd9aca35	-0.07558099
250	0x3d3dbff3	0.046325635
251	0xbeceb5a5	-0.4037296
252	0x3d0e56c8	0.03475073
253	0x3d7560e8	0.05990687
254	0x3c0be971	0.0085395435
255	0xbe7411c5	-0.23834904

fc2.bias f4 [128]
0	0xbe6ed28d	-0.23322506
1	0x3d70c4f6	0.058781587
2	0x3cb140f4	0.021637417
3	0xbda9da42	-0.082935825
4	0xbd50a8c3	-0.050942194
5	0x3e004c2c	0.12529057
6	0xbd5d5371	-0.054034654
7	0xbe02b068	-0.12762606
8	0xbda11f34	-0.0786728
9	0x3d6bb831	0.057548705
10	0xbe270895	-0.16311868
11	0xbd893cbe	-0.06701039
12	0xbe24441c	-0.16041607
13	0xbd351aab	-0.044214886
14	0xbd29c9a4	-0.041452065
15	0xbdceceba	-0.10098024
16	0x3cae4b05	0.021276006
17	0xbd56e5e2	-0.052465327
18	0xbe9d2f3a	-0.30700094
19	0xbe746531	-0.23866726
20	0xbe5629b3	-0.20914344
21	0x3db34170	0.087527156
22	0x3b64fd57	0.0034941041
23	0xbc985afe	-0.018598076
24	0xbdd08e49	-0.10183389
25	0x3d0e27b6	0.03470584
26	0xbdddf44b	-0.10837611
27	0xbdb798c0	-0.089646816
28	0xbe8280a5	-0.25488773
29	0xbc5cca2b	-0.013475935
30	0xbdc994e2	-0.0984285
31	0x3e04d6c7	0.12972556
32	0x3d154559	0.03644309
33	0x3e85272e	0.26006454
34	0xbdbf8455	-0.09351412
35	0xbd4ee04f	-0.050506886
36	0x3d60c876	0.054878674
37	0xbe701848	-0.23446763
38	0xbd29d011	-0.041458193
39	0xbd483c61	-0.048885707
40	0xbda1412e	-0.0787376
41	0xbdc61223	-0.09671428
42	0xbca8aa9f	-0.020589171
43	0x3cbcda24	0.023053236
44	0xbdcf1994	-0.101123005
45	0xbc1c3de3	-0.009536239
46	0x3c52a850	0.012857512
47	0xbefcce6b	-0.49376234
48	0xbd7b2069	-0.061310206
49	0x3e415187	0.18878756
50	0xbd9908f6	-0.07472412
51	0xbd2f0b42	-0.042735346
52	0x3d6d824a	0.05798558
53	0xbcbf33b6	-0.023340087
54	0x3d9dc4ca	0.0770355
55	0xbd54091c	-0.0517665
56	0xbd6db5ab	-0.05803458
57	0x3dadac7e	0.08480166
58	0xbe856578	-0.26053977
59	0xbd8d5048	-0.06900078
60	0xbd881293	-0.06644168
61	0xbe765cfd	-0.2405891
62	0xbe198e8d	-0.14995785
63	0xbdcb83f2	-0.09937276
64	0xbd7cb9c1	-0.061700586
65	0xbe733560	-0.2375083
66	0x3c0096b0	0.007848427
67	0xbe465062	-0.19366601
68	0xbe10df61	-0.14147712
69	0x3daa16f1	0.08305157
70	0xbd28bf60	-0.041198134
71	0xbdab78d2	-0.08372654
72	0xbda8464c	-0.08216533
73	0xbd844897	-0.06459158
74	0xbcefce99	-0.029273318
75	0xbd97a4e4	-0.07404497
76	0xbda5e276	-0.080998346
77	0x3db6a52d	0.089182235
78	0x3e62ebab	0.22160213
79	0xbd9a8bc8	-0.075461924
80	0xbc9ace4e	-0.018897202
81	0x3dc18aea	0.09450324
82	0xbdaf003c	-0.085449666
83	0xbddc1c21	-0.10747553
84	0x3cde8ea8	0.027167633
85	0x3d80e7cf	0.06294214
86	0xbdb5440b	-0.08850869
87	0x3e09c601	0.13454439
88	0xbd3063d0	-0.04306394
89	0xbe024e7a	-0.12725249
90	0xbe76dc69	-0.24107517
91	0xbe27c89f	-0.16385125
92	0xbdbb5208	-0.091465056
93	0x3d8b38c9	0.0679794
94	0xbdbf7d7c	-0.09350106
95	0xbd05870a	-0.032599486
96	0xbd830cdf	-0.06398939
97	0xbcaea64a	-0.021319527
98	0xbe6096ac	-0.21932477
99	0xbd911be7	-0.070854
100	0xbcb2dd37	-0.021834
101	0xbc9655af	-0.018351404
102	0xbd92a822	-0.07160975
103	0x3c2d7da4	0.010589037
104	0xbe1295b6	-0.14314923
105	0xbe66ccf5	-0.22539122
106	0x3cd4a89c	0.025959305
107	0xbdb3f467	-0.087868504
108	0xbe4887bc	-0.19583029
109	0xbe83a1e9	-0.25709465
110	0xbd297ffe	-0.04138183
111	0xbe06f48b	-0.13179223
112	0x3cf0c4e6	0.029390763
113	0xbe0a5d6c	-0.135122
114	0xbe15137e	-0.14558217
115	0xbd680b04	-0.05665113
116	0xbe384b67	-0.17997514
117	0x3d28a099	0.041168783
118	0xbaa669ce	-0.0012696327
119	0x3df8d111	0.12149251
120	0xbe3082a3	-0.17237334
121	0xbdb85e66	-0.0900238
122	0xbe86887e	-0.2627601
123	0xbe1cf434	-0.15327531
124	0xbe353044	-0.17694193
125	0xbddb64a6	-0.107125565
126	0xbdcc1440	-0.099648
127	0xbd2fc109	-0.042908702

fc3.weight f4 [64, 128]
0	0xbd81f0d1	-0.0634476
1	0xbe49859f	-0.19679879
2	0xbcbdcbb5	-0.023168424
3	0x3dab2d82	0.08358289
4	0xbec04d77	-0.375591
5	0x3e5bd5e8	0.21468318
6	0xbebe11cc	-0.37122953
7	0xbd361d7a	-0.044461705
8	0x3d8af6be	0.067853436
9	0xbcce4bd7	-0.025182648
10	0xbda5b81b	-0.08091756
11	0x3c2ad98c	0.010427844
12	0xbe597a90	-0.2123816
13	0xbea1c830	-0.31598043
14	0x3ddbd4c6	0.10733943
15	0x3d6f2f62	0.058394797
16	0xbdd5a20d	-0.10431299
17	0x3c7703c4	0.015076581
18	0xbd6bc04a	-0.057556428
19	0x3cb7731c	0.022393756
20	0x3d8dea57	0.069294624
21	0xbdd77bc4	-0.10521653
22	0xbe532157	-0.20618187
23	0xbe86857a	-0.2627371
24	0xbe38b59a	-0.18038025
25	0xbe3f85ef	-0.18703435
26	0x3caac6f0	0.020846814
27	0x3e107f30	0.14111018
28	0x3d7b67fe	0.06137847
29	0xbe9a62b7	-0.30153438
30	0xbd46f3f7	-0.048572507
31	0x3a4d3d8a	0.00078292994
32	0xbe0d2031	-0.13781811
33	0xbe707e2f	-0.23485635
34	0xbec3539f	-0.38149735
35	0xbde36aea	-0.111043766
36	0xbc47761c	-0.012174156
37	0x3cbecbe9	0.023290591
38	0xbc8383ce	-0.01605406
39	0xbe1c9722	-0.15292028
40	0x3d167152	0.036729164
41	0xbe4dd3cc	-0.20100325
42	0xbe4cd474	-0.2000292
43	0xbe0e9177	-0.13922678
44	0xbe1b7272	-0.15180376
45	0xbd698d6f	-0.057019647
46	0xbe5b9cb1	-0.21446492
47	0xbca277ff	-0.01983261
48	0x3d888eaf	0.0666784
49	0xbe539ec4	-0.20666033
50	0x3e3c9265	0.1841522
51	0xbd34d0a1	-0.044144277
52	0xbcbabda0	-0.022795498
53	0xbe5e3ef9	-0.2170371
54	0xbe7483b5	-0.23878367
55	0x3cae6e3b	0.021292796
56	0xbe4d0465	-0.20021208
57	0xbd766234	-0.060152248
58	0xbe3b9c6f	-0.18321393
59	0xbe37c4b3	-0.17946129
60	0x3e1bcf08	0.15215695
61	0xbe268af5	-0.16263945
62	0xbe1db19d	-0.15399785
63	0xbdde0010	-0.10839856
64	0x3cd69e5e	0.026198562
65	0xbd0c743c	-0.034290537
66	0xbd0c73d4	-0.03429015
67	0x39cb8d6e	0.0003882455
68	0x3acf0400	0.0015794039
69	0xbe1d6170	-0.153692
70	0xbdf1d665	-0.11808471
71	0xbcc3eefd	-0.02391767
72	0xbe411946	-0.18857297
73	0xbd221363	-0.03956927
74	0xbeda1d1a	-0.42600328
75	0x3b8cd30c	0.0042976197
76	0xbdedc79c	-0.11610338
77	0xbd8b5a6d	-0.06804357
78	0xbc18e382	-0.009331586
79	0x3d3e0533	0.046391677
80	0xbcd9ea5b	-0.026601007
81	0xbd43f516	-0.047841154
82	0xbdd93e65	-0.10607604
83	0x3d116347	0.03549507
84	0x3b0407e2	0.00201463
85	0x3da0965f	0.07841181
86	0xbe40060c	-0.18752307
87	0xbdb4e984	-0.08833602
88	0x3d76f03f	0.06028771
89	0x3cbab951	0.022793444
90	0xbd459885	-0.048241157
91	0xbd4ade01	-0.049528126
92	0xbdfec843	-0.12440541
93	0xbe200db0	-0.15630221
94	0xbe1cd73e	-0.15316483
95	0xbe8c97fb	-0.27459702
96	0xbddf7337	-0.10910647
97	0xbea7f3ce	-0.32803196
98	0xbe226b41	-0.15861227
99	0xbea6eb54	-0.32601416
100	0xbceb96f9	-0.028758513
101	0xbe243f33	-0.16039734
102	0xbd3df97a	-0.046380498
103	0xbe5c5847	-0.2151805
104	0xbdceb198	-0.10092467
105	0x3d66d7ba	0.056358077
106	0xbdfba244	-0.12286809
107	0x3ce0d99c	0.027447514
108	0x3e00b6ed	0.1256978
109	0x3dede171	0.11615265
110	0xbd85abe3	-0.065269254
111	0x3c9f754e	0.019465115
112	0xbdc3b058	-0.09555119
113	0xbe13a2ad	-0.14417525
114	0xbd9d1f46	-0.076719806
115	0xbe143a31	-0.14475323
116	0xbe82a28c	-0.25514638
117	0xbd41631f	-0.04721367
118	0xbe1e3662	-0.15450433
119	0xbdc6fdf7	-0.09716409
120	0xbc64e45a	-0.013970459
121	0x3d15d7c2	0.036582716
122	0xbdf8bc7f	-0.12145328
123	0x3c2af92b	0.010435383
124	0xbe08dd05	-0.13365562
125	0xbd91f929	-0.07127602
126	0xbcddde55	-0.027083555
127	0xbdcd38e9	-0.100206204
128	0x3cfc038b	0.030763408
129	0x3d7feb6f	0.062480386
130	0x3e4ab6bb	0.19796269
131	0x3dcdbbd7	0.10045593
132	0x3b61b85f	0.003444217
133	0xbe010486	-0.12599382
134	0xbd55b2ab	-0.052172344
135	0xbc92486d	-0.0178568
136	0xbdba3d91	-0.09093774
137	0xbd5323c4	-0.05154778
138	0xbdaab524	-0.08335331
139	0x3cbe43f0	0.023225754
140	0xbbaeeb01	-0.0053380732
141	0x3cc89379	0.024484383
142	0x3c508f9f	0.012729554
143	0x3d59a144	0.05313231
144	0xbde8824c	-0.11352977
145	0x3d92749c	0.07151148
146	0xbe3b58ca	-0.18295589
147	0x3c41d59c	0.011830714
148	0x3d4fe6e7	0.050757315
149	0x3e19b0fb	0.15008919
150	0xbe188acb	-0.14896695
151	0xbdf264b9	-0.118356176
152	0xbdf59883	-0.1199198
153	0x3dcae37d	0.09906671
154	0x3c194a2c	0.009356063
155	0x3d2aa00d	0.041656543
156	0x3ea119bc	0.31464946
157	0xbea023fa	-0.31277448
158	0x3d3b00fd	0.04565524
159	0xbdf582af	-0.119878165
160	0xbe270492	-0.16310337
161	0xbe04e661	-0.12978508
162	0xbe2823e0	-0.16419935
163	0xbd25b4e6	-0.04045572
164	0xbcfd0c29	-0.030889587
165	0xbdb012da	-0.08597346
166	0xbe030280	-0.12793922
167	0xbdb23533	-0.08701553
168	0xbc1de425	-0.009636913
169	0xbdbe00a6	-0.092774674
170	0xbcf45285	-0.029824505
171	0xbd1de6ee	-0.03855031
172	0xbe3d0e9a	-0.18462601
173	0xbc74c8b4	-0.0149404295
174	0x3dbd1a55	0.09233538
175	0x3d4b1ce7	0.04958811
176	0xbdc70dcd	-0.09719429
177	0x3dd19f54	0.102354676
178	0xbe135e84	-0.14391524
179	0x3d72c44c	0.059269235
180	0xbc57deea	-0.013175705
181	0xbd701e21	-0.058622483
182	0x3bcc7699	0.006239724
183	0x3d75bc51	0.059994046
184	0xbc9a0239	-0.018799888
185	0xbdb94e50	-0.0904814
186	0xbe597332	-0.2123535
187	0xbe7c7011	-0.24652125
188	0xbded364e	-0.115826234
189	0x3d870532	0.06592788
190	0x3e539d2d	0.20665427
191	0x3e0090cb	0.12555234
192	0x3d3cc63e	0.046087496
193	0x3d4801d7	0.04882988
194	0xbcd60568	-0.026125625
195	0xbd7c73c2	-0.061633833
196	0xbdfa51f7	-0.12222665
197	0xbd41aa9d	-0.04728185
198	0x3e59cb0c	0.21268862
199	0xbd1b93cc	-0.037982747
200	0x3d73ba5b	0.059503894
201	0xbd125f2a	-0.035735287
202	0xbdcf9f51	-0.10137809
203	0x3e0b6b8b	0.13615243
204	0xbd218411	-0.03943259
205	0x3e12e9d8	0.14347017
206	0x3dc9c40b	0.09851845
207	0x3e6f3d68	0.23363268
208	0xbc81bf2b	-0.015838226
209	0x3d2c3416	0.04204186
210	0x3de11460	0.10990214
211	0x3cb040d2	0.021515284
212	0x3d132c44	0.035930887
213	0x3c1e7559	0.009671533
214	0xbd24d5fe	-0.04024314
215	0x3de3829c	0.11108896
216	0x3c807603	0.015681272
217	0xbe827208	-0.25477624
218	0xbcef7a82	-0.029233221
219	0xbe2ad3ef	-0.16682409
220	0x3d31e4c3	0.043431055
221	0x3d0ed841	0.034874205
222	0xbdc8d5ee	-0.09806429
223	0xbe59548f	-0.21223663
224	0xbdddc5e1	-0.10828758
225	0x3e0ba8a6	0.13638553
226	0xbe35d783	-0.17757992
227	0xbe2536e3	-0.16134219
228	0x3bf40ef6	0.0074480725
229	0x3cf5352e	0.029932585
230	0xbc7de03c	-0.015495356
231	0xbd595fbc	-0.053069815
232	0xbe57a72e	-0.21059868
233	0x3ddf7690	0.10911286
234	0x3e191de0	0.14952803
235	0xbcb2dbf5	-0.0218334
236	0x3dce250a	0.100656584
237	0xbd940866	-0.072281644
238	0x3ca74c72	0.020422194
239	0xbc2e39f8	-0.010633938
240	0xbce900f6	-0.028442841
241	0x3d7c9a8b	0.06167082
242	0xbd75a41a	-0.059970953
243	0xbdfd7eeb	-0.12377723
244	0xbd1386d1	-0.036017243
245	0xbe0e631e	-0.13904998
246	0xbd6e800a	-0.058227576
247	0x3da11d90	0.07866967
248	0x3d2e0508	0.042485267
249	0xbd42e6df	-0.047583457
250	0x3e10deb7	0.14147459
251	0xbcaa4f45	-0.020789752
252	0x3e646ea9	0.22307838
253	0xbc99c090	-0.018768579
254	0xbd0fb0c6	-0.035080694
255	0xbbf140a8	-0.007362444

fc3.bias f4 [64]
0	0xbe9f86d6	-0.3115756
1	0x3e1d02a5	0.1533304
2	0xbd5e8f4b	-0.054335874
3	0x3c795745	0.015218561
4	0x3cdbade6	0.02681632
5	0x3dba2f00	0.09090996
6	0xbe86d626	-0.26335257
7	0x3d051092	0.032486506
8	0x3e02f80f	0.1278994
9	0x3e317240	0.17328739
10	0x3dbc2420	0.09186578
11	0x3e1742ec	0.14771622
12	0x3cc4c9f2	0.024022076
13	0xbe0f0a7f	-0.13968848
14	0x3e5ae44b	0.2137615
15	0x3d258686	0.040411495
16	0x3e22b4c6	0.15889272
17	0xbcb5091c	-0.02209907
18	0xbdf2e83b	-0.11860701
19	0x3e129258	0.14313638
20	0x3ca7a48f	0.02046421
21	0x3e9e89fc	0.3096465
22	0xbdccd8b2	-0.10002269
23	0x3c5c060a	0.013429174
24	0xbe527da9	-0.20555748
25	0x3d831ae7	0.064016156
26	0x3dbf3f68	0.09338266
27	0xbdaf29ec	-0.08552918
28	0x3dd37820	0.103256464
29	0xbd03d65a	-0.032186843
30	0x3e7ad9f6	0.24497208
31	0xbd3fd50a	-0.04683403
32	0xbde695f5	-0.11259071
33	0x3e886db0	0.26646185
34	0xbcd45363	-0.025918668
35	0xbe379f0c	-0.17931765
36	0xbd376377	-0.04477259
37	0x3cc0d0bf	0.023537038
38	0x3c6955af	0.01424162
39	0x3cacc6e1	0.021090927
40	0x3e433881	0.19064523
41	0x3d69779b	0.05699883
42	0xbe4dad9a	-0.20085755
43	0xbe33655f	-0.17519139
44	0xbd407826	-0.046989582
45	0xbeaa3643	-0.33244523
46	0xbc4634da	-0.012097562
47	0x3ce2c393	0.027681148
48	0x3ca1bdf8	0.019743904
49	0x3da9c528	0.08289558
50	0xbd229abe	-0.039698355
51	0xbdfe3543	-0.124125026
52	0xbe89745e	-0.26846594
53	0xbe402447	-0.18763839
54	0xbd2ac987	-0.041696098
55	0x3dbb00cf	0.091310136
56	0xbe468b02	-0.19388965
57	0xbe1ee5a6	-0.15517291
58	0xbd675556	-0.056477867
59	0x3c53b7f6	0.012922278
60	0xbd55a9f1	-0.052164022
61	0x3e192ca3	0.14958434
62	0x3db14189	0.08655078
63	0x3e912c72	0.28354222

fc4.weight f4 [10, 64]
0	0xbe925f4c	-0.2858833
1	0xbe853c07	-0.2602236
2	0xbdee2c97	-0.116295986
3	0xbdd1f319	-0.10251445
4	0xbbd305ed	-0.0064399154
5	0xba9847bc	-0.0011618058
6	0x3d81ff39	0.06347508
7	0x3dc2c17c	0.095095605
8	0xbdf853ff	-0.12125396
9	0xbdf3f630	-0.11912191
10	0x3de2b996	0.11070554
11	0xbe032556	-0.12807211
12	0xbd83579e	-0.06413196
13	0x3ce1c97e	0.0275619
14	0xbe5ee877	-0.21768366
15	0xbe6eb3d0	-0.2331078
16	0x3da3a6d2	0.07990803
17	0xbcc97053	-0.024589693
18	0xbebc5761	-0.36785415
19	0x3badb857	0.005301516
20	0xbe2a4342	-0.1662722
21	0xbe1360df	-0.14392422
22	0x3d76bafe	0.060236923
23	0x3dfca416	0.123359844
24	0xbe41c7c5	-0.18923862
25	0xbdc28743	-0.094984554
26	0xbe2afb5b	-0.16697447
27	0xbbc23c1b	-0.0059275753
28	0xba536784	-0.0008064436
29	0xbd92d398	-0.071692646
30	0xbe77639e	-0.24159095
31	0xbd92c0be	-0.07165669
32	0xbdee391d	-0.11631987
33	0x3d5b1862	0.05349005
34	0x3d659ee4	0.056059733
35	0x3dfabc27	0.122429185
36	0xbe11f2be	-0.14252755
37	0x3e142e78	0.14470851
38	0xbe3acbf4	-0.18241864
39	0xbdcdebe1	-0.10054756
40	0x3da1b09c	0.07895014
41	0xbd47c0eb	-0.048767965
42	0x3cb7a56a	0.022417743
43	0x3bc01166	0.005861449
44	0x3d8b6943	0.068071865
45	0xbcf3d918	-0.029766604
46	0x3e2722dc	0.16321892
47	0x3e2ef356	0.17085013
48	0xbdff576b	-0.124678455
49	0x3e0535c6	0.13008794
50	0x3dbf0433	0.09326973
51	0xbc32b24b	-0.010906766
52	0x3e1fcfcc	0.15606612
53	0xbe9460e1	-0.28980163
54	0x3d2184a6	0.039433144
55	0xbea14928	-0.31501126
56	0xbe2bfa06	-0.16794595
57	0xbf611f80	-0.8793869
58	0xbd2a4488	-0.041569263
59	0x3deda66d	0.11604009
60	0xbea52e6d	-0.32261983
61	0xbe10c34d	-0.14137001
62	0xbe5f40be	-0.21802041
63	0xbe34abe3	-0.17643695
64	0x3df5597b	0.11979958
65	0x3e10fe01	0.14159395
66	0x3cdf7427	0.027277065
67	0xbe57eea4	-0.21087128
68	0x3e04cd73	0.12968998
69	0xbe923365	-0.28554836
70	0x3d1dd70e	0.03853517
71	0xbdf355a5	-0.1188157
72	0xbdb6f2d2	-0.08933033
73	0xbd42261c	-0.047399625
74	0x3d86d508	0.06583601
75	0xbe4ded50	-0.20110059
76	0x3d1c0c0b	0.038097423
77	0xbe330f87	-0.17486392
78	0x3d8e6254	0.06952348
79	0xbd5d374a	-0.054007806
80	0xbe4894ad	-0.19587965
81	0x3c30e47e	0.010796664
82	0x3dd8847a	0.10572143
83	0xbe601cbb	-0.2188596
84	0xbe09d4e0	-0.13460112
85	0xbe3d9b22	-0.1851621
86	0xbdec3f32	-0.11535491
87	0xbea79c04	-0.32736218
88	0x3e147bf8	0.14500415
89	0x3dbbd966	0.09172325
90	0xbdd565cb	-0.10419806
91	0xbdedb084	-0.11605933
92	0xbe1f0f18	-0.15533102
93	0x3ccdc616	0.025118869
94	0x3d2cd785	0.042197723
95	0x3d2ebeaf	0.04266232
96	0xbcde3e45	-0.027129302
97	0x3ce51fb9	0.027969228
98	0x3e5ad46e	0.21370098
99	0xbe10b807	-0.14132701
100	0x3d4d6a90	0.050150454
101	0x3d23f5c8	0.040029317
102	0x3d95fe9f	0.07323956
103	0x3e0211a8	0.12702048
104	0xbde30814	-0.11085525
105	0xbe9411c6	-0.2891981
106	0xbe86fc15	-0.26364198
107	0xbe5ef73a	-0.21773997
108	0xbe3ddcd1	-0.18541266
109	0xbe95f6b5	-0.29289785
110	0xbe93a47f	-0.28836438
111	0x3dcb79bf	0.099353306
112	0x3d6358d6	0.055504642
113	0xbeb08896	-0.34479207
114	0x3df3f963	0.11912801
115	0x3bd8d487	0.006617132
116	0xbea26eb0	-0.31725073
117	0xbede1465	-0.43374935
118	0x3dc9ad57	0.09847515
119	0x3dc9b8f6	0.098497316
120	0xbe3fb1c4	-0.18720156
121	0xbf6dd317	-0.9290022
122	0xba81ffda	-0.0009918169
123	0xbe70f8bf	-0.23532389
124	0xbcd0f20f	-0.025506048
125	0x3e71d15d	0.23615022
126	0x3e00a222	0.12561849
127	0xbd4981c7	-0.04919603
128	0xbce77ee0	-0.02825874
129	0xbbffe3d7	-0.007809143
130	0x3e248346	0.16065702
131	0xbcce605e	-0.025192436
132	0xbd643f7d	-0.05572461
133	0xbe5d48ce	-0.21609804
134	0xbd862c82	-0.06551458
135	0x3cab7718	0.020930812
136	0x3e1915f0	0.14949775
137	0x3d5cc4f3	0.053898763
138	0xbd8fc37d	-0.07019708
139	0xbdb8b671	-0.09019173
140	0xbe3e315c	-0.18573517
141	0xbcfc8700	-0.030826092
142	0x3e3fd4f1	0.18733574
143	0xbd9a9768	-0.0754841
144	0x3d444442	0.04791666
145	0x3da04eaf	0.07827508
146	0xbd3a2390	-0.04544407
147	0x3e293b41	0.1652651
148	0xbd727a86	-0.05919888
149	0x3d50016a	0.0507826
150	0xbe14530d	-0.14484806
151	0xbd46dbbb	-0.048549395
152	0xbca9f9cb	-0.020748993
153	0x3e015fca	0.12634197
154	0x3dd53adb	0.104116164
155	0xbceae321	-0.028672757
156	0xbcf0e0e1	-0.029404106
157	0xbd2e4266	-0.04254379
158	0xbc469f52	-0.012122946
159	0x3dba9942	0.09111263
160	0xbc2dec35	-0.010615398
161	0x3d816d1b	0.06319638
162	0xbdde1b96	-0.10845105
163	0xbe921a4d	-0.2853569
164	0xbd92d0b1	-0.07168711
165	0x3c2ddb85	0.01061142
166	0x3d88a1ce	0.06671487
167	0x3e1bee48	0.15227616
168	0x3cf5b212	0.029992137
169	0xbe037ef6	-0.128414
170	0xbe57d4ba	-0.21077242
171	0x3dc818dd	0.09770367
172	0x3d9a748c	0.07541761
173	0xbe3fe274	-0.18738729
174	0xbda2a8c3	-0.07942345
175	0x3da87a83	0.08226492
176	0xbbe66992	-0.007031628
177	0x3df53921	0.11973787
178	0x3de5422a	0.111942604
179	0xbe2a5b55	-0.16636403
180	0xbcd74824	-0.026279517
181	0xbe6e2e13	-0.23259763
182	0xbcf0aeec	-0.029380284
183	0x3e1243fa	0.14283744
184	0x3d3f3801	0.04668427
185	0xbf06bec5	-0.5263484
186	0xbe491dd3	-0.19640283
187	0x3dba110e	0.09085284
188	0x3d97db8e	0.074149236
189	0xbe001b89	-0.12510504
190	0xbdb14b1b	-0.08656903
191	0xbe6ae8c4	-0.22940356
192	0x3cb0b761	0.021571817
193	0xbdb4447a	-0.08802123
194	0x3dcbb814	0.099472195
195	0xbc4f55f8	-0.012654774
196	0xbd45620c	-0.048189208
197	0x3c743ff7	0.0149078285
198	0x3de07012	0.10958876
199	0xbe241367	-0.16023026
200	0x3e11afb7	0.14227186
201	0xbdc4a729	-0.09602196
202	0x3c269416	0.010167142
203	0xbe35c2f9	-0.17750157
204	0xbd0c795a	-0.034295417
205	0xbedf6907	-0.43634817
206	0x3dc05e25	0.09392957
207	0xbe1e0d91	-0.15434863
208	0x3da13473	0.07871332
209	0x3c82e08d	0.015976215
210	0x3ca74037	0.020416362
211	0xbc7b4eaa	-0.015338579
212	0x3cc9203c	0.024551503
213	0x3d848bca	0.06471975
214	0x3dfc781e	0.12327598
215	0xbe9f427a	-0.31105405
216	0xbe21cd90	-0.15801072
217	0x3d74fbcd	0.05981045
218	0x3dd945bc	0.10609004
219	0xb9630cd0	-0.0002165318
220	0x3db86269	0.09003145
221	0xbc5eb53d	-0.013593015
222	0x3dfae2a8	0.122502625
223	0xbd4ed67b	-0.050497513
224	0x3d3da7d5	0.046302635
225	0xbe09f623	-0.134728
226	0xbe2fd230	-0.17170024
227	0xbe0ecd42	-0.13945487
228	0x3dd41f6b	0.10357555
229	0xbdd60c9c	-0.10451624
230	0xbe14a07d	-0.14514346
231	0x3d9e6cea	0.077356175
232	0x3d9f9420	0.077919245
233	0x3d6068ac	0.054787323
234	0xbe3cf2d4	-0.18452007
235	0x3c693eb3	0.01423614
236	0xbbd315db	-0.0064418144
237	0xbd37d8ad	-0.044884373
238	0x3d07aed8	0.03312573
239	0xbe132f41	-0.14373495
240	0xbe363253	-0.17792635
241	0x3d8494e2	0.0647371
242	0xbcf4eee1	-0.029899063
243	0xbe0947a2	-0.13406232
244	0xbe5ad258	-0.21369302
245	0x3b78b560	0.0037949905
246	0xb9b66fcb	-0.00034797037
247	0x3d4c676d	0.049903322
248	0x3dda1474	0.106484324
249	0xbe979919	-0.29608992
250	0x3e04298b	0.12906472
251	0xbc48ce2c	-0.012256186
252	0x3df8c9e4	0.121478826
253	0xbd9d2bcf	-0.076743715
254	0x3d4a8c76	0.04945036
255	0x3da9ea48	0.08296639

fc4.bias f4 [10]
0	0x3db13f58	0.0865466
1	0xbdd78b82	-0.10524656
2	0xbe0c2b12	-0.13688305
3	0x3d3277ea	0.04357139
4	0xbd2deddc	-0.04246317
5	0xbcb97766	-0.022639941
6	0xbe5360d4	-0.20642406
7	0xbbc4543c	-0.005991487
8	0x3e92202c	0.2854017
9	0x3dcc865f	0.09986567
